autoencoders/lightning_logs/mlp/version_2/checkpoints/epoch=149-step=24749.ckpt (torch, 585337 bytes, 94 tensors)

encoder.0.weight f4 [100, 100]
0	0xbdc4331a	-0.09580059
1	0x3c994d00	0.018713474
2	0x3d874d82	0.0660658
3	0xbd8a1f15	-0.0674421
4	0xbc3a952c	-0.011388104
5	0x3d96a70c	0.073560804
6	0x3c23a700	0.009988546
7	0xbced0bef	-0.028936354
8	0x3d77a1d2	0.06045706
9	0xbd8e4c5a	-0.06948157
10	0x3cdfc08d	0.027313495
11	0x3c9bdf9d	0.019027526
12	0xbcccb11f	-0.024986802
13	0xbd88f258	-0.066868484
14	0x3d2b127a	0.041765667
15	0xbb507267	-0.003180647
16	0x3d198543	0.037480604
17	0x3c8450d5	0.016151825
18	0xbd651cc8	-0.05593565
19	0x3d4e841f	0.05041897
20	0xbd0d8dc2	-0.03455902
21	0x3c8ed1da	0.01743405
22	0xbd6ef2c9	-0.058337007
23	0x3d0b0e76	0.033949338
24	0x3cf3972e	0.029735174
25	0xbd8e2e77	-0.06942456
26	0x3d70aed1	0.058760468
27	0x3d99139f	0.074744456
28	0xbda137cd	-0.07871971
29	0xbda8609e	-0.08221553
30	0x3db87ecd	0.0900856
31	0x3cdae77a	0.026721705
32	0x3d5d50a9	0.054032
33	0xbc87a913	-0.016560113
34	0x3d1347b3	0.03595705
35	0xbdb0b283	-0.086277984
36	0xbd7feb9d	-0.062480558
37	0xbdb5662c	-0.08857378
38	0xbda54da3	-0.08071449
39	0xbd8f0b33	-0.06984558
40	0x3d9fb0d8	0.07797402
41	0x3d1357b8	0.035972327
42	0x3d3da101	0.046296123
43	0xbda77296	-0.081761524
44	0xbd8f786e	-0.07005392
45	0x3dc6db77	0.09709828
46	0x3d65d197	0.056108084
47	0xbdb37a06	-0.087635085
48	0x3c8e9fb1	0.017410131
49	0xbdccf837	-0.10008281
50	0xbda7e005	-0.08197025
51	0x3cc9e682	0.024646048
52	0xbda5728d	-0.080784895
53	0x3d83c659	0.06434316
54	0x3d335537	0.04378244
55	0x3995de79	0.0002858525
56	0xbd9bfc6e	-0.076165065
57	0x3d93bd22	0.072138086
58	0x3c918abf	0.017766355
59	0xbdbb1797	-0.09135359
60	0xbcfe4996	-0.031040948
61	0x3d1e2b72	0.03861565
62	0xbd38041d	-0.044925798
63	0xbd9cfb37	-0.07665103
64	0x3dc5bc63	0.096550725
65	0x3d981ba9	0.07427151
66	0x3dba4ce2	0.090966955
67	0x3d86b184	0.06576827
68	0x3dc49668	0.09599
69	0x3dbb4fbc	0.091460675
70	0xbced3489	-0.028955715
71	0xbdc09672	-0.09403695
72	0x3db5c402	0.08875276
73	0xbd57503d	-0.052566756
74	0x3d94a144	0.072573215
75	0xbdc19cbe	-0.09453724
76	0x3db1158d	0.086466886
77	0x3dc966be	0.0983405
78	0xbdc817ab	-0.09770139
79	0xbd8220fd	-0.06353948
80	0x3d53534c	0.05159311
81	0xbd78e836	-0.06076833
82	0x3c900307	0.017579569
83	0xbdb5f7e2	-0.088851705
84	0xbbc3badc	-0.005973203
85	0x3db60011	0.088867314
86	0xbd339c6d	-0.04385035
87	0xbd12301b	-0.03569041
88	0xbb4194b0	-0.0029538088
89	0x3d59c54e	0.05316668
90	0xbcd4e7bd	-0.025989408
91	0xbdace9ee	-0.08443056
92	0xbd136c2d	-0.035991836
93	0xbcdff995	-0.02734069
94	0xbc805f34	-0.015670396
95	0xbc37789a	-0.011198187
96	0xbceb5b0a	-0.028729934
97	0xbd2a124d	-0.04152136
98	0xbdba813b	-0.0910668
99	0xbdb2c528	-0.08729011
100	0x3bf3de9d	0.007442309
101	0xbc47a47d	-0.012185213
102	0xbd85e9a8	-0.06538707
103	0xbb596c60	-0.0033176169
104	0x3cc30280	0.023804903
105	0x3d9c3b2e	0.07628475
106	0xbdbc49f0	-0.0919379
107	0x3d6e8ed8	0.058241695
108	0xbda439c5	-0.08018831
109	0x3d46c942	0.04853178
110	0x3d45e5f0	0.04831499
111	0x3d2fdc60	0.042934775
112	0xbd76b877	-0.060234513
113	0xbd310644	-0.043218866
114	0xbcedc2cc	-0.02902355
115	0xbd333325	-0.043749947
116	0xbdbb8990	-0.09157097
117	0x3d1ef95a	0.03881202
118	0xbd6342d4	-0.055483654
119	0x3d51639a	0.051120378
120	0x3d15ab80	0.03654051
121	0xbc372944	-0.011179272
122	0x3da6fe29	0.08153946
123	0x3d807267	0.062718205
124	0xbc7e00f4	-0.015503157
125	0x3d915df4	0.07097998
126	0x3bfead46	0.0077721206
127	0xbdc922e7	-0.0982111
128	0xbd89bb30	-0.06725156
129	0xbd9c590b	-0.07634171
130	0xbdac6739	-0.08418126
131	0xbdc2e36c	-0.095160335
132	0x3d9074d4	0.07053533
133	0xbd9360a8	-0.0719617
134	0x3ca78296	0.02044801
135	0xbcbb8d05	-0.022894392
136	0xbc1f1fab	-0.00971214
137	0x3d2e54ee	0.042561464
138	0xbdaaa25f	-0.08331751
139	0xbc8315a2	-0.016001526
140	0xbd32fe91	-0.043699805
141	0xbd2dc8e6	-0.04242792
142	0xbd270301	-0.04077435
143	0xbd04a43b	-0.032383185
144	0xbd7e5d30	-0.06210059
145	0x3d8051b4	0.06265584
146	0xbca79b7f	-0.020459889
147	0xbda0c22a	-0.07849534
148	0x3da949c3	0.08266022
149	0x3d8a6519	0.06757564
150	0xbd14e326	-0.036349438
151	0xbda47993	-0.08031001
152	0x3d916dd0	0.07101023
153	0xbd91a084	-0.07110694
154	0xbd8cb720	-0.06870866
155	0xbd5ef518	-0.05443296
156	0x3d5513ef	0.052020963
157	0x3c6304fe	0.013856171
158	0xbd0cb797	-0.034354772
159	0xbdb61c0f	-0.088920705
160	0x3d9bb8ef	0.07603633
161	0xbc6d548b	-0.014485489
162	0x3dcc86dc	0.0998666
163	0xbbebc751	-0.007195391
164	0x3db36ebd	0.08761356
165	0x3aa0ffce	0.0012283267
166	0x3cbb0f54	0.022834457
167	0xbce968fb	-0.028492441
168	0xbdbe93a1	-0.09305502
169	0x3bc1d016	0.0059146984
170	0xbd897b8b	-0.06713017
171	0x3d651a4e	0.05593329
172	0xbdc8c7d6	-0.09803741
173	0xbce37bf7	-0.027769072
174	0xbd32e8c8	-0.04367903
175	0x3ce6c50f	0.028170137
176	0x3c913de7	0.017729713
177	0xbcce015e	-0.025147136
178	0xbdca7112	-0.09884848
179	0xbd99d3cb	-0.075110994
180	0xbd9dd653	-0.07706895
181	0x3d98778c	0.07444677
182	0x3d8922fc	0.06696126
183	0xbd9c9d99	-0.07647247
184	0x3d807973	0.062731646
185	0xbd670ef2	-0.056410737
186	0x3d9c5519	0.076334186
187	0xbd6853a2	-0.056720383
188	0xbcb9e84c	-0.022693776
189	0xbb9dcf82	-0.0048159966
190	0x3d48e705	0.049048442
191	0xbd85fc81	-0.06542302
192	0xbb1d839a	-0.002403474
193	0xbd39360f	-0.04521757
194	0x3b956f5a	0.0045603933
195	0xbdc772fd	-0.09738729
196	0x3dccb570	0.09995544
197	0xbc949623	-0.018137997
198	0x3d95643d	0.072945096
199	0xbd376d59	-0.044782016
200	0x3d296aad	0.0413615
201	0x3dc9ef6e	0.09860121
202	0x3d8c4d34	0.06850663
203	0x3d828e3a	0.06374784
204	0x3d108d98	0.035291284
205	0x3c9cad42	0.019125585
206	0x3dc381f0	0.09546268
207	0xbd89ffe5	-0.06738261
208	0xbc4e32df	-0.012585371
209	0x3d93fbf6	0.07225792
210	0xbca7833f	-0.020448325
211	0x3ce5b9a7	0.028042627
212	0xbd014b8e	-0.031566195
213	0x3c86dd93	0.016463077
214	0xbd865419	-0.06559009
215	0x3dcac143	0.09900143
216	0xbd2450da	-0.04011617
217	0xbd7d8bc1	-0.061900858
218	0x3c18db3e	0.009329615
219	0xbd93548b	-0.0719386
220	0xbdc5c0ad	-0.096558906
221	0xbdbe661f	-0.09296822
222	0x3cbc7307	0.023004068
223	0x3cbdedff	0.023184774
224	0xbdc5d647	-0.09660011
225	0x3c98b283	0.018639809
226	0xbdad4006	-0.08459477
227	0x3d040a69	0.03223649
228	0x3dc6f992	0.097155705
229	0x3d8e751a	0.06955929
230	0x3d8c0211	0.06836332
231	0x3d8b3692	0.06797518
232	0x3dae4e5c	0.085110396
233	0x3d766413	0.060154032
234	0x3db6e8c4	0.08931115
235	0x3d99db36	0.07512514
236	0x3db68b4c	0.089132875
237	0xbd8500a0	-0.0649426
238	0x3d3a59a2	0.045495637
239	0x3d1fef91	0.039046828
240	0xbdbe4cfd	-0.09292028
241	0x3d3c0c45	0.04591014
242	0x3d5860a6	0.052826546
243	0x3d110016	0.035400473
244	0x3dbd211a	0.09234829
245	0x3c362dfa	0.01111936
246	0xbceb5d81	-0.02873111
247	0x3dae5b24	0.085134774
248	0xbdc64a68	-0.096821606
249	0x3ca93ce7	0.020658923
250	0x3d9850de	0.07437299
251	0xbd8433bd	-0.06455181
252	0x3dbeb13a	0.09311147
253	0x3d508467	0.05090752
254	0xbb7ff7ca	-0.0039057606
255	0x3c2560ec	0.010093909

encoder.0.bias f4 [100]
0	0xbd335571	-0.043782655
1	0xbd4086e5	-0.047003645
2	0xbd2cdec3	-0.04220463
3	0xbdaef2ec	-0.085424274
4	0xbdb12fbd	-0.086516835
5	0x3ce48720	0.027896464
6	0xbd9a963f	-0.075481884
7	0x3d4c4eb9	0.049879763
8	0x3d81f7a5	0.063460626
9	0xbbc266b9	-0.0059326557
10	0xbd919413	-0.07108321
11	0xbd833680	-0.064068794
12	0x3c978f64	0.018500991
13	0xbdb00d4b	-0.085962854
14	0x3da561ba	0.080752805
15	0xbbfdeb8f	-0.007749028
16	0x3d8daa81	0.06917287
17	0x3d0a69ac	0.033792183
18	0xbcff5134	-0.03116665
19	0xbce5909b	-0.028023055
20	0xbd784197	-0.060609426
21	0x3db1e37b	0.086859666
22	0x3d5c8030	0.053833187
23	0x3d97722d	0.07394824
24	0x3d3bfe8e	0.04589706
25	0x3dc73d82	0.097285286
26	0xbdb8050f	-0.0898534
27	0x3d0df2d9	0.034655426
28	0xbdb635bb	-0.08896967
29	0xbbb1f00c	-0.005430227
30	0x3d955ca7	0.07293063
31	0x3d617458	0.055042595
32	0xbd254307	-0.040347125
33	0xbd868d10	-0.06569874
34	0x3c697d49	0.014251062
35	0x3db917f2	0.0903777
36	0x3ceea9e5	0.029133746
37	0xbdbfcceb	-0.09365257
38	0xbccf93a3	-0.025338953
39	0xbd9ed795	-0.07755963
40	0x3d52d18e	0.05146938
41	0x3d159d50	0.036526978
42	0xbc007b83	-0.0078419475
43	0xbdbf7a36	-0.09349482
44	0x3c84af78	0.016196951
45	0x3d3e77c6	0.046500944
46	0xbc120812	-0.008913057
47	0xbb0f2a28	-0.0021845195
48	0x3d9f7957	0.077868156
49	0xbcb26203	-0.021775251
50	0x3b7bc1eb	0.0038415145
51	0x3ce3be96	0.02780084
52	0xbd12bf7b	-0.03582714
53	0x3cbfe4a9	0.023424463
54	0xbd2186b5	-0.039435107
55	0x3af2433b	0.0018483171
56	0xbb5c64ef	-0.0033629497
57	0x3d114aee	0.03547185
58	0x3d83e320	0.06439805
59	0x3dc7de96	0.09759252
60	0x3d6b11a2	0.057389863
61	0x3d6b8264	0.057497397
62	0x3daa5812	0.08317579
63	0x3dc4f506	0.09617047
64	0x3dc417af	0.0957483
65	0xbc185b53	-0.009299117
66	0x3d9494c9	0.07254941
67	0x3913e40c	0.00014103967
68	0xbc08437c	-0.008316871
69	0x3bf9c636	0.0076225055
70	0x3d842886	0.06453042
71	0x3d5f4be4	0.054515734
72	0xbd857ce2	-0.0651796
73	0xbd169f02	-0.036772735
74	0xbd69f25f	-0.05711591
75	0xbd2db313	-0.042407107
76	0x3d16ae21	0.036787156
77	0x3db42600	0.087963104
78	0x3dbf78e0	0.09349227
79	0xbc68c972	-0.014208185
80	0xbd7b0d84	-0.061292186
81	0x3d3fdcf4	0.046841577
82	0xbc32f128	-0.010921754
83	0xbdb0221e	-0.08600257
84	0xbd6477b7	-0.05577823
85	0x3d52fc48	0.051510125
86	0x3a440858	0.000747805
87	0xbd81e816	-0.06343095
88	0xba6ecade	-0.0009109209
89	0xbd8f0318	-0.06983012
90	0xbb1e8fe3	-0.002419465
91	0x3da81fa9	0.08209164
92	0xbd1003f4	-0.03516002
93	0x3cafc63f	0.021456836
94	0x3d3730b3	0.044724178
95	0x3cefcb41	0.029271724
96	0xbd8a8442	-0.067635074
97	0xbda1eec3	-0.07906868
98	0x3dba9d46	0.09112029
99	0xbbfdc102	-0.0077439556

encoder.2.weight f4 [100]
0	0x3f8038a9	1.0017291
1	0x3f8014a8	1.0006304
2	0x3f7fdbcd	0.99944764
3	0x3f7fb5f6	0.99887025
4	0x3f800000	1.0
5	0x3f7f8e49	0.99826485
6	0x3f80155f	1.0006522
7	0x3f7fda53	0.9994251
8	0x3f7fe35c	0.999563
9	0x3f803083	1.0014805
10	0x3f800000	1.0
11	0x3f801048	1.0004969
12	0x3f7f8984	0.9981921
13	0x3f800000	1.0
14	0x3f7fe126	0.99952924
15	0x3f800f6f	1.000471
16	0x3f7fdf73	0.9995033
17	0x3f7f57d0	0.99743366
18	0x3f800778	1.0002279
19	0x3f803af8	1.0017996
20	0x3f800000	1.0
21	0x3f800dbe	1.0004194
22	0x3f7fd706	0.99937475
23	0x3f7f9037	0.9982943
24	0x3f7fef26	0.99974287
25	0x3f7fe407	0.9995732
26	0x3f800000	1.0
27	0x3f801afb	1.0008234
28	0x3f800000	1.0
29	0x3f804571	1.0021192
30	0x3f801729	1.0007068
31	0x3f8025c6	1.0011528
32	0x3f80122a	1.0005543
33	0x3f801263	1.0005611
34	0x3f8037d4	1.0017037
35	0x3f7fb89e	0.9989108
36	0x3f7fc856	0.99915063
37	0x3f7ff53e	0.99983585
38	0x3f7f8e8e	0.99826896
39	0x3f8002bd	1.0000836
40	0x3f7ff5c9	0.99984413
41	0x3f7fa91b	0.9986741
42	0x3f7ffe39	0.9999729
43	0x3f7fd38f	0.9993219
44	0x3f800c12	1.0003684
45	0x3f7fe17c	0.99953437
46	0x3f7fdde8	0.9994798
47	0x3f7ff16d	0.9997776
48	0x3f7fdd7c	0.99947333
49	0x3f80269b	1.0011781
50	0x3f800c80	1.0003815
51	0x3f7fca29	0.99917847
52	0x3f803884	1.0017247
53	0x3f803afc	1.0018001
54	0x3f801d3e	1.0008924
55	0x3f7fab5c	0.9987085
56	0x3f801c0f	1.0008563
57	0x3f804f49	1.0024196
58	0x3f803014	1.0014672
59	0x3f801ba4	1.0008435
60	0x3f800522	1.0001566
61	0x3f8038ac	1.0017295
62	0x3f7fa14b	0.9985549
63	0x3f7ff32d	0.9998043
64	0x3f803443	1.0015949
65	0x3f801203	1.0005497
66	0x3f7fc506	0.9991001
67	0x3f8028b0	1.0012417
68	0x3f802d74	1.0013871
69	0x3f7fe3c2	0.99956906
70	0x3f80000b	1.0000013
71	0x3f800362	1.0001032
72	0x3f800000	1.0
73	0x3f80071c	1.000217
74	0x3f80033b	1.0000986
75	0x3f800000	1.0
76	0x3f7fc54a	0.99910414
77	0x3f800f78	1.0004721
78	0x3f7fbfb7	0.9990191
79	0x3f80482d	1.0022026
80	0x3f7ff97b	0.9999005
81	0x3f800779	1.000228
82	0x3f800b39	1.0003425
83	0x3f7fe670	0.99960995
84	0x3f7fca09	0.99917656
85	0x3f80194d	1.0007721
86	0x3f7fa64c	0.99863124
87	0x3f7fd9e4	0.9994185
88	0x3f800b1d	1.0003392
89	0x3f800000	1.0
90	0x3f7fd983	0.9994127
91	0x3f7fd1a9	0.9992929
92	0x3f801d48	1.0008936
93	0x3f7f8a75	0.99820644
94	0x3f8000a9	1.0000201
95	0x3f80240d	1.0011002
96	0x3f7fe715	0.9996198
97	0x3f800000	1.0
98	0x3f7fa58d	0.99861985
99	0x3f7fd91c	0.9994066

encoder.2.bias f4 [100]
0	0xbb1f466e	-0.0024303454
1	0xba7547c0	-0.00093567
2	0xba69f532	-0.00089247816
3	0xba4b87a8	-0.000776405
4	0x3ac937a5	0.0015351666
5	0xba2108eb	-0.00061429915
6	0xb90540fd	-0.00012708078
7	0x3b3aee94	0.0028523551
8	0xbb02adc0	-0.001993999
9	0xb992ed1f	-0.0002802396
10	0x398a4701	0.00026374313
11	0xbacb3480	-0.0015503317
12	0xbb0f2777	-0.0021843591
13	0x3a3475fe	0.0006884037
14	0x3a55b356	0.00081520283
15	0xba934fa5	-0.0011238946
16	0xba50f362	-0.0007970837
17	0xba0ff857	-0.00054920226
18	0xb931b4d8	-0.00016947405
19	0x3b03266d	0.0020011917
20	0xbb0fcef8	-0.0021943431
21	0x39970dba	0.0002881119
22	0xb8c40c4a	-9.348297e-05
23	0x3944b6c2	0.00018760099
24	0x3a2b394d	0.0006531671
25	0x3b17d266	0.0023166179
26	0x3a2f9a07	0.0006698672
27	0x3a606965	0.0008560627
28	0xb98c34fb	-0.00026742354
29	0xb97fb087	-0.00024384457
30	0xb9985c34	-0.00029060396
31	0x3a0f1606	0.0005458299
32	0xb9634313	-0.00021673394
33	0x3a450c23	0.0007516762
34	0x39791c1f	0.00023756966
35	0xb88437d5	-6.30465e-05
36	0x368ef084	4.2599295e-06
37	0x3a3d9de3	0.0007233305
38	0x3adf3193	0.0017028324
39	0x3a4ceb73	0.0007817067
40	0xba084493	-0.00051982066
41	0x3a5e1d7e	0.00084730226
42	0xb9f88ddf	-0.00047407948
43	0x39b02d07	0.00033602884
44	0x39f04e98	0.00045834924
45	0x3a44a927	0.00075020123
46	0x3aa9c99e	0.0012953763
47	0x3a654846	0.00087464263
48	0x3a15e283	0.0005717652
49	0xba39dfdf	-0.00070905493
50	0xb9f9f14d	-0.00047672764
51	0xb8b76943	-8.7457265e-05
52	0x3a331b29	0.0006832355
53	0xbaa5df4e	-0.0012655051
54	0x3ab18147	0.0013542556
55	0x39067410	0.00012822472
56	0x3ab58ef0	0.0013851803
57	0x36cb43dc	6.0577713e-06
58	0xba655ba1	-0.00087493105
59	0x3a536b76	0.0008065024
60	0x3a05743d	0.0005090868
61	0x3988058a	0.00025944068
62	0xbaa994f8	-0.0012938073
63	0xbaa5b897	-0.0012643513
64	0xbaece7c2	-0.001807444
65	0x3920184f	0.00015267845
66	0x3949df14	0.00019251957
67	0xb6ebbdbd	-7.025634e-06
68	0xb9fd5b9f	-0.00048324183
69	0x37baf36c	2.228628e-05
70	0x392d62a5	0.00016535314
71	0xb8965fc8	-7.170398e-05
72	0xbad40663	-0.001617622
73	0xba05bbcd	-0.0005101532
74	0x3a4ee33d	0.00078921375
75	0xbb1246a8	-0.0022319946
76	0x3980517e	0.0002447478
77	0x3b16886f	0.0022969504
78	0xb983abe6	-0.0002511434
79	0xb80438e8	-3.152425e-05
80	0xb929bc57	-0.00016187258
81	0xb972822c	-0.00023127411
82	0xb9f4504f	-0.0004659914
83	0x38889dfd	6.514413e-05
84	0xb8b7dc5c	-8.767165e-05
85	0xb9f4ecd8	-0.0004671577
86	0xb9abf8c2	-0.00032801
87	0xb8c6f75e	-9.4874515e-05
88	0xba323f7a	-0.000679962
89	0xb988affe	-0.00026071066
90	0x3afd5113	0.001932653
91	0xba5b3483	-0.0008362012
92	0x3942ea0c	0.00018588471
93	0xb9cb216b	-0.00038744076
94	0x3a46c482	0.00075823825
95	0x38a3b2ba	7.805736e-05
96	0xba2ba7c9	-0.0006548134
97	0x37f41c49	2.9100238e-05
98	0x3a353c8f	0.0006913626
99	0x3a6832e3	0.00088576804

encoder.2.running_mean f4 [100]
0	0x369619d3	4.4733547e-06
1	0x2d0751e7	7.6920475e-12
2	0x00000004	6e-45
3	0x38029421	3.113237e-05
4	0x00000000	0.0
5	0x3cee8caf	0.029119818
6	0x2e26350a	3.779114e-11
7	0x3d4c3ade	0.049860828
8	0x3d794092	0.060852595
9	0x3ac8932c	0.001530265
10	0x00000000	0.0
11	0x38601ae4	5.3430806e-05
12	0x3c9d6dd5	0.019217411
13	0x00000000	0.0
14	0x3d9e738a	0.07736881
15	0x3b6f1efb	0.0036486972
16	0x3d8855a7	0.06656962
17	0x3d1194f3	0.03554244
18	0x38b9c542	8.8582296e-05
19	0x399ad360	0.00029530656
20	0x00000000	0.0
21	0x3dba1d97	0.09087675
22	0x3d5f45d4	0.054509953
23	0x3d9f179d	0.07768176
24	0x3d3d527a	0.046221234
25	0x3dc7bb75	0.097525515
26	0x00000000	0.0
27	0x3d0f6860	0.03501165
28	0x00000000	0.0
29	0x3b8293b9	0.003984895
30	0x3d966965	0.07344321
31	0x3d5ac2d5	0.053408463
32	0x372e1237	1.0375449e-05
33	0x38711d7c	5.7486337e-05
34	0x3c97a963	0.018513387
35	0x3db830bc	0.0899367
36	0x3cfff8e4	0.03124661
37	0x38abe589	8.19667e-05
38	0x399baf27	0.00029694402
39	0x39062b4f	0.0001279537
40	0x3d4eada2	0.050458558
41	0x3d11b708	0.035574943
42	0x3b21c736	0.002468539
43	0x359de2c6	1.1763411e-06
44	0x3c9c6f00	0.019095898
45	0x3d572cf9	0.052533124
46	0x3a97cb7e	0.0011581031
47	0x3b6d2c59	0.0036189763
48	0x3d95c7f3	0.07313528
49	0x38fd5082	0.00012078976
50	0x3c0b2092	0.008491652
51	0x3cf61516	0.030039351
52	0x37782d2e	1.4792471e-05
53	0x3cc525e8	0.024065927
54	0x3938250c	0.00017561408
55	0x3b93e7bf	0.0045137103
56	0x3b2e680d	0.0026612312
57	0x3d270dd2	0.040784664
58	0x3d7b3482	0.061329372
59	0x3dc89c4e	0.09795438
60	0x3d61f8bf	0.055168863
61	0x3d7ade98	0.06124744
62	0x3da4e8b7	0.08052199
63	0x3dcbcd61	0.09951282
64	0x3dc0848d	0.09400282
65	0x3a96e106	0.0011511154
66	0x3d8ee723	0.069776796
67	0x3be81a17	0.0070831883
68	0x3b5d0562	0.0033725132
69	0x3c308172	0.01077305
70	0x3d84c039	0.06481976
71	0x3d4f2324	0.050570622
72	0x00000000	0.0
73	0x395d9235	0.00021130669
74	0x2ce2f33a	6.45031e-12
75	0x00000000	0.0
76	0x3d16da4c	0.036829278
77	0x3db3f204	0.08786395
78	0x3dbd7dbb	0.09252497
79	0x3a8f59a2	0.0010936747
80	0x00000004	6e-45
81	0x3d2eea43	0.042703878
82	0x3abb4fcd	0.001429075
83	0x00000004	6e-45
84	0x00000004	6e-45
85	0x3d5d2f5b	0.05400024
86	0x3be1a5f2	0.0068862373
87	0x2e5bd644	4.998514e-11
88	0x3bd64892	0.006539413
89	0x00000000	0.0
90	0x3b3a17a6	0.0028395443
91	0x3da9cf05	0.08291439
92	0x3799dd69	1.8342123e-05
93	0x3cd3e26a	0.025864799
94	0x3d3a959b	0.04555283
95	0x3cd99a0b	0.026562711
96	0x00000004	6e-45
97	0x00000000	0.0
98	0x3dbc1f33	0.09185638
99	0x3b1554ae	0.0022786069

encoder.2.running_var f4 [100]
0	0x3326abfd	3.880631e-08
1	0x29c49e3f	8.7316e-14
2	0x00000004	6e-45
3	0x3551b522	7.812215e-07
4	0x00000004	6e-45
5	0x39029db8	0.00012456521
6	0x2b1357e4	5.2346864e-13
7	0x392a0465	0.000162141
8	0x396e216c	0.000227099
9	0x3795c891	1.785558e-05
10	0x00000004	6e-45
11	0x35f08fae	1.792321e-06
12	0x39542426	0.00020231362
13	0x00000004	6e-45
14	0x391c23f2	0.0001489071
15	0x38fdb6e0	0.00012098043
16	0x392cea2f	0.00016490438
17	0x3975e71f	0.0002345112
18	0x35503014	7.7556e-07
19	0x36c5e66a	5.8978812e-06
20	0x00000004	6e-45
21	0x39a26c1e	0.000309796
22	0x397ef805	0.00024315722
23	0x3951e140	0.00020015705
24	0x3928f56c	0.00016113155
25	0x38d4ac39	0.00010141027
26	0x00000004	6e-45
27	0x391b0a30	0.00014785747
28	0x00000004	6e-45
29	0x385ac882	5.2161988e-05
30	0x38f90d20	0.0001187569
31	0x3952c6ce	0.00020101221
32	0x338666b5	6.2585436e-08
33	0x35f4f756	1.8251401e-06
34	0x393540aa	0.00017285594
35	0x392503d6	0.00015737055
36	0x397ae5ac	0.00023927417
37	0x368aed69	4.1403587e-06
38	0x365aee5e	3.262328e-06
39	0x372407b5	9.776956e-06
40	0x39246080	0.00015676208
41	0x38d56a54	0.000101764366
42	0x386646c3	5.4902175e-05
43	0x328ef763	1.6643474e-08
44	0x3906503f	0.0001280913
45	0x39b4a3cd	0.00034454316
46	0x37e862a3	2.7702486e-05
47	0x382281b9	3.8744623e-05
48	0x38ed31be	0.00011310306
49	0x3590787d	1.0763903e-06
50	0x38d4786c	0.00010131378
51	0x3916a6e4	0.00014367286
52	0x3351745a	4.8767426e-08
53	0x38fb9adb	0.00011997457
54	0x36784783	3.6996505e-06
55	0x38704e8b	5.7293608e-05
56	0x3812a52e	3.4962948e-05
57	0x395f26e6	0.00021281428
58	0x398ff8ce	0.0002746046
59	0x390aef52	0.0001324986
60	0x391ded76	0.00015061148
61	0x391ea2f1	0.00015128755
62	0x395f8954	0.00021318096
63	0x39849293	0.00025286208
64	0x39268313	0.00015879823
65	0x3767fb4f	1.3827185e-05
66	0x392ecfee	0.00016671393
67	0x392f3946	0.00016710637
68	0x38100ad7	3.434237e-05
69	0x38f0fe62	0.00011491474
70	0x392924d8	0.00016130821
71	0x391c3ece	0.00014900716
72	0x00000004	6e-45
73	0x362946f3	2.522426e-06
74	0x28895c3e	1.5250059e-14
75	0x00000004	6e-45
76	0x38e4ae1d	0.00010904318
77	0x38fa18af	0.000119255266
78	0x392049d7	0.00015286297
79	0x3791ef97	1.7396915e-05
80	0x00000004	6e-45
81	0x3992ae15	0.0002797699
82	0x3777bd74	1.4766458e-05
83	0x00000004	6e-45
84	0x00000004	6e-45
85	0x39434c59	0.00018625091
86	0x38b77560	8.747983e-05
87	0x2b5cc735	7.8436156e-13
88	0x392b4732	0.00016334353
89	0x00000004	6e-45
90	0x380c0562	3.3383614e-05
91	0x38f75526	0.00011793738
92	0x34a6fed2	3.1105316e-07
93	0x3929eeb4	0.0001620602
94	0x39419bbc	0.0001846393
95	0x392660b1	0.00015867014
96	0x00000004	6e-45
97	0x00000004	6e-45
98	0x38f92393	0.000118798715
99	0x37fb351f	2.9946268e-05

encoder.4.weight f4 [100, 100]
0	0xbda12a12	-0.078693524
1	0xbdaad9c5	-0.083423175
2	0x3d6deb62	0.058085807
3	0xbc530d1c	-0.0128815435
4	0xbd802d28	-0.06258613
5	0xbca41497	-0.02002935
6	0xbd644ff4	-0.05574031
7	0x3d8259cf	0.06364786
8	0xbcd24364	-0.0256669
9	0x3d7a2bdf	0.061076995
10	0xbc5612db	-0.013066019
11	0x3bc018bc	0.0058623236
12	0xbdc27214	-0.09494415
13	0xbd9d7475	-0.07688228
14	0x3db23845	0.08702139
15	0xbdb1fa41	-0.0869031
16	0x3cc7ec40	0.024404645
17	0xbd7b60b7	-0.06137153
18	0xbd87ccd6	-0.06630866
19	0x38681a7e	5.5337783e-05
20	0x3d307842	0.043083437
21	0xbd6a8ef0	-0.057265222
22	0xbdc22cdf	-0.09481215
23	0x3ce2a091	0.027664455
24	0x3c9bae10	0.019003898
25	0x3d87d31e	0.06632064
26	0x3d3f6b0e	0.046732955
27	0x3c479c1b	0.012183215
28	0xbda50fe3	-0.08059671
29	0xbdcdc727	-0.10047751
30	0x3d840c78	0.06447691
31	0x3dcd9417	0.100380115
32	0x3da22bdf	0.07918524
33	0xbda142c7	-0.07874065
34	0x3d97a537	0.07404559
35	0x3d219ba0	0.039455056
36	0x3c9aa92e	0.0188795
37	0xbc943eb4	-0.018096305
38	0x3cb5d75f	0.022197424
39	0x3d02f9dd	0.03197657
40	0xbd7402bf	-0.05957293
41	0x3c3372d4	0.01095267
42	0xbdc3e5bb	-0.09565302
43	0x3d60ffcc	0.054931447
44	0x3dc66a4b	0.096882425
45	0xbb3de6e2	-0.0028976728
46	0x3d9c88ec	0.07643303
47	0xbc34613c	-0.011009511
48	0x3d91dc68	0.07122117
49	0x3dab7d53	0.08373513
50	0xbcab3508	-0.02089931
51	0xbd90a798	-0.07063216
52	0x3da47f3c	0.080320805
53	0x3dc53108	0.096284926
54	0xbd1a907f	-0.03773546
55	0xbcd93c74	-0.026518084
56	0x3bdcd014	0.006738672
57	0xbd83570b	-0.064130865
58	0x3d4f8239	0.0506613
59	0x3cdcf240	0.026970983
60	0xbd95e18b	-0.073184095
61	0xbd9d8d1a	-0.076929286
62	0x3da0c71e	0.078504786
63	0xbdc7e085	-0.097596206
64	0xbd5fa623	-0.0546018
65	0xbd308f67	-0.04310551
66	0xbd55a3ea	-0.052158274
67	0xbb9f00fa	-0.0048524113
68	0x3c91543c	0.017740361
69	0xbca511ef	-0.020150153
70	0xbd4ec6a0	-0.050482392
71	0xbdccbf84	-0.09997466
72	0x3d8b81c2	0.06811859
73	0x3daf1747	0.08549362
74	0xbd8838d4	-0.06651464
75	0x3d9e8006	0.07739262
76	0xbd04b165	-0.03239574
77	0xbd81b56a	-0.0633343
78	0xbda0ab73	-0.07845201
79	0x3d1cf347	0.038317945
80	0x3ccda320	0.025102198
81	0x3d531d9c	0.05154191
82	0x3d9b01a3	0.075686716
83	0xbd358cc9	-0.044323716
84	0xbd9b36e9	-0.07578833
85	0xbd46a671	-0.048498575
86	0x3d9ea3c6	0.07746081
87	0xba865db3	-0.0010251313
88	0x3d8f2a8d	0.06990538
89	0xbd8a572d	-0.06754909
90	0x3dc581e0	0.09643912
91	0xbd15fe03	-0.036619198
92	0x3dbf106a	0.093293026
93	0x3db76fb4	0.089568526
94	0xbc96a4eb	-0.018389186
95	0x3c91db07	0.017804636
96	0x3d2ca24a	0.04214696
97	0x3d69138f	0.05690342
98	0xbdb98681	-0.09058858
99	0x39fecdcc	0.00048599986
100	0xbc21c24a	-0.009872982
101	0x3d693d9d	0.056943525
102	0x3d91e6ad	0.07124076
103	0xbc46a008	-0.012123115
104	0xbd81ed1d	-0.06344054
105	0xbdb3c66a	-0.08778079
106	0xbd45b240	-0.048265696
107	0xbd764cf5	-0.060131986
108	0xbc7c001f	-0.015380888
109	0xbdb5b677	-0.08872693
110	0x3d4fc027	0.05072036
111	0xbcbaf0c0	-0.022819877
112	0xbad83c2e	-0.0016497427
113	0xbd28ac00	-0.041179657
114	0x3c422332	0.0118492115
115	0xbccc3f52	-0.024932537
116	0x3d70d0d2	0.058792897
117	0xbda9be47	-0.08288246
118	0xbd3f3e1c	-0.04669009
119	0x3d3aa92e	0.0455715
120	0xbcc63eb1	-0.024199815
121	0x3d2ecb00	0.042674065
122	0x3cd6676c	0.026172362
123	0x3c7d6921	0.015466959
124	0x3d8aff1d	0.0678694
125	0x3ce6106c	0.028084002
126	0x3dbf0ff4	0.09329215
127	0xbd1abfc5	-0.037780542
128	0xbd8bdd62	-0.06829335
129	0x3d12e5cb	0.03586368
130	0xbb92cbf9	-0.004479882
131	0xbdaf88e2	-0.0857103
132	0x3d916435	0.07099191
133	0xbc0c986a	-0.00858126
134	0x3c4720de	0.012153832
135	0xbd951f6b	-0.07281383
136	0x3da0a0c7	0.07843166
137	0x3dc15ee4	0.09441927
138	0x3b3ca039	0.0028782024
139	0xbd77e9b5	-0.060525615
140	0x3cd09a73	0.025464272
141	0x3d3f0fcf	0.046645936
142	0xbd27c772	-0.04096169
143	0x3cbe7c32	0.02325258
144	0xbd8da0d6	-0.06915443
145	0xbcb7c449	-0.022432463
146	0xbd2e0a1e	-0.042490117
147	0x3b11a770	0.0022225045
148	0x3dc72284	0.0972338
149	0x3d0850ca	0.03328017
150	0xba18d2c9	-0.0005829749
151	0xbb457aa8	-0.0030132923
152	0x3d27e70d	0.04099183
153	0xbd8416f6	-0.06449692
154	0x3d8be9d8	0.068317115
155	0x3d763cac	0.060116455
156	0xbd945173	-0.07242098
157	0x3d3f42cd	0.046694566
158	0x3be28c69	0.006913711
159	0x3c963976	0.018337946
160	0x3d5aa8c6	0.05338361
161	0x3c6c032d	0.014405054
162	0xbd23f58d	-0.040029097
163	0x3da71204	0.08157733
164	0x3c33204c	0.010932993
165	0xbd1d14b0	-0.038349807
166	0xbd9fdd48	-0.07805878
167	0x3da21f4c	0.07916126
168	0xbd94cf9c	-0.07266161
169	0xbb5e4ee9	-0.0033921546
170	0xbb01e342	-0.0019819294
171	0x3afd1d43	0.0019311089
172	0xbd18f0c2	-0.03733898
173	0xbc9d8595	-0.019228736
174	0xbdca5c55	-0.09880892
175	0x3cb56802	0.022144321
176	0xbcaf2eaa	-0.021384556
177	0xbdcebc8d	-0.10094557
178	0xbda71941	-0.08159114
179	0xbd91730a	-0.0710202
180	0x3a9d7869	0.0012014034
181	0xbd72136c	-0.059100553
182	0xbd24ab30	-0.04020232
183	0xbdab1495	-0.08353535
184	0x3d4115a8	0.047139794
185	0xbc4a8987	-0.012361891
186	0x3d94ef36	0.07272188
187	0xbb20dc01	-0.0024545195
188	0x3d737b48	0.059443742
189	0xbd26b696	-0.04070147
190	0xbd1a768c	-0.03771071
191	0xbd978ae5	-0.07399539
192	0xbd5b2274	-0.053499654
193	0xbd6d852b	-0.057988327
194	0xbd3debfc	-0.04636763
195	0x3d74bc30	0.059749782
196	0x3db10ef5	0.08645431
197	0x3d125dea	0.035734095
198	0xbd2fe558	-0.04294333
199	0xbd72fac5	-0.059321184
200	0xbda2e56a	-0.079539135
201	0xbc9ed71b	-0.01938968
202	0xbdc9887e	-0.09840487
203	0xbdbb5337	-0.09146731
204	0x3cfbdac9	0.030743973
205	0xbc29f928	-0.010374345
206	0xbd4484a7	-0.04797807
207	0x3d286d0e	0.041119628
208	0xbd8ca70e	-0.06867801
209	0xbd5d1848	-0.053978235
210	0x3cbde6c2	0.023181323
211	0xbd34e1ad	-0.044160534
212	0xbd9f5bc2	-0.07781173
213	0x3ceef848	0.029171124
214	0xbd2a45df	-0.04157054
215	0x3d98add4	0.0745503
216	0x3b6833aa	0.0035431185
217	0x3d965b39	0.07341618
218	0xbd238ca3	-0.039929044
219	0x3d83df79	0.064391084
220	0xbd84b5d6	-0.06479995
221	0x3d84ecec	0.06490502
222	0xbdab5d9b	-0.08367463
223	0x3b63b108	0.003474297
224	0x3cedd84b	0.0290338
225	0x3d69ae96	0.057051264
226	0x3d41bdfe	0.04730033
227	0x3d1fa9cb	0.038980287
228	0x3d0be969	0.034158144
229	0xbd048263	-0.03235091
230	0xbc2b26d5	-0.01044627
231	0x3d971c4c	0.07378444
232	0xbc12271f	-0.00892046
233	0x3c7cd492	0.01543154
234	0xbba14588	-0.004921619
235	0x3db0fa02	0.08641435
236	0xbd127e13	-0.035764765
237	0xbcd182b2	-0.025575016
238	0x3d8c4bc6	0.0685039
239	0x3c8c733a	0.017144788
240	0x3d0eed29	0.034894142
241	0xbd0fd239	-0.035112593
242	0xbd9bfe15	-0.07616822
243	0x3c25eb87	0.010126955
244	0x3bcccca6	0.006249982
245	0xbcb7e902	-0.022449974
246	0x3da17d52	0.07885231
247	0xbc7ee62b	-0.015557806
248	0x3db5871e	0.08863662
249	0xbc5bddf3	-0.013419616
250	0xbcad1578	-0.021128401
251	0xbcaedf87	-0.02134682
252	0xbcb900dc	-0.022583418
253	0xbd3cafca	-0.046066083
254	0x3d557d69	0.052121554
255	0xbd93ae32	-0.072109595

encoder.4.bias f4 [100]
0	0xbd18357b	-0.037160378
1	0x3cfe1c52	0.031019364
2	0x3dbefc22	0.09325434
3	0xbd212714	-0.03934391
4	0x3d7165dc	0.05893503
5	0x3c1b2ada	0.009470666
6	0xb830cb6a	-4.2151114e-05
7	0xbda3d574	-0.07999697
8	0x3cdb4cf1	0.026770087
9	0xbcf76594	-0.030199803
10	0x3db42b83	0.08797362
11	0xbd9892eb	-0.074498974
12	0x3c7d95e4	0.015477631
13	0xbc506553	-0.01271947
14	0x3d8009c1	0.062518604
15	0xbd85b687	-0.06528955
16	0xbd9d12e0	-0.07669616
17	0x3bdb6164	0.0066949595
18	0xbd13088d	-0.035896827
19	0xbb99db61	-0.0046953415
20	0xbd3879ec	-0.04503815
21	0x3ce7c76a	0.02829333
22	0xbc3aabb3	-0.011393475
23	0x3b3b82f9	0.0028612001
24	0xbbb58a55	-0.005540172
25	0x3d5d6575	0.054051835
26	0x3c58cb36	0.013232043
27	0x3d7921fb	0.060823422
28	0x3c8f774e	0.017512944
29	0xbdbeb4ed	-0.093118526
30	0x3da479b9	0.08031029
31	0x3d186a1d	0.037210573
32	0xbd8a40a1	-0.06750608
33	0xbdb67b33	-0.08910217
34	0x3d5c00cd	0.0537117
35	0xbc2f9217	-0.010715983
36	0xbda29d3f	-0.079401486
37	0x3db58e8c	0.08865079
38	0xbd7f6950	-0.062356293
39	0xbda40aef	-0.08009898
40	0xbd6eed1a	-0.058331586
41	0x3d6107ed	0.0549392
42	0x3cced95f	0.025250135
43	0x3d242075	0.040070016
44	0xbc0b59f7	-0.008505336
45	0xbd9aeadd	-0.07564328
46	0x3d912b40	0.070883274
47	0xbd26dc94	-0.040737703
48	0x3d8daf20	0.06918168
49	0x3aa5b57a	0.0012642585
50	0x3cdbb460	0.026819408
51	0xbd353df9	-0.044248555
52	0xbdcf464a	-0.101208284
53	0xbd9cf8ca	-0.0766464
54	0xbc625de3	-0.01381633
55	0xbdcaba77	-0.098988466
56	0x3d90f6b1	0.07078303
57	0x3da9e9f9	0.0829658
58	0xbd1c1ec0	-0.038115263
59	0x3daa5b9f	0.083182566
60	0xbca0d1fc	-0.019631378
61	0x3d74cc6c	0.059765264
62	0xbcf194c1	-0.029489877
63	0x3d346a18	0.04404649
64	0x3da46600	0.080272675
65	0x3c12f547	0.0089696115
66	0xbd6da05f	-0.05801427
67	0x3d8e67d4	0.069533974
68	0xbd9c777b	-0.076399766
69	0x39d05df1	0.00039742843
70	0x3d145b67	0.03621998
71	0x3d99716e	0.07492338
72	0xbd1b0e3d	-0.037855376
73	0xbdc443fc	-0.095832795
74	0xbda45c46	-0.08025412
75	0xbd9b5858	-0.075852096
76	0x3d9e8b75	0.07741443
77	0x3da78de9	0.08181364
78	0xbd43c72d	-0.04779737
79	0x3d75974d	0.059958745
80	0x3a80a829	0.0009815741
81	0x3cebf27a	0.028802145
82	0x3d6348b3	0.055489253
83	0xbd0a87c6	-0.03382089
84	0xbd728377	-0.059207406
85	0xbd428fb5	-0.04750033
86	0xbd239458	-0.039936393
87	0x3da2f0f8	0.079561174
88	0xbdb249f8	-0.08705515
89	0xbdbb8417	-0.091560535
90	0x3b473af7	0.0030400136
91	0xbd659a3b	-0.05605529
92	0xbdb36018	-0.08758563
93	0xbc270ebb	-0.010196383
94	0x3d566706	0.052344345
95	0x3dc94e86	0.0982943
96	0xbd8e129e	-0.06937145
97	0x3d567bd7	0.052364197
98	0x3dae885a	0.08522101
99	0xbd44e6e5	-0.04807176

encoder.6.weight f4 [100]
0	0x3f7f3c81	0.99701697
1	0x3f7fdb1e	0.9994372
2	0x3f800074	1.0000138
3	0x3f7f7518	0.99788046
4	0x3f801f0f	1.0009478
5	0x3f7f7ed7	0.9980292
6	0x3f7fe288	0.99955034
7	0x3f80586f	1.0026988
8	0x3f7fe3df	0.9995708
9	0x3f7ffe56	0.9999746
10	0x3f7f8c7a	0.99823725
11	0x3f809079	1.004409
12	0x3f7f6b37	0.9977297
13	0x3f80366c	1.0016608
14	0x3f7f74f1	0.99787813
15	0x3f807907	1.0036935
16	0x3f7fa685	0.99863464
17	0x3f800ccd	1.0003906
18	0x3f8046cf	1.0021609
19	0x3f7ffff6	0.9999994
20	0x3f7ff2da	0.9997994
21	0x3f804c47	1.0023278
22	0x3f7fe303	0.9995577
23	0x3f7f7a4b	0.9979598
24	0x3f802df6	1.0014026
25	0x3f7fef76	0.99974763
26	0x3f7fdc53	0.99945563
27	0x3f7fd390	0.99932194
28	0x3f7f2e1a	0.9967972
29	0x3f7feeb6	0.9997362
30	0x3f80512b	1.002477
31	0x3f7fda8d	0.9994286
32	0x3f7fd39e	0.9993228
33	0x3f7ff98a	0.9999014
34	0x3f7f8cae	0.99824035
35	0x3f7f6f20	0.9977894
36	0x3f7f6fa0	0.997797
37	0x3f7ff3ff	0.99981683
38	0x3f7f59e4	0.9974654
39	0x3f809371	1.0044996
40	0x3f7f31df	0.9968547
41	0x3f805cf9	1.0028373
42	0x3f7fa423	0.9985983
43	0x3f802250	1.0010471
44	0x3f80041a	1.0001252
45	0x3f7fdf78	0.9995036
46	0x3f7fc46e	0.999091
47	0x3f800584	1.0001683
48	0x3f7fefa6	0.9997505
49	0x3f7fb272	0.9988166
50	0x3f7fe318	0.9995589
51	0x3f7f9dad	0.9984997
52	0x3f804db7	1.0023717
53	0x3f7f98c8	0.998425
54	0x3f7f93a4	0.99834657
55	0x3f7f82f5	0.998092
56	0x3f7f94f4	0.9983666
57	0x3f7f8b17	0.9982161
58	0x3f80d50c	1.0065017
59	0x3f7fd223	0.9993002
60	0x3f801ea1	1.0009347
61	0x3f7ee449	0.99567086
62	0x3f7f627f	0.9975967
63	0x3f7fbad7	0.9989447
64	0x3f8040f1	1.0019819
65	0x3f7fcc11	0.99920756
66	0x3f7f619e	0.99758327
67	0x3f800f03	1.0004581
68	0x3f7fd69b	0.99936837
69	0x3f7fd073	0.99927443
70	0x3f7ff386	0.9998096
71	0x3f7fbd5a	0.998983
72	0x3f7fc836	0.9991487
73	0x3f7fedb2	0.9997207
74	0x3f802121	1.001011
75	0x3f8054a6	1.0025833
76	0x3f806804	1.0031743
77	0x3f7fa1dc	0.9985635
78	0x3f7fa490	0.9986048
79	0x3f80352c	1.0016227
80	0x3f7fcfe6	0.999266
81	0x3f8008a3	1.0002636
82	0x3f7fea35	0.99966747
83	0x3f7fe9c0	0.9996605
84	0x3f7fb492	0.99884903
85	0x3f801e0b	1.0009168
86	0x3f801326	1.0005844
87	0x3f7fabb6	0.99871385
88	0x3f8034b3	1.0016083
89	0x3f7f666c	0.9976566
90	0x3f802c2a	1.0013478
91	0x3f80163f	1.0006789
92	0x3f803400	1.0015869
93	0x3f800ab9	1.0003272
94	0x3f803a27	1.0017747
95	0x3f800512	1.0001547
96	0x3f8021d0	1.0010319
97	0x3f802114	1.0010095
98	0x3f7fa243	0.99856967
99	0x3f801407	1.0006112

encoder.6.bias f4 [100]
0	0x3a04ddad	0.00050684327
1	0x3adfb804	0.0017068391
2	0xba3f709b	-0.00073028513
3	0x3b2c6fd1	0.0026311765
4	0x3b58268c	0.003298196
5	0xba9d4f50	-0.0012001786
6	0x39f4e7ed	0.00046712105
7	0x38d0f20b	9.963297e-05
8	0x3a2d259d	0.0006605031
9	0x3a121230	0.0005572168
10	0x3b0df224	0.002165922
11	0xbb35f51b	-0.0027764502
12	0x389cdf8d	7.480299e-05
13	0x3aac874e	0.0013162883
14	0xb95697ca	-0.00020465176
15	0xba73e980	-0.00093045086
16	0xba29460b	-0.00064572756
17	0xb9bc51da	-0.00035919138
18	0xba9a5cdf	-0.0011776945
19	0x3aae1ea8	0.0013284283
20	0x3958a2e6	0.0002066005
21	0xba30ad9d	-0.00067397376
22	0xba915448	-0.001108774
23	0x3aede787	0.0018150666
24	0xbab0f67b	-0.0013501191
25	0x3ab53a2a	0.0013826538
26	0xb850712d	-4.9696468e-05
27	0x3a8b32e8	0.001062003
28	0x3ae018d6	0.0017097245
29	0xbb26d6d5	-0.002545764
30	0xbaa0632c	-0.0012236587
31	0xba0b7e18	-0.00053212186
32	0xbabcd3fe	-0.001440644
33	0xb9cd82e3	-0.00039198165
34	0x3a41f2cf	0.0007398547
35	0x3b13238f	0.0022451614
36	0x3b1c2168	0.0023823623
37	0xb9a6926f	-0.0003177109
38	0xb8c248f8	-9.264232e-05
39	0xbb7445f6	-0.0037273145
40	0x3b0c8959	0.002144417
41	0xba0abdb9	-0.0005292553
42	0xb89a152c	-7.347236e-05
43	0x3aa776b1	0.0012776462
44	0x3b19d5d1	0.0023473392
45	0x39801d8e	0.00024436082
46	0x3989ea3d	0.00026305197
47	0xbb07f901	-0.0020747783
48	0xba07979a	-0.00051724317
49	0x3aad469d	0.0013219897
50	0x39fa2284	0.00047709432
51	0x3a37f1d2	0.000701693
52	0xba5b225a	-0.0008359306
53	0xba5033cc	-0.00079422886
54	0x3ac29c56	0.0014847617
55	0x3b263205	0.0025359404
56	0xbb08fb28	-0.0020901654
57	0xbafaa4c5	-0.0019122591
58	0xbaffcba0	-0.0019515641
59	0xb7c53f09	-2.3513583e-05
60	0xb9fea1f7	-0.00048567328
61	0x3a9b1ff8	0.0011835089
62	0xba2e0e50	-0.0006639706
63	0xb7b30401	-2.1340327e-05
64	0xbad723cf	-0.001641387
65	0x39adcbe8	0.00033149053
66	0x3ada27fa	0.0016643994
67	0x3a12da3e	0.00056019786
68	0x3b1c0582	0.0023806994
69	0x3b0f386f	0.0021853705
70	0x3858c312	5.1680086e-05
71	0x3af55e0e	0.0018720047
72	0x3a8698a2	0.0010268877
73	0xb8770073	-5.8889807e-05
74	0x3a6e845e	0.0009098704
75	0xbac961c8	-0.0015364224
76	0xbb30fb93	-0.0027005419
77	0xba6a5778	-0.00089394255
78	0x3a0a461d	0.000527473
79	0xbb543057	-0.0032377446
80	0x3b3a4e39	0.0028427972
81	0xb9dadfe5	-0.00041747015
82	0xba0f74bd	-0.00054724124
83	0xba573c16	-0.00082105526
84	0x3973d3ff	0.0002325326
85	0xb9f38026	-0.0004644405
86	0x3b2960ae	0.002584498
87	0x3a2bf2b8	0.00065593
88	0xb9674dd5	-0.00022058871
89	0x3b1ed62c	0.0024236543
90	0xb8dad77c	-0.00010435187
91	0xbb1b18b2	-0.0023665843
92	0xbb1b4d57	-0.0023697221
93	0x3a805a9f	0.0009792632
94	0xbb1ba43f	-0.0023749021
95	0x3a74cbf5	0.00093382533
96	0xbad2b1ba	-0.0016074695
97	0xbafe45a2	-0.0019399414
98	0x3a914bc3	0.0011085201
99	0xbb132547	-0.002245264

encoder.6.running_mean f4 [100]
0	0x3e74037a	0.23829451
1	0x3e76d25e	0.24103686
2	0x3e835ddf	0.25657555
3	0x3e318209	0.1733476
4	0x3e8d14a9	0.27554825
5	0x3e4143d3	0.18873529
6	0x3e53a0b6	0.20666775
7	0x3e1d5339	0.15363778
8	0x3e75a9a2	0.23990491
9	0x3e424e23	0.1897512
10	0x3e85e080	0.26147842
11	0x3e411522	0.18855718
12	0x3e62bd6a	0.22142568
13	0x3e68fc1d	0.22752424
14	0x3e50536d	0.20344324
15	0x3e20fd29	0.15721573
16	0x3df15993	0.11784663
17	0x3e697c0a	0.22801223
18	0x3e51efc3	0.20501618
19	0x3e3374ea	0.17525068
20	0x3e3996d2	0.1812394
21	0x3e47bdef	0.19506048
22	0x3e218606	0.15773782
23	0x3e4701c1	0.19434263
24	0x3e2d1f92	0.16906574
25	0x3e66fd1f	0.22557496
26	0x3e467bc4	0.1938315
27	0x3e94244d	0.28933945
28	0x3e6f79cf	0.2338631
29	0x3e3c31fb	0.18378441
30	0x3e64740a	0.2230989
31	0x3e8c767d	0.2743415
32	0x3e65b375	0.22431739
33	0x3e259110	0.16168618
34	0x3e8b82d7	0.2724826
35	0x3e7415da	0.2383646
36	0x3e12337f	0.14277457
37	0x3e931e01	0.2873383
38	0x3e2f024e	0.17090723
39	0x3e5c6d20	0.21526003
40	0x3e3a7106	0.18207178
41	0x3e85ec8f	0.26157042
42	0x3e524c31	0.20536877
43	0x3e78758f	0.24263595
44	0x3e445baa	0.19175592
45	0x3e479fbd	0.19494529
46	0x3e8a50db	0.27014813
47	0x3e4e0629	0.20119537
48	0x3e83c46d	0.25735798
49	0x3e6c0662	0.2304931
50	0x3e4b7aee	0.19871113
51	0x3e5666c6	0.20937642
52	0x3e279e3f	0.1636896
53	0x3e4b3341	0.1984377
54	0x3e3dd601	0.18538667
55	0x3e12afeb	0.1432492
56	0x3e476d5d	0.19475313
57	0x3e905fa1	0.2819796
58	0x3e13596c	0.1438958
59	0x3e8a2b2f	0.2698607
60	0x3e5ba42c	0.21449345
61	0x3e6a5c2b	0.22886722
62	0x3e39e7d1	0.18154837
63	0x3e755ac5	0.23960407
64	0x3e81a02f	0.25317523
65	0x3e64f9b9	0.22360887
66	0x3e2e7865	0.17038114
67	0x3e997474	0.2997166
68	0x3e29bf83	0.16576962
69	0x3e346097	0.17614971
70	0x3e76fbd2	0.241195
71	0x3e57a47c	0.2105884
72	0x3e5ad606	0.21370706
73	0x3df0e0d8	0.117616355
74	0x3e548278	0.20752895
75	0x3e317f85	0.17333801
76	0x3e93d942	0.28876692
77	0x3e574f51	0.2102635
78	0x3e3d2939	0.18472756
79	0x3e8ce63b	0.27519402
80	0x3e765109	0.2405435
81	0x3e4487b7	0.19192396
82	0x3e7c142f	0.24617074
83	0x3e2e1e42	0.1700373
84	0x3e2a3d88	0.16625035
85	0x3e4f6146	0.2025195
86	0x3e376237	0.1790856
87	0x3e4a4f3c	0.19756788
88	0x3e258070	0.16162276
89	0x3e30d6d7	0.17269455
90	0x3e5adafd	0.213726
91	0x3e2657d8	0.16244447
92	0x3e1fe1b6	0.15613446
93	0x3e4ce4d9	0.20009173
94	0x3e7dbac9	0.24778284
95	0x3e8275cc	0.25480497
96	0x3e546204	0.20740515
97	0x3e7921f1	0.24329354
98	0x3e7d1680	0.24715614
99	0x3e2d0319	0.16895713

encoder.6.running_var f4 [100]
0	0x3e06b7d7	0.13156067
1	0x3e01a718	0.12661397
2	0x3e01f7bb	0.12692158
3	0x3dcb0622	0.09913279
4	0x3e3420ea	0.1759068
5	0x3d80efa5	0.062957086
6	0x3dbb2554	0.09137979
7	0x3da7703d	0.08175705
8	0x3e16c23e	0.14722535
9	0x3dbe7883	0.093003295
10	0x3e1204ea	0.14259687
11	0x3de0a728	0.109693825
12	0x3ddedf5b	0.108824454
13	0x3e661f5e	0.22472903
14	0x3d943b28	0.07237846
15	0x3d78fd51	0.060788456
16	0x3d352618	0.044225782
17	0x3e19b762	0.15011361
18	0x3e0da96f	0.13834165
19	0x3dc72171	0.09723175
20	0x3dcc62f0	0.09979808
21	0x3ddb6744	0.10713056
22	0x3d55a1af	0.052156147
23	0x3de41ed3	0.11138692
24	0x3daf3552	0.08555092
25	0x3dce53c6	0.10074572
26	0x3da246cc	0.0792366
27	0x3e836824	0.2566539
28	0x3e18a89a	0.14908066
29	0x3e12f410	0.14350915
30	0x3dfd0e0d	0.123561956
31	0x3e9f6c80	0.31137466
32	0x3e116eb7	0.1420239
33	0x3db4fd9e	0.08837436
34	0x3e8a6c51	0.27035764
35	0x3e210129	0.15723099
36	0x3d8437ee	0.0645598
37	0x3e21b56d	0.15791865
38	0x3d966c5a	0.07344885
39	0x3e1d4d50	0.15361524
40	0x3dc5c6ee	0.096570835
41	0x3e473d34	0.19456941
42	0x3da2546d	0.07926259
43	0x3e34834f	0.17628215
44	0x3e17454d	0.1477253
45	0x3dbe0532	0.09278335
46	0x3dfd59b3	0.123706244
47	0x3ddad947	0.106859736
48	0x3df65422	0.12027766
49	0x3df48602	0.119396225
50	0x3dbf06ac	0.093274444
51	0x3df8b29f	0.12143444
52	0x3dbe3616	0.0928766
53	0x3e0296ef	0.12752889
54	0x3db43343	0.0879884
55	0x3da3ffb2	0.080077544
56	0x3d8e55b2	0.06949939
57	0x3dd767b4	0.10517827
58	0x3d920193	0.071292065
59	0x3e1b6362	0.1517463
60	0x3de6a208	0.11261374
61	0x3d9f6a4c	0.077839464
62	0x3d8c3fb2	0.068480864
63	0x3dd8029e	0.10547374
64	0x3e1d375d	0.1535315
65	0x3dbc9c3a	0.09209485
66	0x3dfcb223	0.123386644
67	0x3e11e940	0.14249134
68	0x3de9580f	0.11393749
69	0x3d8d5d61	0.06902576
70	0x3dc61fc5	0.09674028
71	0x3dc31942	0.09526302
72	0x3debf7d9	0.115218826
73	0x3d48dada	0.049036838
74	0x3df2d803	0.11857607
75	0x3e00639a	0.12537995
76	0x3e31cc5e	0.17363116
77	0x3db774a6	0.08957796
78	0x3de9d645	0.11417822
79	0x3e2d16fb	0.16903298
80	0x3df4f4de	0.11960767
81	0x3dd712c3	0.105016254
82	0x3e0cb563	0.13741069
83	0x3d813221	0.063083895
84	0x3da28a68	0.07936555
85	0x3dc40405	0.09571079
86	0x3d8a789e	0.06761287
87	0x3db9f13b	0.09079214
88	0x3da155f4	0.078777224
89	0x3e027d3a	0.12743083
90	0x3db80e7f	0.0898714
91	0x3dc2708a	0.094941214
92	0x3d9c8f11	0.07644475
93	0x3d9a6453	0.075386666
94	0x3e1fdd35	0.15611728
95	0x3dd94869	0.10609514
96	0x3e3743b3	0.17896919
97	0x3de20b6d	0.110373355
98	0x3dcf45ff	0.101207726
99	0x3df491c9	0.11941869

encoder.8.weight f4 [18, 100]
0	0xbd8ec45e	-0.06971048
1	0x3cf64f70	0.030067176
2	0x3dabbc38	0.08385509
3	0xbcee5319	-0.029092358
4	0xbc4b6c03	-0.012415889
5	0x3dbe1fee	0.09283434
6	0xbd9d13a9	-0.076697655
7	0xbbe40fb8	-0.0069598816
8	0x3d8f2905	0.06990246
9	0xbccc1285	-0.024911175
10	0xbcc92603	-0.024554258
11	0xb9af38ed	-0.00033421014
12	0xbd8c20d8	-0.06842202
13	0xbcdd04ad	-0.026979769
14	0x3caaf0b9	0.020866739
15	0x3d712d16	0.058880888
16	0xbd5cdb2d	-0.05391996
17	0xbbee9e6c	-0.007282069
18	0x3d150fd9	0.036392067
19	0xbc5f8923	-0.013643536
20	0x3c976564	0.018480964
21	0x3da020ab	0.07818731
22	0x3d87391e	0.06602691
23	0x3dbc1a7b	0.09184738
24	0x3dbf7aa7	0.09349566
25	0xbd347899	-0.044060323
26	0xbc5c9363	-0.013462874
27	0x3d33f2a6	0.04393258
28	0x3d2703b6	0.040775023
29	0x3dc8b1f9	0.097995706
30	0x3d1a6f1d	0.037703622
31	0xbbc6eec2	-0.0060709426
32	0x3cb6518b	0.02225568
33	0xbd9017eb	-0.07035812
34	0x3cda1d1b	0.026625207
35	0xbda20817	-0.07911699
36	0xbdb737f2	-0.089462176
37	0x3b064047	0.002048509
38	0xbdb680f4	-0.089113146
39	0xbce3591b	-0.02775245
40	0x3d1ff44a	0.03905133
41	0xbd0d873e	-0.034552805
42	0xbd5273b6	-0.05137988
43	0x3bb7dce2	0.005611048
44	0x3d916498	0.07099265
45	0xbd3711f9	-0.044694874
46	0x3d73cbe0	0.059520602
47	0xbd446dce	-0.04795628
48	0xbd8ce839	-0.068802305
49	0x3d9ead1b	0.07747861
50	0x3d30f46a	0.04320184
51	0x3cb8d040	0.022560239
52	0x3d53c0ba	0.05169747
53	0x3db4072d	0.08790431
54	0xbd8982fb	-0.06714436
55	0x3d82c346	0.06384902
56	0x3d3515e0	0.044210315
57	0x3dc91e9c	0.098202914
58	0x3d9f2e8a	0.077725485
59	0xbcc5eaaf	-0.024159757
60	0xbcf29a0f	-0.029614476
61	0x3dba5f91	0.09100259
62	0x3b2eea08	0.0026689786
63	0xbd8e9da0	-0.06963658
64	0xbd1c838d	-0.038211394
65	0xbaadc875	-0.0013258593
66	0x3cb0b9a7	0.021572901
67	0xbd740159	-0.059571598
68	0x3d976b00	0.073934555
69	0xbd1baf8e	-0.03800922
70	0xba3ae307	-0.00071291666
71	0x3d9a559d	0.07535861
72	0x3d729daf	0.05923241
73	0xbd0afe3a	-0.033933856
74	0x3ceeea19	0.02916436
75	0x3dcffcee	0.101556644
76	0xbd3df5c6	-0.046376966
77	0xbdbd4ed3	-0.0924355
78	0x3c558be1	0.013033838
79	0x3d65f04e	0.056137376
80	0x3c55ca5b	0.013048734
81	0x3cbef791	0.023311408
82	0xbd4e2d7c	-0.050336346
83	0xbd8a1d8e	-0.06743918
84	0xbdb71051	-0.08938659
85	0x3d405404	0.046955124
86	0xbb5aa733	-0.0033363819
87	0xbdb8f08e	-0.09030257
88	0xbcedf970	-0.029049605
89	0xbbf116a2	-0.0073574344
90	0xbd8a42e9	-0.06751043
91	0xbd745f45	-0.05966117
92	0xbb223571	-0.0024751092
93	0x3d2cb283	0.04216243
94	0x3daf3791	0.0855552
95	0x3d406c95	0.046978552
96	0xbd84d93d	-0.064867474
97	0x3cd8b512	0.026453529
98	0xbaf6e47b	-0.0018836403
99	0xbd62f470	-0.055408895
100	0xbd5849c6	-0.05280473
101	0x3d93c1ac	0.07214674
102	0x3cdda903	0.02705813
103	0xbd8bc835	-0.06825296
104	0xbcccfe35	-0.02502356
105	0xbda299a2	-0.079394594
106	0x3d62e88f	0.055397566
107	0x3d611e37	0.054960456
108	0x3a7cc889	0.0009642919
109	0x3d810d5f	0.063013785
110	0xbc5d6b20	-0.01351431
111	0x3d3221e8	0.043489367
112	0xbc90b98a	-0.017666597
113	0xbdaa58d7	-0.08317726
114	0x3dbd2c8e	0.09237014
115	0x3d3b7329	0.045764122
116	0x3c9e1df0	0.019301385
117	0x3db011fa	0.08597179
118	0x3ca9d0a9	0.02072938
119	0x3cdb9414	0.026804008
120	0x3c9cd316	0.019143622
121	0x3d844301	0.064580925
122	0xbda375c4	-0.079814464
123	0xbd3819a2	-0.04494632
124	0x3d8b1fdd	0.06793187
125	0xbd77c6e5	-0.060492415
126	0xbcf12901	-0.029438497
127	0x3c80dd66	0.015730571
128	0x3d00aba8	0.031413704
129	0x3c973894	0.018459596
130	0xbce4700b	-0.027885458
131	0x3ccef372	0.025262568
132	0xbd1191e3	-0.03553952
133	0x3d05bc3c	0.032650217
134	0xbd7d055d	-0.061772693
135	0xbdbe4bb0	-0.0929178
136	0x3dbcc18f	0.09216606
137	0x3cb4a251	0.022050055
138	0x3db4cf18	0.088285625
139	0x3d1bbeae	0.038023643
140	0xbda8308b	-0.08212384
141	0x3d701c44	0.058620706
142	0xbdabca40	-0.083881855
143	0xbd965349	-0.07340104
144	0xbd61b3a2	-0.05510295
145	0x3d4cf38e	0.05003696
146	0xbcc9828b	-0.02459838
147	0x3dbffeae	0.09374748
148	0xbdb42116	-0.08795373
149	0xbc993229	-0.018700676
150	0xbdcce968	-0.10005456
151	0xbd4bbb0b	-0.049738925
152	0x3d6cfe38	0.05785963
153	0xbdb6115f	-0.08890032
154	0xbdbae23c	-0.09125182
155	0xbd5f1793	-0.05446584
156	0x3dae8cb8	0.08522934
157	0x3d95de42	0.07317783
158	0x3d28e9be	0.04123854
159	0xbdafb7df	-0.085799925
160	0x3cada4fa	0.021196831
161	0x3d435fbb	0.047698718
162	0x3d775ce5	0.060391326
163	0xbd000c3a	-0.03126166
164	0xbdb85c11	-0.09001935
165	0x3dbe3ac0	0.092885494
166	0x3d92c22d	0.07165942
167	0xbdaafdbf	-0.083491795
168	0xbb51aae0	-0.0031992719
169	0xbda639aa	-0.08116467
170	0x3d8b6d47	0.068079524
171	0xbd1a4c8e	-0.037670664
172	0x3cac8503	0.021059519
173	0x3d688e5b	0.056776386
174	0x3d876636	0.06611292
175	0xbcd44e91	-0.02591637
176	0xbb11a4a9	-0.002222339
177	0xbcc384f7	-0.023867114
178	0xbd18ef77	-0.037337746
179	0xbdc83aed	-0.09776864
180	0xbd95f531	-0.07322157
181	0xbdb45434	-0.08805123
182	0xbd3940fe	-0.045227997
183	0x3d94377c	0.07237145
184	0xbdca8b4d	-0.09889851
185	0x3db82e5a	0.08993216
186	0xbd4d76b4	-0.050162032
187	0x3d60f0a4	0.054916993
188	0x3dcd244d	0.100166894
189	0x3d8315a0	0.06400609
190	0xbd840576	-0.06446354
191	0x3ce3039e	0.027711686
192	0x3da76c51	0.081749566
193	0x3ca4fd90	0.02014044
194	0xbd6c8947	-0.057748105
195	0x3c32b398	0.010907076
196	0xbccaad33	-0.024740791
197	0x3dab215f	0.083559744
198	0xbb7fbd15	-0.0039022614
199	0xbc99e683	-0.018786674
200	0xbcb77d06	-0.022398483
201	0xbdbc9734	-0.09208527
202	0xbd25afea	-0.040450968
203	0x3aff51c7	0.0019479328
204	0x3b5eb0d8	0.0033979919
205	0xbcc39069	-0.023872571
206	0x3dbded01	0.092737205
207	0x3d6f57ed	0.058433462
208	0x3d27908e	0.040909342
209	0x3bc50a23	0.0060131713
210	0xbd3a5d6f	-0.04549926
211	0x3d64a0cb	0.055817407
212	0x3dbe5935	0.09294359
213	0x3d418e77	0.047255006
214	0x3bf0a429	0.007343788
215	0xbdad1988	-0.08452135
216	0x3da55fcd	0.08074913
217	0x3d2433af	0.04008835
218	0x3da88d8e	0.082301244
219	0xbd4cb3c3	-0.04997612
220	0xbcd49181	-0.025948288
221	0x3dab7823	0.08372524
222	0xbd9be6c7	-0.07612377
223	0x3d935443	0.07193806
224	0x3cedd698	0.02903299
225	0x3d5c409e	0.05377256
226	0x3dc48daa	0.09597333
227	0xbdc84ec0	-0.09780645
228	0xbd3677af	-0.044547733
229	0xbcd95d5f	-0.02653378
230	0xbdb3035e	-0.087408766
231	0x3da05c38	0.07830089
232	0xbdac4929	-0.08412392
233	0x3d866a3d	0.06563232
234	0xbd00c689	-0.031439338
235	0xbd2a1a1a	-0.0415288
236	0x3da27618	0.07932681
237	0x3dcb5896	0.09929006
238	0xbcc9028d	-0.02453735
239	0x3cac71b9	0.021050321
240	0x3daeb1b8	0.08529991
241	0xbc735a29	-0.014853039
242	0xbd99a89f	-0.07502865
243	0xbdab938a	-0.0837775
244	0x3cd2c56a	0.0257289
245	0x3d11d688	0.035604984
246	0xbd06a622	-0.03287328
247	0xbd5e35cf	-0.054250535
248	0x3d2d3164	0.04228343
249	0xbd92b4c1	-0.07163382
250	0xbdc11884	-0.09428504
251	0xbce26041	-0.027633788
252	0x3cb41873	0.021984315
253	0xbcb04426	-0.02151687
254	0x3d2e66cf	0.042578515
255	0x3d2831ee	0.04106324

encoder.8.bias f4 [18]
0	0x3b066195	0.002050494
1	0xbdb3f2a6	-0.08786516
2	0xbcdc72f4	-0.026910283
3	0x3d959779	0.07304282
4	0x3d45d51d	0.048298944
5	0xbd6538ad	-0.055962253
6	0x3b91058a	0.004425709
7	0x3d227d5e	0.03967034
8	0xbd1966b0	-0.037451446
9	0xbcfd7a5a	-0.03094213
10	0x3db3360b	0.08750542
11	0x3d0abb7a	0.033870198
12	0x3db99b76	0.09062855
13	0xbd29b33c	-0.041430697
14	0x3caad395	0.020852843
15	0xbcfcbade	-0.030850824
16	0xbdbe3159	-0.09286756
17	0xbdc6df34	-0.09710541

encoder.10.weight f4 [18]
0	0x3f80cfab	1.0063375
1	0x3f7edabb	0.99552506
2	0x3f7fa559	0.99861676
3	0x3f804171	1.0019971
4	0x3f7e2b07	0.99284405
5	0x3f807419	1.003543
6	0x3f7e876a	0.99425375
7	0x3f7e1181	0.9924546
8	0x3f7ffc91	0.9999476
9	0x3f7ea57c	0.9947126
10	0x3f7fb301	0.99882513
11	0x3f7ff3df	0.9998149
12	0x3f7ede25	0.99557716
13	0x3f7e314f	0.9929399
14	0x3f81237a	1.0088952
15	0x3f813c7c	1.0096583
16	0x3f8121fa	1.0088494
17	0x3f7fb859	0.9989067

encoder.10.bias f4 [18]
0	0x3c86ef52	0.016471539
1	0x3c09a275	0.008400549
2	0xba04f54a	-0.00050719513
3	0x3c1e6e28	0.009669818
4	0x3b0129b2	0.001970869
5	0xbbb84375	-0.005623276
6	0xbad5afb7	-0.0016302977
7	0xbc0e3ab5	-0.008680989
8	0xba77997e	-0.00094451744
9	0xba81d018	-0.0009903936
10	0xbbd21f7f	-0.006412446
11	0x3c56bd19	0.013106608
12	0xbad2808f	-0.0016060042
13	0x3bc444e5	0.005989658
14	0x3be077a5	0.0068502002
15	0x3be3d39a	0.006952715
16	0xbb002675	-0.0019554172
17	0x3b93dfdc	0.00451277

encoder.10.running_mean f4 [18]
0	0x3ea5f15c	0.32410705
1	0x3e8a8525	0.27054706
2	0x3e92e376	0.28689164
3	0x3eaea5c8	0.34110856
4	0x3ebc515d	0.36780825
5	0x3e9bf62f	0.3046126
6	0x3e9b718c	0.30360067
7	0x3ead45a7	0.33842203
8	0x3e97f1aa	0.29676563
9	0x3ea17041	0.31530955
10	0x3ede7da5	0.43455234
11	0x3ec02353	0.3752695
12	0x3eb658b0	0.35614538
13	0x3e9a7153	0.30164585
14	0x3ebac09e	0.3647508
15	0x3ebaf2e6	0.36513442
16	0x3e98b441	0.29825023
17	0x3e98c2db	0.29836163

encoder.10.running_var f4 [18]
0	0x3e808669	0.25102547
1	0x3e60166e	0.21883556
2	0x3e646515	0.22304185
3	0x3e9d87dd	0.30767718
4	0x3e6c531f	0.23078583
5	0x3e70a505	0.2350045
6	0x3e68a31a	0.22718468
7	0x3e5e71d1	0.21723105
8	0x3e52af09	0.20574583
9	0x3e48d759	0.19613399
10	0x3ea860df	0.32886407
11	0x3eab3612	0.3343969
12	0x3e799af9	0.24375524
13	0x3e90fe4a	0.28319007
14	0x3e9da165	0.30787197
15	0x3eadafcc	0.33923185
16	0x3ea102ce	0.31447452
17	0x3e94d515	0.2906882
