autoencoders/lightning_logs/lstm/version_2/checkpoints/epoch=99-step=14699.ckpt (torch, 355300 bytes, 51 tensors)

encoder1.weight_ih_l0 f4 [144, 1]
0	0xbb4432a9	-0.0029937422
1	0x3e161134	0.14655
2	0xbd42bfb1	-0.047546092
3	0x3ba69cbf	0.0050846036
4	0x3df517e2	0.11967446
5	0x3db46655	0.08808581
6	0x3d91dcbf	0.07122182
7	0x3d7dbddc	0.061948642
8	0x3ca22fbc	0.019798152
9	0xbe09b052	-0.13446167
10	0xbd0c6b2f	-0.034281906
11	0x3dac85f6	0.084239885
12	0xbd6394f1	-0.055561963
13	0x3e05f5fa	0.13082114
14	0xbd2197ed	-0.03945153
15	0xbdca5682	-0.09879781
16	0xbe0dc58d	-0.13844891
17	0xbd9ef238	-0.07761043
18	0x3da89e18	0.08233279
19	0x3e1608e6	0.14651832
20	0xbd0efac5	-0.03490712
21	0x3e1dc385	0.15406616
22	0xbdd2a3b5	-0.10285131
23	0x3d4b875b	0.049689632
24	0xbcdf97fa	-0.027294148
25	0x3dc5d67c	0.0966005
26	0x3e0e33b7	0.13886915
27	0x3e0345cf	0.12819599
28	0x3e13e4b8	0.14442718
29	0xbe1a91b2	-0.15094641
30	0xbe18b134	-0.14911348
31	0x3e0da2fa	0.13831702
32	0xbc4fbc0f	-0.012679114
33	0x3dd5bcfe	0.10436438
34	0xbd866cbc	-0.06563708
35	0x3e0b6cde	0.13615748
36	0xbdc4b4e8	-0.09604818
37	0xbe158ee4	-0.1460529
38	0x3deff46a	0.1171654
39	0x3d54d5e7	0.051961806
40	0xbdbe4631	-0.09290732
41	0xbe0c0b4c	-0.13676184
42	0x3e2ca9ed	0.16861697
43	0x3ddf5a4c	0.10905895
44	0x3c913e81	0.01773
45	0x3da4eb30	0.08052671
46	0xbce8ca06	-0.028416645
47	0xbc822309	-0.015885847
48	0xbdfa7667	-0.12229615
49	0x3dd8569d	0.10563395
50	0x3dda4e1b	0.10659429
51	0xbddde636	-0.10834925
52	0x3da0df56	0.07855098
53	0x3d40c486	0.04706242
54	0xbd854092	-0.065064564
55	0xbdbd712c	-0.092501014
56	0xbd692376	-0.056918584
57	0x3d6e55e8	0.058187395
58	0x3dc35142	0.09536983
59	0xbd8dde79	-0.06927199
60	0x3d759676	0.059957944
61	0xbdee5d77	-0.11638921
62	0x3d9d3d43	0.076777
63	0x3d836d6a	0.064173535
64	0xbb44cac9	-0.0030028096
65	0x3cce71e7	0.025200797
66	0x3e21dbac	0.15806454
67	0x3dc3cf57	0.09561031
68	0x3c4b3a1e	0.012403993
69	0x3df1b521	0.11802126
70	0xbde3cb3a	-0.11122747
71	0xbde82125	-0.11334447
72	0xbe1697c7	-0.14706336
73	0x3de5da1b	0.11223241
74	0xbdd01637	-0.10160487
75	0x3d0628d6	0.032753788
76	0x3defbbbc	0.11705729
77	0x3b748e39	0.0037316217
78	0xbe054f06	-0.13018426
79	0xbd96b5d8	-0.07358903
80	0x3df2ff20	0.118650675
81	0xbd9acf37	-0.07559054
82	0x3d6fd3a9	0.058551464
83	0x3dfe042a	0.12403138
84	0x3dde4b45	0.108542
85	0xbddca407	-0.10773473
86	0xbe31132e	-0.17292473
87	0x3d105b24	0.03524317
88	0xbc18d857	-0.009328923
89	0x3d98d8a6	0.074631974
90	0x3d64db5c	0.05587326
91	0x3de93f01	0.1138897
92	0x3d21c449	0.039493833
93	0xbc3c5bcc	-0.011496495
94	0x3d2544ea	0.040348925
95	0xbdc57bfa	-0.09642787
96	0x3d493388	0.04912141
97	0x3c6bb3f6	0.014386168
98	0xbd55b13e	-0.052170984
99	0xbdf6b184	-0.12045577
100	0xbdb6973b	-0.08915564
101	0xbe2d86c3	-0.16945939
102	0xbe15da34	-0.14634019
103	0xbd91478c	-0.070937246
104	0x3d8dc91f	0.069231264
105	0xbdb893eb	-0.09012588
106	0xbe148652	-0.14504364
107	0xbe296e8a	-0.16546074
108	0xbddc74e9	-0.10764486
109	0x3dfaa67f	0.12238788
110	0x3de8962c	0.11356768
111	0x3df6b029	0.12045319
112	0xbc8a0035	-0.016845802
113	0x3d834fd4	0.064117104
114	0x3db362b9	0.08759064
115	0x3d3a1057	0.04542574
116	0xbe013086	-0.12616166
117	0x3ddcdfaa	0.10784848
118	0xbd92ce83	-0.07168295
119	0x3d419ab5	0.04726668
120	0x3d50d3c6	0.050983213
121	0x3dadc0e9	0.0848406
122	0x3e2610d9	0.16217364
123	0xbca7f536	-0.020502668
124	0x3e34007b	0.17578308
125	0x3e1ad2d3	0.15119486
126	0x3dc744ae	0.097298965
127	0x3dbc7e79	0.0920381
128	0x3d96192a	0.073290184
129	0xbda387f3	-0.07984915
130	0xbd92e10e	-0.07171832
131	0xbdd9e153	-0.1063868
132	0xbe178082	-0.14795116
133	0x3e239a13	0.15976743
134	0xbde8e304	-0.11371425
135	0xbe050792	-0.12991169
136	0x3d9ab368	0.0755375
137	0x3cf152f4	0.0294585
138	0x3cb71a6c	0.022351466
139	0x3ae2ff76	0.0017318565
140	0xbe26d422	-0.1629186
141	0xbd4f20cc	-0.050568387
142	0x3e142983	0.1446896
143	0xb912fb76	-0.00014017322

encoder1.weight_hh_l0 f4 [144, 36]
0	0x3da20977	0.079119615
1	0x3d468a33	0.04847164
2	0x3d98dfc1	0.07464553
3	0xbba896a3	-0.0051449104
4	0xbca145dc	-0.019686632
5	0xbde39722	-0.11112811
6	0xbb061c56	-0.0020463667
7	0xbdd85172	-0.105624095
8	0xbd06e05c	-0.03292881
9	0xbcff369c	-0.03115397
10	0xbe169e67	-0.14708863
11	0x3d494a33	0.049143028
12	0x3e10e927	0.1415144
13	0xbd4963fe	-0.049167626
14	0x3ddb7cef	0.107171886
15	0x3e137130	0.14398646
16	0xbdb4e58b	-0.08832844
17	0x3e038947	0.12845336
18	0xbdd41e21	-0.10357309
19	0x3e009ac4	0.12559038
20	0xba02b8b9	-0.0004986632
21	0x3dcaf35c	0.09909698
22	0xbe0755c5	-0.13216312
23	0xbe1de4d1	-0.15419318
24	0x3df6076a	0.12013133
25	0x3dea11b8	0.11429161
26	0xbd13b289	-0.036058936
27	0x3e0edf03	0.1395226
28	0x3dff7dd6	0.12475173
29	0xbcd5dbab	-0.026105722
30	0xbdf3e21a	-0.1190836
31	0x3cfb8503	0.030703073
32	0xbe0e1d91	-0.13878466
33	0xbe1f98b0	-0.1558559
34	0xbcafdc79	-0.021467434
35	0xbd10ee8a	-0.03538374
36	0xbc62a3ad	-0.013832969
37	0xbdf8d615	-0.12150208
38	0x3d27b933	0.040948104
39	0x3dfdc1f7	0.123905115
40	0x3e1ab97f	0.15109824
41	0xbde5a49a	-0.11213036
42	0x3ddd21e8	0.10797483
43	0xbdcf98b6	-0.10136549
44	0x3d96e9cc	0.07368812
45	0x3dbac9dd	0.091205336
46	0x3dfcb9fc	0.12340161
47	0x3c89078b	0.01672723
48	0x3e2c0e73	0.16802387
49	0x3dad5019	0.08462543
50	0xbd961af4	-0.0732936
51	0xbdfc9dca	-0.123347834
52	0xbdbad7c3	-0.091231845
53	0xbd0103a3	-0.03149761
54	0xbe0ca6cd	-0.13735504
55	0xbe01bc22	-0.12669423
56	0xbd3604ac	-0.04443805
57	0x3e2ab49c	0.1667046
58	0xb8dad09c	-0.000104339066
59	0x3cf6aff5	0.0301132
60	0x3d226f57	0.039656963
61	0xbdebb0d0	-0.11508334
62	0xbce94c4e	-0.028478768
63	0x3d872ffe	0.06600951
64	0xbdfc11ad	-0.12308059
65	0xbd14e7e5	-0.036353964
66	0x3d903230	0.070408225
67	0x3dcdb06f	0.10043418
68	0x39ca4c53	0.00038585308
69	0xbd8a6ff4	-0.067596346
70	0x3dc885da	0.09791155
71	0xbd993a9b	-0.07481881
72	0x3dcf81e8	0.101321995
73	0xbdb7e487	-0.08979135
74	0x3db1ebde	0.08687566
75	0xbcf663ce	-0.030076887
76	0x3c226518	0.009911798
77	0xbdafde27	-0.08587294
78	0xbc163638	-0.0091682
79	0x3ddacfa5	0.10684136
80	0xbcbd2d8f	-0.023093013
81	0x3935bbaf	0.00017331423
82	0xbe269b09	-0.16270079
83	0x3da321ee	0.07965456
84	0xbd198d2a	-0.03748814
85	0x3d0070ae	0.03135746
86	0x3d88281f	0.066482775
87	0x3dbd28df	0.09236311
88	0x3e189f5c	0.14904541
89	0x3d516c6a	0.051128782
90	0x3ddda85b	0.10823127
91	0x3cbdcd67	0.023169233
92	0x3da7d1e8	0.08194333
93	0x3d9fb66b	0.07798465
94	0xbdc60a52	-0.09669937
95	0x3b167a8c	0.0022961227
96	0x3e23dcf9	0.16002263
97	0xbd76bb70	-0.060237348
98	0x3d3492c4	0.04408528
99	0x3cd191f3	0.02558229
100	0x3c5452af	0.012959166
101	0xbd1d6d02	-0.038434036
102	0xbdd87775	-0.105696596
103	0xbdc47240	-0.09592104
104	0xbcc134d7	-0.023584766
105	0xbdba9b70	-0.091116786
106	0xbcbdccff	-0.023169039
107	0x3df3f9a4	0.119128495
108	0xbd906fea	-0.07052596
109	0x3e3017fb	0.17196648
110	0xbcace974	-0.021107413
111	0x3d8355fa	0.06412883
112	0xbd4ce48e	-0.050022654
113	0xbd62b683	-0.055349838
114	0xbdbeb793	-0.09312358
115	0x3e0b542b	0.13606326
116	0xbd57e93f	-0.052712675
117	0x3df2c54d	0.118540384
118	0xbc462e4f	-0.012096002
119	0x3e0a9bca	0.13535991
120	0x3dea2c4d	0.11434231
121	0xbceb5a04	-0.028729446
122	0xbd2ce541	-0.04221082
123	0x3e21707a	0.15765563
124	0xbbccc6a9	-0.006249268
125	0x3d0f1a85	0.0349374
126	0x3d588bc6	0.052867673
127	0x3db8bdaf	0.09020554
128	0xbe08bbb0	-0.13352847
129	0xbd02dc3d	-0.031948317
130	0x3cdf233f	0.027238486
131	0x3e16eb28	0.14738142
132	0x3d322897	0.04349574
133	0x3d2a6aad	0.04160564
134	0x3d8f81f9	0.07007212
135	0xbcb42946	-0.021992337
136	0xbc2a6eb8	-0.010402374
137	0x3dc01397	0.093787365
138	0x3d86e413	0.065864705
139	0xbcfd1677	-0.030894501
140	0xba1f3681	-0.00060734904
141	0xbd42e114	-0.047577932
142	0x3c8d2f31	0.017234417
143	0xbdf58ef7	-0.11990159
144	0x3de2a256	0.110661194
145	0xbc5a927f	-0.013340591
146	0x3e018488	0.12648213
147	0xbe1aa479	-0.15101804
148	0xbcedb51a	-0.02901702
149	0xbe1a734b	-0.15083043
150	0xbe2eec72	-0.17082384
151	0x3d23f3d5	0.04002746
152	0x3d67236e	0.056430273
153	0xbd3aacc2	-0.04557491
154	0x3cc0223d	0.023453826
155	0xbe2e9770	-0.17049956
156	0xbd7f695c	-0.062356338
157	0xbd8369a6	-0.06416635
158	0x3e0b0600	0.13576508
159	0xbdb77c9f	-0.089593165
160	0xbd26c0f8	-0.040711373
161	0xbc2c9b9b	-0.010535146
162	0xbc852272	-0.016251776
163	0x3de57fe1	0.112060316
164	0x3ddcd127	0.1078208
165	0xbd9f3f76	-0.07775776
166	0x3d37af43	0.044844877
167	0xbdfd6510	-0.12372792
168	0x3d9b8f99	0.075957485
169	0xbd321cea	-0.043484606
170	0x3e06a5b5	0.1314915
171	0xbd422299	-0.047396276
172	0xbdd5e586	-0.10444169
173	0xbd216a99	-0.0394083
174	0xbd29fe54	-0.04150231
175	0x3e128cc2	0.14311507
176	0xbe2a385b	-0.1662306
177	0xbd809c71	-0.06279839
178	0x3e11bf74	0.1423319
179	0x3e0db375	0.13837989
180	0x3d3e6a46	0.04648807
181	0x3c02b4a6	0.00797764
182	0xbd26c9ea	-0.040719904
183	0x3dde4566	0.108530805
184	0xbe152f88	-0.14568913
185	0xbcb8889d	-0.02252608
186	0x3cdaf322	0.026727263
187	0xbdace73d	-0.08442543
188	0xbe0f40eb	-0.13989608
189	0xbd7afd6b	-0.061276834
190	0xbdbc48b9	-0.09193558
191	0xbdd5cbf0	-0.104392886
192	0x3e077e32	0.13231733
193	0x3e368538	0.17824256
194	0xbe2cd206	-0.16876993
195	0x3d55e0c9	0.052216325
196	0xbd805655	-0.062664665
197	0x3db642b9	0.08899445
198	0xbdf6309a	-0.12020989
199	0x3dca883f	0.09889268
200	0x3ce4328c	0.027856134
201	0xbd46cdf8	-0.04853627
202	0x3ca5bdf3	0.020232176
203	0x3dac8aaa	0.084248856
204	0xbdf1dc8f	-0.11809646
205	0x3da777c6	0.08177142
206	0x3d607446	0.054798387
207	0xbe0eebba	-0.1395711
208	0xbdd8e13a	-0.105898336
209	0xbe19df00	-0.15026474
210	0x3de326ff	0.11091422
211	0xbd8b5e69	-0.06805117
212	0xbdb350bc	-0.08755633
213	0x3e091b37	0.13389288
214	0xbdfbb41e	-0.12290214
215	0x3e118017	0.14209019
216	0x3d990fd7	0.07473724
217	0x3cb3c812	0.021945987
218	0x3ca985d8	0.020693704
219	0x3d265628	0.04060951
220	0xbdf5fe5d	-0.120114066
221	0x3c81b6d1	0.015834244
222	0x3dcb89f4	0.09938422
223	0xbd88f896	-0.06688039
224	0xbe0c8fd2	-0.13726738
225	0x3d995c05	0.074882545
226	0xbd2020f4	-0.039093927
227	0xbe2a3a9b	-0.16623919
228	0x3b1615e2	0.0022901227
229	0xbc2c1ec9	-0.010505387
230	0xbd4e65fa	-0.05039022
231	0x3d511512	0.051045485
232	0x3e2a4aee	0.16630146
233	0x3dcdb7c7	0.10044818
234	0xbc8dc0e9	-0.0173039
235	0xbe061f30	-0.13097835
236	0x3e007b7c	0.12547106
237	0x3d1942b9	0.037417147
238	0x3e0ef870	0.13961959
239	0x3d5b6ac4	0.053568617
240	0xbd168915	-0.036751825
241	0xbd3f5f03	-0.04672147
242	0xbda85291	-0.08218873
243	0xbd849afc	-0.064748734
244	0xbce26182	-0.027634386
245	0xbdefbba8	-0.117057145
246	0x3d845509	0.06461532
247	0xbd8c9ab9	-0.068654485
248	0x3d726a17	0.059183206
249	0x3def6a95	0.11690251
250	0xbe17c77f	-0.14822195
251	0xbcdde18a	-0.027085084
252	0x3e23c363	0.15992503
253	0x3c24f470	0.010068044
254	0x3dc0de4b	0.09417399
255	0x3c899002	0.016792301

encoder1.bias_ih_l0 f4 [144]
0	0xbe193be0	-0.14964247
1	0x3b37bafe	0.002803504
2	0xbe0d4bad	-0.137984
3	0x3e06ccda	0.13164082
4	0xbc81bb9e	-0.015836533
5	0x3ddb3845	0.10704092
6	0x3e052ed2	0.13006142
7	0x3de1fe51	0.11034835
8	0x3e0d841e	0.1381993
9	0x3d68e08b	0.056854766
10	0xbd69562d	-0.05696695
11	0xbdee16fe	-0.11625479
12	0x3d609335	0.054827888
13	0xbd1868a0	-0.037209153
14	0x3ddacff8	0.10684198
15	0xbdf693af	-0.12039887
16	0x3e028828	0.12747252
17	0x3d04afab	0.032394093
18	0x3e292082	0.16516307
19	0x3cc9b39e	0.024621781
20	0xbdc6debc	-0.09710452
21	0x3d567f88	0.052367717
22	0xbc4893da	-0.012242282
23	0xbdce5ba3	-0.10076072
24	0xbd338ca4	-0.043835297
25	0xbcd76191	-0.02629164
26	0xbd263f6a	-0.04058782
27	0x3e22ea49	0.15909685
28	0xbd92d060	-0.071686506
29	0xbdca88ad	-0.0988935
30	0xbd4b2a10	-0.04960066
31	0x3dfb908f	0.12283432
32	0x3e2f8595	0.17140801
33	0x3d24791b	0.040154558
34	0x3e210c83	0.15727429
35	0x3b8ce851	0.004300155
36	0xbdd1aeef	-0.10238444
37	0x3e0b0e29	0.1357962
38	0x3d99ec28	0.07515746
39	0xbd6407c9	-0.055671487
40	0x3de86ec4	0.11349252
41	0xbe14e239	-0.14539422
42	0xbd80a8f2	-0.06282224
43	0xbd6a0458	-0.05713305
44	0x3bb05bad	0.0053820224
45	0xbc17ad22	-0.009257587
46	0xbd574ea2	-0.052565224
47	0xbe1dd641	-0.15413763
48	0xbdf7bfe5	-0.12097148
49	0xbe151200	-0.14557648
50	0xbdf66a37	-0.120319776
51	0x3d8a1a8b	0.06743344
52	0x3d196f93	0.03745992
53	0x3e333c06	0.17503366
54	0xbddf9214	-0.10916534
55	0xbd075146	-0.033036493
56	0xbdb22225	-0.08697919
57	0x3c5101b7	0.0127567565
58	0x3dfa87dd	0.12232945
59	0x3d06eda1	0.032941464
60	0xbe1434ff	-0.14473341
61	0x3ccea40d	0.02522471
62	0xbda882f4	-0.08228102
63	0x3c72deb1	0.014823602
64	0x3c3fdce4	0.011710379
65	0x3de3d1d5	0.11124007
66	0xbcbb0ce6	-0.022833299
67	0xbdc1d3ac	-0.09464201
68	0xbdfdc8c4	-0.12391809
69	0x3ca89f41	0.02058375
70	0xbdc8a6d1	-0.09797443
71	0x38b41ef6	8.588836e-05
72	0x3e0d524f	0.1380093
73	0xbd812f4c	-0.06307849
74	0x3d7051f9	0.058671925
75	0x3d98efc0	0.07467604
76	0x3ba16d0d	0.00492633
77	0xbd6df0ff	-0.05809116
78	0xbd374e76	-0.04475256
79	0x3d19f40c	0.037586257
80	0x3dc65eda	0.0968606
81	0xb7aa60ae	-2.03106e-05
82	0xbe219475	-0.15779288
83	0x3e0f6296	0.14002451
84	0x3c4e671b	0.012597824
85	0x372be5bb	1.0245883e-05
86	0xbc6b7fc5	-0.014373724
87	0x3e090e28	0.13384306
88	0x3d9c47d7	0.0763089
89	0xbdadaa5e	-0.084797606
90	0x3e1a98bd	0.15097328
91	0x3cf27c36	0.029600244
92	0x3dc3b674	0.095562845
93	0x3dd98cf7	0.1062259
94	0xbe0a7abc	-0.13523382
95	0x3d8049af	0.06264054
96	0x3cf2c429	0.029634552
97	0x3dd0eeb8	0.10201782
98	0xbcedb522	-0.029017035
99	0x3e1df174	0.15424138
100	0x3da87cde	0.082269415
101	0xbd4c5e01	-0.049894337
102	0xbcb8d083	-0.022560364
103	0xbd9c8dcb	-0.07644232
104	0xbdf23ecf	-0.11828386
105	0xbd193d34	-0.037411883
106	0x3c917bae	0.01775917
107	0x3d52f253	0.05150063
108	0x3c96c152	0.01840273
109	0x3d99dec3	0.075131916
110	0xbde1a719	-0.110181995
111	0x3cf9e476	0.030504446
112	0xbe06cfac	-0.13165158
113	0xbe0f6b0e	-0.14005682
114	0xbd9a9901	-0.075487144
115	0x3e2920ea	0.16516462
116	0xbd32e1ca	-0.04367236
117	0x3d0edf75	0.034881074
118	0x3e0f69e9	0.14005245
119	0xbe0ff2c4	-0.14057451
120	0x3e24d224	0.16095787
121	0x3df1ab10	0.11800206
122	0x3dbe23fa	0.09284206
123	0x3d2b8c08	0.04188159
124	0xbd49027b	-0.04907463
125	0x3d39a070	0.04531902
126	0xbb36d17a	-0.0027895854
127	0xbdc3f78a	-0.09568699
128	0x3c920fce	0.017829802
129	0x3d518608	0.051153213
130	0xbd12dc3d	-0.035854567
131	0x3cf1a99a	0.029499818
132	0x3da6d673	0.08146372
133	0x3d1caf00	0.03825283
134	0x3e219d28	0.15782607
135	0x3d57429e	0.052553765
136	0xbe056b1e	-0.13029143
137	0xbd8a58ff	-0.06755256
138	0x3e313880	0.1730671
139	0x3d196f34	0.037459567
140	0x3da5c754	0.080946594
141	0xbe15c8fd	-0.14627452
142	0x3e20bf1b	0.15697901
143	0xbdd49485	-0.1037989

encoder1.bias_hh_l0 f4 [144]
0	0xba3d9846	-0.00072324683
1	0xbdeb582a	-0.11491425
2	0x3d2ebdea	0.042661585
3	0xbd6d819b	-0.05798493
4	0xbdd6cc0b	-0.10488137
5	0x3bc24514	0.005928645
6	0xbb356404	-0.0027678022
7	0x3dfdbb89	0.12389285
8	0x3db67ae8	0.08910161
9	0xbd6211d4	-0.055192783
10	0x3df42829	0.119217224
11	0x3e12c362	0.14332345
12	0xbc0e503e	-0.008686123
13	0x3dc80d0e	0.09768115
14	0x3e1cc15e	0.15308139
15	0xbdd73c4d	-0.10509548
16	0x3deb4704	0.114881545
17	0xbdb2e1e2	-0.0873449
18	0xbd90105d	-0.07034371
19	0x3c85a352	0.016313229
20	0xbe2230c8	-0.15838921
21	0x3dfb48c7	0.122697406
22	0xbdf7046a	-0.12061389
23	0xbb4cf56b	-0.003127421
24	0x3d807004	0.06271365
25	0x3c3acfd4	0.011402089
26	0x3cdb681e	0.026783045
27	0xbd8360e5	-0.064149655
28	0x3de53272	0.11191262
29	0xbe004fb9	-0.12530412
30	0xbde08891	-0.10963548
31	0xbcdeac1e	-0.027181681
32	0xbdee48b6	-0.11634962
33	0x3da0a5ad	0.078441
34	0xbddeaf1b	-0.108732425
35	0xbe064614	-0.1311267
36	0xbe2a8f71	-0.16656281
37	0x3dfbcb96	0.1229469
38	0x3dd6a6e6	0.10481052
39	0x3d185347	0.037188794
40	0x3d1f3301	0.038867
41	0x3d1c3fc9	0.038146768
42	0xbdfe8e03	-0.1242943
43	0x3d3276ba	0.043570258
44	0x3e114055	0.14184697
45	0x3e163ac8	0.14670861
46	0xbdf1405f	-0.11779856
47	0xbbacac84	-0.005269589
48	0xbd91b54e	-0.07114659
49	0x3e051ea9	0.12999977
50	0x3d715c4c	0.05892591
51	0xbdee9e5c	-0.116512984
52	0x3e2c8dda	0.16850987
53	0xbd8c84ff	-0.068613045
54	0x3e10f7a8	0.14156973
55	0xbe0afcc2	-0.13572982
56	0xbdc1b92d	-0.094591476
57	0xbe032447	-0.12806807
58	0x3c733ed3	0.014846521
59	0xbdc33525	-0.09531621
60	0x3d05cba2	0.032664903
61	0xbd26babd	-0.04070543
62	0xbd085810	-0.033287108
63	0x3d1cebca	0.038310803
64	0x3d59ebd7	0.05320343
65	0x3dce86fd	0.10084341
66	0x3e21a6e1	0.15786316
67	0xbd811ab7	-0.063039236
68	0xbd48300a	-0.04887394
69	0x3e043bd4	0.12913448
70	0x3dd70ba9	0.10500271
71	0xbd2b09f6	-0.041757546
72	0xbc935fbe	-0.01798999
73	0x3dae088c	0.08497724
74	0x3ce78877	0.028263314
75	0xbe02c868	-0.12771761
76	0x3d572795	0.052527983
77	0x3d06bfd1	0.032897774
78	0xbdb33f8c	-0.08752355
79	0x3e1eaf00	0.15496445
80	0x3da5d604	0.08097461
81	0x3bd8e27d	0.0066187964
82	0xbd8f8c37	-0.07009166
83	0xbe1415af	-0.14461397
84	0x3de1faa1	0.11034132
85	0x3deefa7c	0.1166887
86	0xbe3053ad	-0.1721942
87	0xbd72a6c7	-0.059241083
88	0x3e2cdc0e	0.16880819
89	0xbcc267f9	-0.023731219
90	0xbd5547ce	-0.05207043
91	0x3d652bfe	0.055950157
92	0xbc36c527	-0.011155403
93	0xbdbcc03e	-0.09216355
94	0xbde5bf40	-0.11218119
95	0x3e24f5b5	0.16109355
96	0x3e24e1fb	0.1610183
97	0x3e0e9ce0	0.1392703
98	0x3e1c6519	0.1527294
99	0xbdf9a2ea	-0.121892765
100	0xbbdf3135	-0.006811286
101	0xbd9de5b7	-0.0770983
102	0xbdd52af7	-0.104085855
103	0x3e13cce3	0.14433627
104	0xbd466182	-0.048432834
105	0xbdfc69e8	-0.123248875
106	0x3dd31299	0.103062816
107	0xbda31ea0	-0.07964826
108	0xbda368dc	-0.07978985
109	0x3e314de3	0.17314868
110	0x3ced6d1d	0.028982693
111	0xbe146733	-0.14492492
112	0xbe05a101	-0.130497
113	0x3e2bc926	0.16775951
114	0xbb1a8de9	-0.002358312
115	0x3d81147f	0.063027374
116	0x3c33fa88	0.010985024
117	0x3db1313e	0.0865197
118	0xbd1a8f0f	-0.037734088
119	0xbe140a1a	-0.14456978
120	0xbe1838c5	-0.14865406
121	0x3cb91910	0.022594959
122	0xbd6fd60d	-0.058553744
123	0xbdb2f4fe	-0.08738135
124	0x3d9ac961	0.07557941
125	0x3c91fcc3	0.017820721
126	0xbd8936e1	-0.066999204
127	0xbe0edb85	-0.13950928
128	0xbd29f134	-0.041489795
129	0x3d7c9e08	0.061674148
130	0xbe23a2c8	-0.15980065
131	0x3d8c0373	0.068365954
132	0x3d2856b5	0.041098315
133	0x3e08761f	0.1332631
134	0x3d95056c	0.07276425
135	0x3dc914cd	0.098184206
136	0x3de6bb83	0.11266234
137	0xbb0e642a	-0.0021727183
138	0xbe047fe9	-0.12939419
139	0xbd8836d7	-0.06651085
140	0xbdb9dbc4	-0.0907512
141	0xbdeb759f	-0.11497044
142	0xbe22382e	-0.15841743
143	0xbd8ba97a	-0.068194345

encoder2.weight_ih_l0 f4 [72, 36]
0	0x3c3b0bd0	0.011416391
1	0xbd8ceb23	-0.06880786
2	0xbdf82384	-0.12116149
3	0xbe164c97	-0.14677654
4	0x3e117a6c	0.14206856
5	0x3d673261	0.05644453
6	0x3e02816e	0.12744686
7	0x3e0c615e	0.13709018
8	0x3dcf7438	0.10129589
9	0xbe66559a	-0.22493592
10	0x3e12b4a0	0.14326715
11	0x3e552bb6	0.20817456
12	0x3dbd1184	0.092318565
13	0xbe595b12	-0.21226147
14	0x3e12df23	0.14342932
15	0x3e4bb836	0.1989449
16	0x3e41743f	0.18892
17	0x3dfda69b	0.12385293
18	0x3e12db45	0.14341457
19	0x3deb3202	0.114841476
20	0x3c9ba66f	0.01900026
21	0x3dbf4414	0.09339157
22	0x3d953325	0.07285146
23	0x3c6248dd	0.013811317
24	0xbe2ce68f	-0.16884826
25	0x3e38e83f	0.18057345
26	0x3e16a5aa	0.14711633
27	0xbc1819e1	-0.009283514
28	0xbe69eab8	-0.22843444
29	0xbd1311a9	-0.035905514
30	0x3d438eca	0.047743596
31	0x3d964204	0.0733681
32	0xbdbf8ad1	-0.09352649
33	0xbdab5591	-0.0836593
34	0x3e2fa9ba	0.1715459
35	0x3ddc5a34	0.107593924
36	0x3e1eb2ea	0.15497938
37	0xbe527944	-0.20554072
38	0xbdcbf6c2	-0.09959175
39	0xbe6f231d	-0.23353238
40	0x3e660461	0.22462608
41	0xbe39de54	-0.18151218
42	0x3e2a0930	0.16605067
43	0x3e0cbbf9	0.13743581
44	0xbe15a488	-0.14613545
45	0xbd8d8699	-0.06910438
46	0x3e061d2e	0.13097069
47	0xbdf16c9d	-0.117882945
48	0xbcd2da22	-0.02573878
49	0x3e704423	0.23463492
50	0x3d6295af	0.05531853
51	0x3cbc2b77	0.022969944
52	0x3e5dc077	0.21655451
53	0x3e4de1eb	0.20105712
54	0x3ccb8cf2	0.024847481
55	0x3e5aa44f	0.21351741
56	0x3d248f25	0.040175576
57	0x3dcd21a0	0.10016179
58	0xbd709ba5	-0.058742184
59	0xbdaf54fc	-0.08561131
60	0xbe57b8aa	-0.21066537
61	0x3e2685cc	0.16261977
62	0xbd9ccb89	-0.07656009
63	0xbe59020b	-0.21192186
64	0x3e645f04	0.2230187
65	0xbe1885be	-0.14894769
66	0xbde04322	-0.109503046
67	0xbe661c10	-0.22471642
68	0x3e058a99	0.13041152
69	0x3df8216b	0.12115749
70	0x3d57886b	0.052620333
71	0x3e33ae4f	0.17546962
72	0xbe00ba5a	-0.12571087
73	0xbe3fcd94	-0.18730766
74	0xbd60bf41	-0.054869894
75	0x3d246bb4	0.040141776
76	0x3e4c710f	0.19965003
77	0x3e3586b1	0.17727162
78	0xbd5d758a	-0.054067172
79	0x3d160bca	0.036632337
80	0x3ccdfd05	0.025145063
81	0xbb0d84d3	-0.0021594062
82	0x3d72f4ed	0.05931561
83	0xbc3146af	-0.010820075
84	0xbd9fcff8	-0.07803339
85	0xbe38956c	-0.1802575
86	0x3e5e0484	0.2168141
87	0xbd89ebf7	-0.0673446
88	0x3c53a089	0.0129166925
89	0xbccb9ad2	-0.024854098
90	0x3dc0e88e	0.09419356
91	0xbcea4a28	-0.028599814
92	0xbd236413	-0.03989036
93	0xbd566e65	-0.052351374
94	0x3d0f4c54	0.0349849
95	0x3e4c6369	0.19959797
96	0x3d8c18c1	0.06840659
97	0x3ddc0ac7	0.10744243
98	0x3e65296b	0.22379081
99	0xbc063b35	-0.008192827
100	0x3dd7ab5d	0.10530732
101	0x3dac1e48	0.08404213
102	0x3da48e67	0.080349736
103	0xbdc2404d	-0.09484921
104	0xbd8699aa	-0.06572278
105	0xbe0d938b	-0.13825814
106	0xbe29e9b9	-0.16593064
107	0xbe4e6003	-0.20153813
108	0xbdfbe591	-0.12299646
109	0x3d258a68	0.040415198
110	0x3d45715b	0.048203807
111	0xbe1e9b8c	-0.15489024
112	0x3e0ba584	0.13637358
113	0x3b7e1562	0.003877007
114	0xbdb802e6	-0.08984928
115	0x3cd19ba7	0.025586916
116	0x3e5f47eb	0.21804778
117	0x3e54062a	0.20705476
118	0x3cdbc58b	0.026827594
119	0xbe4b95d3	-0.19881372
120	0x3e3b1496	0.18269572
121	0xbe0125e2	-0.12612107
122	0x3dc5024f	0.09619581
123	0x3de7c726	0.113172814
124	0xbe5a5073	-0.21319751
125	0xbda2d121	-0.079500444
126	0xbde65a29	-0.112476654
127	0x3e45ebe1	0.19328262
128	0xbb64fd7d	-0.003494113
129	0x3d7cec03	0.061748516
130	0xbe2ab4af	-0.16670488
131	0x3e1f750b	0.15571992
132	0x3e3d8156	0.18506369
133	0xbe124a6a	-0.14286199
134	0x3dd8d22f	0.10586964
135	0x3e22164b	0.15828817
136	0x3d51f5b2	0.051259704
137	0xbe3ec266	-0.18628845
138	0x3e5e031a	0.2168087
139	0xbe5f9fa6	-0.21838245
140	0x3dad687f	0.08467197
141	0xbe4dc4be	-0.20094582
142	0xbe3e43e9	-0.18580593
143	0x3ddbb7a0	0.10728383
144	0x3db418cd	0.08793793
145	0x3d80b35b	0.06284209
146	0x3e243999	0.16037597
147	0xbd6502f8	-0.055911034
148	0xbe20b3c1	-0.1569357
149	0xbdac3fb0	-0.08410585
150	0xbe0b9d20	-0.13634157
151	0xbc95aecd	-0.018271828
152	0x3d9b3ee3	0.07580354
153	0xbd9fdebb	-0.07806154
154	0xbe733e14	-0.2375415
155	0xbe55c9d7	-0.20877777
156	0x3e2cac36	0.16862568
157	0xbe37bf4c	-0.17944068
158	0x3dbecd97	0.09316557
159	0xbe18d2f0	-0.14924216
160	0xbde2c588	-0.11072832
161	0x3e614ba1	0.22001506
162	0xbd10eac2	-0.035380132
163	0x3d8c13af	0.06839692
164	0x3db64065	0.08899001
165	0x3e524a2b	0.20536105
166	0x3d5f627c	0.05453728
167	0xbe31601a	-0.17321816
168	0x3e5ca2eb	0.21546523
169	0x3df3512a	0.11880715
170	0xbe3e9acb	-0.18613736
171	0xbb3716de	-0.0027937214
172	0x390a6630	0.00013198773
173	0xbdedfd4c	-0.11620578
174	0xbdb8ce3f	-0.09023713
175	0x3dcd268f	0.1001712
176	0x3e49ece3	0.19719271
177	0xbced1a62	-0.028943244
178	0x3e55f2cf	0.20893405
179	0xbc95218d	-0.018204475
180	0xbd9e94b1	-0.077432044
181	0xbd2badc0	-0.041913748
182	0xbe71a486	-0.23597917
183	0x3e70bfad	0.23510619
184	0x3dc5db94	0.09661022
185	0xbe1bd19d	-0.1521668
186	0x3e5675ed	0.20943423
187	0x3c346647	0.011010713
188	0xbe122ca0	-0.14274836
189	0xbe53de44	-0.20690256
190	0x3d8e620f	0.06952297
191	0x3e6e3d70	0.23265624
192	0xbdf52b73	-0.11971178
193	0xbdcdf423	-0.10056331
194	0xbe577beb	-0.21043365
195	0x3d46a82e	0.048500232
196	0xbe44cb32	-0.19218138
197	0x3e4272b0	0.18989062
198	0x3e54ab2f	0.20768426
199	0x3e1e813b	0.15478985
200	0xbcb82e4b	-0.022483012
201	0xbab5f865	-0.0013883231
202	0x3beb44e1	0.007179842
203	0xbe21ce2a	-0.15801302
204	0x3e29753e	0.1654863
205	0x3e06d99b	0.13168947
206	0x3d578dca	0.052625455
207	0xbddbe4a7	-0.10736971
208	0xbe33978a	-0.17538276
209	0xbe0c3412	-0.13691738
210	0xbc86d8ab	-0.016460737
211	0x3db1a837	0.086746626
212	0xbe275b4b	-0.16343419
213	0x3cbe2894	0.023212709
214	0xbe6e7116	-0.23285326
215	0xbe0c6f9d	-0.13714452
216	0x3b65c5f1	0.003506061
217	0xbe5ffe6b	-0.21874397
218	0xbce71c50	-0.028211743
219	0x3d3ffe18	0.046873182
220	0x3b75deeb	0.0037516903
221	0xbdee9385	-0.11649231
222	0xbe23ec60	-0.16008139
223	0x3ceacb98	0.028661534
224	0x3b9c460f	0.004769094
225	0x3e5c4498	0.21510541
226	0xbe0d837f	-0.13819693
227	0x3e3a6003	0.18200688
228	0x3d1859cf	0.037195023
229	0xbe068c42	-0.13139442
230	0xbd06439f	-0.032779332
231	0xbe1c1b27	-0.15244733
232	0x3ddead29	0.108728714
233	0xbe78e6a4	-0.24306732
234	0x3dce6856	0.10078494
235	0x3c471317	0.0121505475
236	0xbca2e65f	-0.01988524
237	0x3e516786	0.20449647
238	0x3e105a85	0.1409703
239	0x3dbe5fbd	0.092956044
240	0x3d7fe5f8	0.062475175
241	0xbde26fcc	-0.1105648
242	0xbe16903e	-0.14703462
243	0xbda5df5b	-0.08099242
244	0xbdf4c915	-0.11952416
245	0x3e5ac765	0.21365125
246	0x3e5186c2	0.20461562
247	0xbc14dccc	-0.009085845
248	0x3e094dfc	0.13408655
249	0xbd84cfa1	-0.064849146
250	0x3d8dfbb2	0.06932773
251	0xbda1c4af	-0.078988425
252	0xbd9fc8bf	-0.07801961
253	0xbe373651	-0.17891814
254	0x3e60d8c2	0.21957687
255	0x3e028f16	0.12749895

encoder2.weight_hh_l0 f4 [72, 18]
0	0x3d17e940	0.03708768
1	0x3e330a53	0.17484407
2	0xbd047aeb	-0.032343786
3	0x3e105e4f	0.14098476
4	0x3dc4cba9	0.096091576
5	0x3e6960f3	0.2279089
6	0xbd3e010a	-0.04638771
7	0xbdeafcd9	-0.11474008
8	0xbddac82c	-0.10682711
9	0xbceb327b	-0.028710594
10	0xbdbeafd2	-0.09310879
11	0xbb04e993	-0.0020280823
12	0x3e56609e	0.20935294
13	0x3c792cdc	0.015208449
14	0xbe110c8b	-0.14164941
15	0xbce8cd06	-0.028418075
16	0xbe0756e2	-0.13216737
17	0xbdfbe2b5	-0.122991
18	0xbe480f93	-0.19537191
19	0x3d97ae9f	0.07406353
20	0xbdbbdd05	-0.091730155
21	0xbe419a35	-0.18906482
22	0xbcb1723a	-0.021660913
23	0xbdfdda40	-0.123951435
24	0xbd4aee74	-0.049543813
25	0xbe78ca8d	-0.24296017
26	0x3cefb218	0.029259726
27	0xbe2d33fe	-0.16914365
28	0xbe1e4aaf	-0.15458177
29	0xbae56f9c	-0.0017504576
30	0x3de6ad94	0.11263576
31	0x3dd4226e	0.103581294
32	0xbe7ed31a	-0.24885216
33	0xbe7c69aa	-0.24649683
34	0xbcbddcae	-0.023176517
35	0x3d92ff90	0.07177651
36	0xbe0418c4	-0.12900072
37	0xbe654138	-0.2238816
38	0x3deed977	0.11662572
39	0x3e1ec9a7	0.15506612
40	0xbb6cb25c	-0.0036117053
41	0xbd26a4ce	-0.040684514
42	0xbd75657b	-0.059911232
43	0x3b60c32f	0.0034296026
44	0x3ba01c49	0.0048861844
45	0x3bcc8ade	0.00624214
46	0x3d4f7197	0.050645437
47	0xbca9347a	-0.020654906
48	0xbde60499	-0.11231346
49	0x3dc8c2b3	0.09802761
50	0xbe072a5e	-0.13199756
51	0x3dbdd450	0.09269011
52	0x3e49fc79	0.19725217
53	0xbcc3b75c	-0.023891144
54	0xbe245348	-0.16047394
55	0xbe289f4e	-0.1646702
56	0x3e5f630f	0.21815132
57	0x3c914ad9	0.017735885
58	0xbde0be3b	-0.109737836
59	0x3e2cd3f7	0.16877733
60	0xbe07b24d	-0.1325161
61	0x3dec7d99	0.11547393
62	0xbd99aafa	-0.07503314
63	0xbe3a55df	-0.1819682
64	0xbe2ecc71	-0.17070176
65	0xbd4d3574	-0.050099805
66	0x3e5e4743	0.21706872
67	0xbc9092dd	-0.017648155
68	0xbe360ceb	-0.17778365
69	0x3e45a357	0.1930059
70	0x3e507045	0.20355327
71	0x3e036a49	0.12833513
72	0xbe2e8bc5	-0.17045505
73	0xbe5df280	-0.21674538
74	0x3df555d3	0.1197926
75	0x3df8885c	0.121353835
76	0xbe61e36f	-0.22059415
77	0x3a963499	0.0011459767
78	0xbe72df4c	-0.23717993
79	0x3d3793d5	0.044818718
80	0xbe1cc75e	-0.15310428
81	0x3e12baa9	0.14329018
82	0xbe3962a1	-0.1810403
83	0x3df68fab	0.12039121
84	0xbe13e105	-0.14441307
85	0x3d9e4358	0.077276886
86	0x3cdf4d01	0.027258398
87	0xbd8cf510	-0.068826795
88	0xbe138c29	-0.14408936
89	0xbd925d75	-0.07146732
90	0xbd92f8ba	-0.07176347
91	0xbe305777	-0.17220865
92	0x3d16e2cc	0.036837384
93	0xbd44538a	-0.04793123
94	0x3d4303d9	0.04761109
95	0x3e5ccda3	0.21562819
96	0xbe5cb10e	-0.21551916
97	0x3b899bb5	0.00419947
98	0x3d5860ce	0.052826695
99	0x3e0d1ddb	0.1378092
100	0xbe701b6e	-0.23447964
101	0xbe106993	-0.14102773
102	0x3d044dbc	0.032300696
103	0xbde908d5	-0.11378638
104	0x3d231fc8	0.03982523
105	0x3e1b7fba	0.15185443
106	0xbdbfb924	-0.09361485
107	0x3e592344	0.21204859
108	0x3e787bd7	0.24265991
109	0x3e66aeee	0.22527668
110	0x3ab3208e	0.0013666318
111	0xbdbbee52	-0.09176315
112	0xbe3f1106	-0.18658838
113	0x3e178aea	0.14799085
114	0xbe20f12a	-0.15716997
115	0x3d805af0	0.06267345
116	0x3daf85c2	0.08570434
117	0x3e5ce533	0.21571808
118	0xbe011f55	-0.12609608
119	0xbca460fe	-0.02006578
120	0x3e03d40b	0.12873857
121	0x3e77fedb	0.24218313
122	0x3e1a99c2	0.15097716
123	0x3da43664	0.08018187
124	0x3e0babba	0.13639727
125	0xbe3dcafd	-0.18534465
126	0xbd6010bc	-0.05470346
127	0xbd118013	-0.03552253
128	0xbdbba61d	-0.09162543
129	0x3e18560c	0.14876574
130	0xbe20f708	-0.15719235
131	0xbd913dc5	-0.0709186
132	0xbe6db0ce	-0.23211977
133	0x3d0a83c7	0.03381708
134	0xbe4e314e	-0.20135996
135	0xbe77afae	-0.2418811
136	0x3c007f26	0.007842815
137	0xbe355bf1	-0.17710854
138	0x3dd31318	0.10306376
139	0xbda992a8	-0.082799256
140	0xbd63bb43	-0.05559851
141	0x3dc7b960	0.09752154
142	0xbd089ddd	-0.033353675
143	0xbe76565b	-0.2405638
144	0x3e365212	0.17804745
145	0xbd6e3d7c	-0.058164105
146	0xbe257b76	-0.16160378
147	0xbe103dc7	-0.14086066
148	0x3c1fa713	0.009744423
149	0xbda48051	-0.08032287
150	0x3e190774	0.1494425
151	0xbe727213	-0.23676328
152	0x3ad5ddaa	0.0016316671
153	0x3d6f2941	0.058388952
154	0x3e2eb852	0.170625
155	0x3c0ecc1c	0.008715656
156	0xbcb80686	-0.022464048
157	0x3d4b7a7c	0.049677357
158	0x3e0e4bed	0.13896151
159	0xbe448762	-0.1919227
160	0x3db7f0f9	0.08981509
161	0xbc9b3217	-0.018944783
162	0x3da1d9a4	0.0790284
163	0x3cc26c23	0.023733204
164	0xbe0c658c	-0.13710612
165	0x3cb713fe	0.0223484
166	0xbe42e54d	-0.19032784
167	0x3e51bb7a	0.20481673
168	0x3e1c6260	0.15271902
169	0x3e081397	0.13288723
170	0xbcff6792	-0.031177316
171	0x3cd7a9e3	0.026326125
172	0xbe43e99f	-0.19132088
173	0x3c86a840	0.01643765
174	0x3de4710a	0.11154373
175	0x3e5fded5	0.21862347
176	0x3b844143	0.0040361
177	0x3d1a44c2	0.03766323
178	0xbe5e9e1e	-0.21740004
179	0x3ddf3237	0.108982496
180	0xbe017683	-0.12642865
181	0xbe12133d	-0.14265151
182	0xbd955ca9	-0.07293064
183	0xbe38c463	-0.18043666
184	0xbe419b91	-0.18907
185	0xbc3c662a	-0.011498967
186	0x3e095a6e	0.13413402
187	0x3e29f0f5	0.16595824
188	0xbd03cbe5	-0.03217687
189	0x3e2563ec	0.16151398
190	0xbd992504	-0.07477763
191	0xbe68bb19	-0.22727622
192	0x3e4c5418	0.19953954
193	0xbc593871	-0.013258086
194	0xbe66678f	-0.22500442
195	0xbdb35200	-0.08755875
196	0xbd739daf	-0.05947655
197	0xbcae3aff	-0.021268366
198	0xbe1c1f1b	-0.15246241
199	0xbe595415	-0.21223481
200	0x3c8b168a	0.01697852
201	0x3e5e0a87	0.21683703
202	0x3e2b808a	0.16748253
203	0xbcbf368f	-0.023341445
204	0x3da48bce	0.08034478
205	0xbdd7df72	-0.10540666
206	0xbdcdc44e	-0.10047208
207	0x3c8b4551	0.017000826
208	0x3d560a54	0.052255943
209	0xbe598e2b	-0.21245639
210	0xbe0ab81c	-0.13546795
211	0x3e6b709e	0.22992179
212	0x3d92607b	0.071473084
213	0xbe3edfad	-0.18640013
214	0x3de8b470	0.11362541
215	0xbdd54f7d	-0.10415552
216	0xbe3421a6	-0.17590961
217	0xbdff231c	-0.124578685
218	0xbdb4dbd1	-0.08830989
219	0x3e426c4d	0.18986626
220	0x3dea0f35	0.11428682
221	0x3d97636f	0.07392012
222	0xbe43eebc	-0.19134039
223	0x3d0108d7	0.03150257
224	0xbe6a4419	-0.2287754
225	0xbcc1b94f	-0.023647932
226	0xbdc0e22d	-0.094181396
227	0x3e2b505e	0.16729876
228	0x3e679dde	0.22618815
229	0xbe4366e4	-0.19082218
230	0xbd189df7	-0.037260022
231	0xbe189ee2	-0.14904359
232	0xbc762381	-0.015023113
233	0xbd1676a6	-0.036734246
234	0x3dfb5169	0.12271387
235	0xbb972be5	-0.004613387
236	0x3e549316	0.20759234
237	0x3dc54da1	0.09633947
238	0xbe59fbb4	-0.21287423
239	0xbdc7614a	-0.09735353
240	0xbd55c9bf	-0.052194353
241	0xbd61b3ec	-0.055103227
242	0xbdd99700	-0.10624504
243	0x3e52b52b	0.20576923
244	0xbcb6cfd7	-0.022315903
245	0xbc181bf5	-0.009284009
246	0xbd8b95f5	-0.068157114
247	0x3e18a42d	0.14906378
248	0x3d4f7e18	0.05065736
249	0x3d3d67f2	0.046241708
250	0x3d9ca0d9	0.07647867
251	0x3e485a9d	0.19565816
252	0xbd3e5305	-0.046465892
253	0x3e5962a1	0.2122903
254	0xbe2cf65c	-0.16890854
255	0x3df66580	0.12031078

encoder2.bias_ih_l0 f4 [72]
0	0xbd2a54cf	-0.041584786
1	0xbe3073e7	-0.17231713
2	0xbdfc6516	-0.12323968
3	0xbe42b11d	-0.19012876
4	0xbd91addd	-0.0711324
5	0x3e66f4cd	0.22554322
6	0xbd70cbd8	-0.05878815
7	0xbdc810f8	-0.097688615
8	0x3e61f33f	0.22065447
9	0x3ddbbd99	0.10729522
10	0xbd97b7b4	-0.074080855
11	0x3de0d27a	0.10977645
12	0xbd955872	-0.0729226
13	0xbc0d8428	-0.008637466
14	0xbdc71281	-0.09720326
15	0xbe5fad45	-0.21843441
16	0x3ccbde16	0.024886172
17	0xbd90bd3f	-0.07067346
18	0xbe0e4278	-0.13892543
19	0xbe5a765f	-0.21334217
20	0xbe671ff8	-0.22570789
21	0xbd9611ce	-0.07327615
22	0xbe1472bb	-0.14496891
23	0x3e6329a1	0.22183849
24	0xbe508877	-0.20364557
25	0x3e268207	0.16260539
26	0x3e0e1b5b	0.13877623
27	0x3e4fa434	0.20277482
28	0xbe4dfc34	-0.20115739
29	0x3cbc376a	0.022975642
30	0xbe79c04b	-0.2438976
31	0x3e213aa6	0.15745029
32	0x3dd46cd8	0.10372323
33	0xbd9beb28	-0.07613212
34	0x3d33d952	0.043908425
35	0x3e318560	0.17336035
36	0x3e3e3393	0.18574362
37	0xbe24482a	-0.16043153
38	0x3e239b84	0.15977293
39	0xbcd22699	-0.02565317
40	0xbe7ca604	-0.24672705
41	0xbdb20d43	-0.08693936
42	0xbe6084b5	-0.21925624
43	0xbd7f75c5	-0.062368173
44	0x3e2fdbd6	0.17173705
45	0xbe50d8c3	-0.20395188
46	0x3df3cbd8	0.119041145
47	0xbe3b726b	-0.18305366
48	0xbdeaf83d	-0.11473129
49	0x3da704a2	0.081551805
50	0x3ce32c72	0.027731154
51	0xbe4bf48a	-0.19917503
52	0xbdc9ace0	-0.098474264
53	0xbc872720	-0.016498148
54	0x3e289d4f	0.16466258
55	0xbe18ef30	-0.14934993
56	0xbdd8d76d	-0.10587964
57	0x3d9a8ba2	0.07546164
58	0xbda83bd5	-0.08214537
59	0x3e5f2566	0.2179161
60	0xbd324798	-0.04352531
61	0xbe35da45	-0.17759044
62	0x3cb82cfe	0.022482391
63	0x3e38d1ce	0.18048784
64	0x3d582465	0.052769084
65	0x3e6ab623	0.22921042
66	0x3dbde106	0.092714354
67	0x3e151eb1	0.14562489
68	0x3e25ab4d	0.16178627
69	0x3da41aba	0.0801291
70	0xbdfce472	-0.1234826
71	0xbc43a7cd	-0.011941862

encoder2.bias_hh_l0 f4 [72]
0	0x3c253615	0.010083695
1	0xbe593cd1	-0.21214606
2	0x3d41ccbe	0.047314398
3	0x3e1b0bf4	0.15141279
4	0xbd2076ab	-0.03917567
5	0x3e29eddf	0.16594647
6	0x3d056110	0.03256327
7	0xbe341cca	-0.17589107
8	0x3daebd4e	0.08532201
9	0x3d064ff7	0.032791104
10	0xbd528a68	-0.051401526
11	0x3d056a45	0.03257205
12	0xbe30b4cd	-0.1725647
13	0x3e243c58	0.16038644
14	0x3e21f925	0.15817697
15	0x3c4da68f	0.012551918
16	0xbe7306d6	-0.23733076
17	0xbb8191e2	-0.003954158
18	0xbde86284	-0.11346915
19	0xbe533606	-0.20626077
20	0x3e04defb	0.12975685
21	0xbe4c8076	-0.19970879
22	0x3d9f7f85	0.07787994
23	0x3dc2e6a9	0.09516651
24	0xbd86599c	-0.065600604
25	0x3dd0a03a	0.10186811
26	0x3d5f1b27	0.054469254
27	0xbe6d0cad	-0.23149367
28	0x3e64bcb4	0.2233761
29	0x3cde3967	0.027126981
30	0xbd845ea9	-0.064633675
31	0x3a551df6	0.00081297697
32	0xbe48020c	-0.19532031
33	0xbd8b686e	-0.06807028
34	0xbd28cf26	-0.041213177
35	0xbe16f18a	-0.14740577
36	0x3e0606cd	0.13088532
37	0x3e006e9d	0.12542196
38	0xbd7fee91	-0.062483374
39	0x3cf48956	0.029850643
40	0x3dd84d21	0.10561586
41	0x3e087f8e	0.13329908
42	0x3daed618	0.08536929
43	0xbe6fcf3a	-0.23418894
44	0xbc9e18b7	-0.019298894
45	0x3d518ad7	0.0511578
46	0x3e1a1e5a	0.1505064
47	0xbd7ee97b	-0.062234383
48	0xbdbeb6dc	-0.093122214
49	0xbdc5af04	-0.09652522
50	0xbda241b5	-0.07922689
51	0xbe26fd70	-0.16307616
52	0x3e3b6301	0.18299486
53	0x3c7175a2	0.0147375185
54	0x3dbd1dc2	0.092341915
55	0x3db8f1a0	0.09030461
56	0xbe52dbdb	-0.2059168
57	0x3da63a6e	0.08116613
58	0xbcac0e6e	-0.021002974
59	0x3e1c2e3a	0.15252009
60	0x3ddc3d8c	0.10753927
61	0x3cecacce	0.028890993
62	0x3e6ea4c9	0.23305048
63	0x3e2a812c	0.16650838
64	0xbe0ff595	-0.14058526
65	0x3deeb0e2	0.116548315
66	0xbd884b67	-0.06655007
67	0x3e2be7ab	0.16787593
68	0xbe022d38	-0.12712562
69	0xbde19a6b	-0.11015781
70	0x3bc3b709	0.005972747
71	0xbe38e81d	-0.18057294

decoder1.weight_ih_l0 f4 [144, 18]
0	0xbe075c4f	-0.13218807
1	0x3dfd34bf	0.12363576
2	0x3d2efa17	0.042718973
3	0x3dccb83b	0.09996077
4	0xbda06563	-0.07831838
5	0xbe05dac0	-0.13071728
6	0x3dd001f9	0.10156626
7	0xbe138933	-0.14407806
8	0x3e1a7ea8	0.15087378
9	0xbe1432ac	-0.14472455
10	0xbe23a5e0	-0.15981245
11	0xbd7e4225	-0.0620748
12	0xbe1c1da0	-0.15245676
13	0x3cb9a761	0.02266282
14	0xbda0008d	-0.07812605
15	0xbe0e9272	-0.13923052
16	0xbd072a24	-0.032999173
17	0x3e010046	0.1259776
18	0xbe07244f	-0.13197444
19	0xbd7caf3a	-0.061690547
20	0x3e2e4099	0.1701683
21	0x3d925c04	0.07146457
22	0xbadaab9f	-0.0016683227
23	0xbdef5d5c	-0.11687729
24	0x3d14f548	0.03636673
25	0x3de8f3ec	0.113746494
26	0x3e069c11	0.13145472
27	0xbb9e0270	-0.004822068
28	0x3d92eecf	0.071744554
29	0xbd8071c8	-0.06271702
30	0xbd9bf11d	-0.07614348
31	0x3d511a06	0.05105021
32	0x3d940d83	0.0722914
33	0x3de542f8	0.11194414
34	0xbdaa3709	-0.083112784
35	0xbdaec56b	-0.08533748
36	0xbe02d7d0	-0.12777638
37	0xbcf9c621	-0.030489983
38	0x3e05e3be	0.13075158
39	0xbdda8d2c	-0.10671458
40	0x3db5f26c	0.08884129
41	0xbdf0f504	-0.11765483
42	0xbdce3702	-0.10069086
43	0x3d381088	0.04493764
44	0x3e158608	0.1460191
45	0xbdbcc69e	-0.09217571
46	0x3e23238d	0.1593153
47	0xbdfae6d0	-0.12251055
48	0xbdd77827	-0.10520964
49	0x3e1f5e67	0.15563355
50	0x3ce57f7d	0.028014893
51	0x3db4ad4a	0.08822115
52	0x3e01c0ee	0.12671253
53	0xbdb83acb	-0.08995589
54	0xbde84faa	-0.1134332
55	0x3b0c5eef	0.002141889
56	0x3dec4814	0.11537185
57	0x3c5ca6bf	0.01346749
58	0x3e1409ea	0.14456907
59	0x3d8f7f9d	0.07006762
60	0x3cad95dc	0.021189623
61	0x3dcedb85	0.10100464
62	0x3d581bc7	0.052760866
63	0xbcd9e76f	-0.026599614
64	0xbd54003f	-0.051758047
65	0xbda04d8e	-0.078272924
66	0x3df45575	0.11930362
67	0xbe1995e7	-0.1499859
68	0x3e2c93c6	0.16853246
69	0xbdaf65c9	-0.08564336
70	0x3d3022e8	0.04300204
71	0x3e26a29b	0.16272967
72	0xbd2ef710	-0.042716086
73	0x3e1f9a46	0.15586194
74	0xbd901658	-0.07035512
75	0x3e12f19c	0.14349979
76	0xbdf9662b	-0.1217769
77	0x3db5f4d4	0.08884588
78	0x3da66918	0.08125514
79	0xbde3032e	-0.11084591
80	0xbd9df454	-0.077126175
81	0xbe2a883b	-0.1665353
82	0x3d8bfe96	0.06835668
83	0xbe312cd2	-0.17302254
84	0xbe1b013f	-0.15137194
85	0x3e188464	0.14894253
86	0x3e0936a6	0.13399753
87	0x3c33a918	0.010965608
88	0xbd9096b6	-0.07059996
89	0x3e16f07b	0.14740174
90	0x3e2473da	0.16059819
91	0xbddb43dd	-0.10706303
92	0x3e15d2de	0.1463122
93	0xbdfdb15a	-0.12387343
94	0xbdf9db7e	-0.12200068
95	0x3df62c42	0.1202016
96	0xbdda752e	-0.106668815
97	0x3e016691	0.12636782
98	0xbdc5bb38	-0.0965485
99	0xbdb3f657	-0.0878722
100	0xbc1cb740	-0.009565175
101	0xbc583b53	-0.013197738
102	0x3c76ce87	0.015063888
103	0xbe087908	-0.1332742
104	0xbdfd2083	-0.12359717
105	0xbe10e6ee	-0.14150593
106	0x3c8ad9e8	0.016949609
107	0x3dbeec15	0.09322373
108	0xbdd8c330	-0.10584104
109	0xbd508f65	-0.050918
110	0x3c845213	0.016152417
111	0xbdcbbece	-0.099485025
112	0x3e0ebad7	0.13938461
113	0xbd8bec62	-0.06832196
114	0xbdc54508	-0.09632307
115	0x3dc3ec1a	0.09566517
116	0xbd27d3a4	-0.04097332
117	0x3c86c256	0.016450088
118	0x3c65cb87	0.0140255755
119	0x3da0855c	0.07837936
120	0xbca57c52	-0.020200882
121	0x3e175dc1	0.14781858
122	0x3e01c000	0.12670898
123	0x3e10f267	0.14154969
124	0xbd113dd4	-0.035459355
125	0xbbfa43b1	-0.007637464
126	0xbd86868e	-0.06568633
127	0x3d114424	0.035465375
128	0xbe26b77d	-0.16280933
129	0xbd7a4a29	-0.06110588
130	0x3d12cff2	0.035842843
131	0x3e2cdb3e	0.1688051
132	0x3d9160d4	0.070985466
133	0x3d122e44	0.035688654
134	0x3df35011	0.11880506
135	0xbc99089f	-0.018680869
136	0xbd09e904	-0.033669487
137	0x3dba9eb3	0.09112301
138	0x3dda8df6	0.10671608
139	0x3cb9f3d1	0.022699269
140	0x3da0527b	0.07828232
141	0xbcfad34d	-0.030618334
142	0xbe11b4ca	-0.14229122
143	0x3d96df54	0.07366815
144	0x3a76800c	0.0009403236
145	0xbd8c16f4	-0.068403155
146	0x3d34b703	0.044119846
147	0x3cfb7875	0.030697087
148	0x3d1b4e76	0.037916623
149	0xbe3061b6	-0.17224774
150	0x3e135e71	0.14391495
151	0x3c654702	0.01399398
152	0xbd47c578	-0.048772305
153	0xbcc7f2ae	-0.02440771
154	0x3d1ea88a	0.03873495
155	0x3d927004	0.071502715
156	0x3c8f4902	0.017490868
157	0x3d0b6c90	0.03403908
158	0xbbb6f3e1	-0.005583272
159	0x3d80218d	0.06256399
160	0x3e1dff6d	0.15429468
161	0xbd47102f	-0.04859942
162	0xbc0152ea	-0.007893303
163	0x3dbf86f7	0.093519144
164	0x3db3bdde	0.08776449
165	0x3d97758f	0.073954694
166	0x3dd3a8de	0.10334943
167	0x3e0dfa69	0.13865055
168	0xbcbf97d8	-0.023387834
169	0xbdedc089	-0.11608989
170	0x3db8e712	0.09028448
171	0xbceb0da9	-0.028693037
172	0x3d77a449	0.06045941
173	0x3e0f357c	0.13985246
174	0xbe280963	-0.16409831
175	0x3dc443b0	0.09583223
176	0x3d1c3d0f	0.038144168
177	0x3bf4a469	0.0074658883
178	0x3e102235	0.14075549
179	0xbe0a6579	-0.13515271
180	0xbe232fbd	-0.1593618
181	0xbdbfd44c	-0.09366664
182	0x3d9f0c7a	0.077660516
183	0xbbcb6b7d	-0.006207882
184	0x3df79fcd	0.120910265
185	0xbda4303b	-0.08017012
186	0x3e0094f0	0.12556815
187	0xbdc3bf42	-0.09557964
188	0xbd6bec76	-0.057598554
189	0x3ce66815	0.028125802
190	0x3d847586	0.06467728
191	0xbe0b0675	-0.13576682
192	0xbe0bcc0f	-0.13652061
193	0x3dd6b87c	0.10484406
194	0xbcce0ea4	-0.025153466
195	0x3ce0753c	0.027399652
196	0x3dfc07e5	0.12306193
197	0x3cabd921	0.020977559
198	0xbde45915	-0.111498035
199	0xbbb8d1b6	-0.005640234
200	0x3e2249cb	0.15848462
201	0xbd9e6fc5	-0.07736162
202	0x3e0c4c4a	0.13700977
203	0xbe1349f2	-0.14383677
204	0xbe241e32	-0.16027144
205	0xbd8c3a5a	-0.06847067
206	0xbe06b2d0	-0.13154149
207	0xbde878d0	-0.11351168
208	0x3de72194	0.112857014
209	0x3ddc7476	0.10764401
210	0xbc313d72	-0.010817872
211	0xbe1b915a	-0.15192166
212	0x3dcf72dd	0.1012933
213	0x3d72d51a	0.05928526
214	0x3d3668dd	0.0445336
215	0x3d9dc06d	0.07702718
216	0x3d41c899	0.047310445
217	0xbde76b04	-0.112997085
218	0x3e107236	0.14106068
219	0x3b692e99	0.0035580753
220	0xbde797bd	-0.11308239
221	0xbd0305b9	-0.03198788
222	0xbd5fa777	-0.054603066
223	0xbd0e3af8	-0.034724206
224	0xbde7e662	-0.11323239
225	0x3da5d94a	0.08098085
226	0xbc9da15f	-0.019241987
227	0x3da8e070	0.08245933
228	0xbda20614	-0.079113156
229	0x3e2edb89	0.17075934
230	0x3e0c3423	0.13691764
231	0x3e18b37f	0.14912222
232	0x3d93a01f	0.07208275
233	0x3d6804f4	0.05664535
234	0xbdf64164	-0.12024191
235	0xbd8daa7b	-0.06917282
236	0xbe1a023d	-0.15039916
237	0xbd4c831a	-0.049929716
238	0x3d186e29	0.037214432
239	0x3d929405	0.07157139
240	0x3dec8f0e	0.11550723
241	0x3dab9091	0.08377183
242	0x3d3119ef	0.043237623
243	0xbde8bf52	-0.113646165
244	0x3d531f12	0.051543303
245	0xbd09895b	-0.033578258
246	0x3e2b4bba	0.16728106
247	0x3d8c915d	0.06863663
248	0x3d3c164f	0.045919713
249	0x3da89055	0.08230654
250	0x3c4aa6cd	0.01236887
251	0xbd730b9d	-0.059337247
252	0x3e04103b	0.12896816
253	0x3e19d024	0.15020806
254	0xbdd5dad0	-0.10442126
255	0xbbad7bf7	-0.005294319

decoder1.weight_hh_l0 f4 [144, 36]
0	0xbd955ba5	-0.072928704
1	0xbd941699	-0.07230873
2	0xbcc27970	-0.023739547
3	0xbdd092fe	-0.101842865
4	0xbd99b408	-0.07505041
5	0xbe0254ac	-0.12727612
6	0x3dbf54ad	0.093423225
7	0xbc17f428	-0.00927452
8	0xbdc7edee	-0.09762178
9	0x3d135231	0.035967056
10	0xbe0ff0a1	-0.14056636
11	0x3b12fe5f	0.002242945
12	0xbd8d40d3	-0.0689713
13	0x3d559972	0.05214829
14	0xbd8490f3	-0.06472959
15	0x3d611d64	0.05495967
16	0xbd38a4e3	-0.045079123
17	0xbdee213b	-0.11627432
18	0xbd9ad681	-0.075604446
19	0x3e2857b7	0.1643971
20	0x3daeb676	0.085308954
21	0xbe00105c	-0.1250624
22	0xbdaa3a3a	-0.08311887
23	0x3dc4a52f	0.09601819
24	0xbd8a32ed	-0.067479946
25	0x3e117f52	0.14208725
26	0xbdbadde6	-0.09124355
27	0xbe08f1a9	-0.13373436
28	0x3e1aec7a	0.15129271
29	0xbb250e1e	-0.0025185416
30	0xbcd6c395	-0.026216308
31	0x3ce1f83b	0.027584186
32	0x3e2293f2	0.15876749
33	0x3ddfb923	0.10923984
34	0xb9bbf4ce	-0.00035849813
35	0x3d8e9afd	0.069631554
36	0xbe11de2a	-0.14244905
37	0x3e263a15	0.16233094
38	0x3e17698c	0.14786357
39	0x3e180eb1	0.14849354
40	0xbe12308e	-0.14276335
41	0xbe1217f4	-0.1426695
42	0xbcb1e64c	-0.02171626
43	0x3aaa672b	0.0013000717
44	0xbd959c02	-0.07305147
45	0xbe1d633e	-0.15369889
46	0x3e13dd25	0.14439829
47	0xbdc6960a	-0.096965864
48	0xbd866856	-0.06562869
49	0x3de210c0	0.11038351
50	0x3d27d05e	0.0409702
51	0x3dda41f0	0.10657108
52	0xbd00caec	-0.03144352
53	0x3c234634	0.009965468
54	0xbd84be6c	-0.064816326
55	0xbda057d7	-0.07829254
56	0xbdfc468f	-0.123181455
57	0xbd06c282	-0.03290034
58	0x3e00ba3b	0.12571041
59	0x3d95fcae	0.073235855
60	0x3e2efb23	0.17087989
61	0xbba2f040	-0.0049724877
62	0x3e23b8a0	0.15988398
63	0x3d50e343	0.050997984
64	0xbc56a1c1	-0.013100089
65	0xbbaa7bdf	-0.005202755
66	0x3dfaba6e	0.1224259
67	0x3e1ebe9f	0.15502404
68	0x3e20e853	0.15713625
69	0x3dbe938b	0.09305485
70	0x3c4c04d0	0.012452319
71	0x3d9b51af	0.07583939
72	0x3d6bf363	0.05760516
73	0xbd9d1001	-0.07669068
74	0x3dd58657	0.10426014
75	0xbda7898a	-0.0818053
76	0x3da79ed5	0.08184592
77	0x3e11e029	0.14245667
78	0xbdb89e28	-0.09014541
79	0x3e127980	0.14304161
80	0xbdad4e28	-0.08462173
81	0x3e295a8a	0.16538444
82	0xbe251dee	-0.16124699
83	0xbdb5ae58	-0.08871144
84	0x3d4aa732	0.049475856
85	0x3d8c2301	0.06842614
86	0xbd06d02d	-0.032913376
87	0x3e2156ed	0.15755816
88	0x3e1413c4	0.14460665
89	0xbe1ff612	-0.15621212
90	0x3c944790	0.01810053
91	0xbdefaf9f	-0.11703419
92	0x3dbec903	0.09315684
93	0x3cb24c71	0.021764966
94	0xbd2c0e64	-0.04200591
95	0x3d4414cc	0.047871396
96	0xbe042982	-0.12906459
97	0xbda0c0b4	-0.07849255
98	0x3dbffae9	0.09374029
99	0xbd481532	-0.04884834
100	0xbd867795	-0.06565777
101	0x3bf9495a	0.007607621
102	0x3db79574	0.08964053
103	0xbd14ee29	-0.03635994
104	0xbc9efff9	-0.019409167
105	0x3de33f01	0.110960014
106	0xbda604a7	-0.08106356
107	0x3e131ef5	0.14367278
108	0x3cbcc447	0.023042811
109	0xbd35f18c	-0.04441981
110	0xbcfca572	-0.03084061
111	0xbdc8fd9b	-0.098139964
112	0x3dc8f26a	0.09811862
113	0x3e01c309	0.12672056
114	0xbd5c0b71	-0.05372185
115	0x3e1ec33a	0.1550416
116	0xbe1744c3	-0.14772324
117	0x3d9fc950	0.07802069
118	0xbe038408	-0.12843335
119	0x3e14a0ea	0.14514509
120	0xbceacac7	-0.028661145
121	0xbd94f8b8	-0.07274002
122	0xbdcf17a5	-0.10111932
123	0xbe09a558	-0.1344198
124	0xbde847f6	-0.113418505
125	0xbc8306a5	-0.01599438
126	0x3e1a9277	0.15094934
127	0x3dba1283	0.09085562
128	0xbdfb7707	-0.12278562
129	0xbda1e370	-0.079047084
130	0x3d952bd2	0.07283749
131	0x3e1d7f3f	0.15380572
132	0x3cfa094c	0.030522011
133	0xbe2387fa	-0.1596984
134	0xbe0be21d	-0.13660474
135	0xbdb1707c	-0.08664033
136	0x3e00b99a	0.12570801
137	0x3e177fec	0.14794892
138	0xbd5b208d	-0.05349784
139	0xbc720398	-0.014771365
140	0xbe194c5a	-0.14970532
141	0x3e270130	0.16309047
142	0x3e0738a1	0.13205196
143	0xbde1a4e0	-0.110177755
144	0xbc12b492	-0.008954184
145	0xbd9f4089	-0.07775981
146	0xbe11b87f	-0.14230536
147	0xbce682f5	-0.028138617
148	0xbde7c6e3	-0.113172315
149	0xbd2ae41c	-0.04172145
150	0x3da50b57	0.080588035
151	0x3d61c59d	0.0551201
152	0x3dd8399a	0.105578616
153	0x3e04ce2f	0.12969278
154	0x3da2f4fd	0.07956884
155	0xbdbdcc51	-0.09267486
156	0xbc4712a1	-0.012150438
157	0xbe1a883e	-0.15091035
158	0xbe207310	-0.15668893
159	0x3e184c3d	0.14872833
160	0x3dfaddff	0.12249374
161	0xbdcefda6	-0.10106973
162	0x3e013e1b	0.12621348
163	0xbe160f28	-0.14654219
164	0x3e0eb99c	0.13937992
165	0x3de719a0	0.112841845
166	0x3d652846	0.05594661
167	0x3c3da393	0.011574644
168	0x3d45fcd5	0.048336823
169	0x3dc1a8a3	0.09455993
170	0x3d3bfe72	0.045896955
171	0x3dfaa209	0.12237937
172	0x3dbdf811	0.092758305
173	0x3de522af	0.11188256
174	0xbe18daab	-0.14927165
175	0xbde6348c	-0.11240491
176	0x3e2f450a	0.1711618
177	0x3e23b1a3	0.15985732
178	0xbd9d961b	-0.07694646
179	0xbdcab238	-0.09897274
180	0xbd748ee9	-0.059706602
181	0x3e23e5ea	0.16005674
182	0x3dc5a8aa	0.09651311
183	0x3da82b69	0.08211405
184	0xbde1c9ce	-0.11024819
185	0x3d7d061a	0.061773397
186	0x3d4e6ee6	0.05039873
187	0xbc0d9381	-0.008641125
188	0x3d3100c9	0.04321364
189	0xbdd41af9	-0.10356707
190	0xbe1c2cc2	-0.15251449
191	0x3dfb1cac	0.12261328
192	0xbbb1e2e3	-0.0054286583
193	0x3c4bba47	0.012434549
194	0x3e115bb5	0.1419514
195	0xbc8b2846	-0.016986977
196	0x3da72510	0.08161366
197	0x3cb44897	0.02200727
198	0xbd327373	-0.043567132
199	0x3d7b02d5	0.061281998
200	0xbdf3f723	-0.11912372
201	0x3e0c7ed8	0.13720262
202	0xbc5f94fe	-0.013646362
203	0xbc691a73	-0.014227497
204	0x3dfe37d9	0.12412996
205	0xbda6515c	-0.08120987
206	0x3e0a6436	0.1351479
207	0x3e184f99	0.14874114
208	0xbce29957	-0.027661009
209	0x3e10a2c7	0.14124595
210	0x3d1c3c9f	0.03814375
211	0x3caa026d	0.02075311
212	0x3bce22fe	0.0062907925
213	0xbdbf8b37	-0.09352725
214	0x3dff2d57	0.1245982
215	0xbd7ac19e	-0.061219804
216	0xbde2e62f	-0.1107906
217	0xbde7977c	-0.1130819
218	0x3dee9f12	0.11651434
219	0x3e126ee3	0.14300112
220	0xbd2a4953	-0.041573834
221	0xbe28024a	-0.16407123
222	0x3dfac7ff	0.122451775
223	0xbe2013d3	-0.15632562
224	0x3d887c3b	0.0666432
225	0xbd0a0792	-0.033698626
226	0x3e1a7b33	0.1508606
227	0x3d1cdecd	0.038298417
228	0x3dde2f6a	0.10848887
229	0x3d437bc2	0.047725447
230	0xbdcb9def	-0.09942233
231	0x3e0ccaff	0.13749312
232	0x3e230d3c	0.15923017
233	0xbd8b2f22	-0.06796099
234	0x3dde3aa4	0.108510286
235	0x3dbce825	0.092239656
236	0xbe103f42	-0.14086631
237	0x3cbfdd8d	0.023421073
238	0x3dbf6b26	0.09346609
239	0x3daebe2d	0.08532367
240	0x3d0679fa	0.03283117
241	0xbde94cf0	-0.11391628
242	0x3cf572ed	0.029962027
243	0x3df4ad21	0.11947084
244	0xbdfac4df	-0.122445814
245	0xbd2803f2	-0.041019388
246	0x3dcd2523	0.10016849
247	0x3dcc8747	0.099867396
248	0x3e26d2c5	0.1629134
249	0x3e14e102	0.14538959
250	0xbdbcddc8	-0.09221989
251	0xbd0cf02e	-0.03440874
252	0xbcf1b031	-0.02950296
253	0xbdd7761d	-0.10520575
254	0x3d59ec34	0.053203776
255	0xbddebbc1	-0.10875655
