autoencoders/lightning_logs/lstm/version_0/checkpoints/epoch=99-step=14699.ckpt (torch, 355300 bytes, 51 tensors)

encoder1.weight_ih_l0 f4 [144, 1]
00000000: 36bb b4bb 241a 873d 26ee b63d 113f 2a3e
00000010: 3ee3 01be 4060 633d 35ad fabd 12c7 a9bd
00000020: 791e dc3d 564a 30bc 005d 7ebc ac07 743d
00000030: 8766 d1bd b891 aa3d 5454 07be f56b be3d
00000040: bba9 063e 6bc0 06be 9cb6 db3b 668a 093c
00000050: 9dc0 083e e09e 6b3d da76 1bbe 1854 183e
00000060: 30dd 733d 56e8 eabd 7038 25be 44dd 0cbe
00000070: b6f1 b8bd 18bb cebc 840f ecbd 997f 273e
00000080: ddbc 9f3c 7898 3a3c 317a 1a3d ed3a 223e
00000090: 941a 59bc a8fa 083e cfde e6bd 2140 803d
000000a0: a5b6 5cbd 8de7 05be 40a7 03be a95c f4bd
000000b0: cdf0 ae3d c5ea 02be 49ce 0c3e f3b7 12bd
000000c0: d449 77bd e73c 2a3e 059a 063d e029 16be
000000d0: 4ef0 16be 51d2 263e 96cd 0a3e 1591 79bc
000000e0: b196 1d3d ebd1 0dbe 1ef4 b53d fa5a af3b
000000f0: 4494 f13d c897 1a3d 01ca 1a3c 1766 69bd
00000100: 2a32 b53d ede4 b5bc a35d 28be 4159 24be
00000110: 3176 823d 9466 8c3c fc9e 813d 836a 8c3d
00000120: 9448 153e ee18 f5bd 9a64 993c eccb 093d
00000130: 32f1 13be fd6f 28be 8bfd 25bd 67d6 8fbd
00000140: 999c a7bb b536 943c 549b 8fbd 5350 a43d
00000150: 30e2 043d 1788 1abd 6bb9 e53d e9f8 0dbd
00000160: 793e 5c3d 14c5 8fbd ae4c a3bc adf6 88bd
00000170: 9f74 003e 2074 423d a6d8 fdbd 06a7 01bc
00000180: 8094 22bd 0ca4 043d 1f75 523b b2ae 23be
00000190: a595 6dbd 578e 963d 4e23 a9bd 8498 ebbc
000001a0: 9bab 9ebd 85da 743d d629 10bd 75f3 1d3e
000001b0: 1403 28bc 6ad2 b6bc a94d b9bd ef6d 94bd
000001c0: c1e5 71bd f092 863c d8ec 61bd 1166 8b3d
000001d0: 0909 a73d c9c8 16be 1df3 863d 9847 ec3d
000001e0: 561d e43c e8b4 d83c 3a24 13be ff80 0dbb
000001f0: df54 27be e487 033a 5e93 3dbd c50f 153e
00000200: e926 1b3e 166f f1bd 7198 123e c610 edbd
00000210: 02bf 8b3b 00cc 26be b49d 78bc ddd2 693c
00000220: 2d4b ef3d deb1 bebd 0fb3 043e 071a 03be
00000230: e8d2 dabd 3ce8 6abd 61d3 08be 76b7 153e
-0.0055154813 0.06596783 0.08932142 0.1662562 -0.12684342 0.055511713 -0.12240068 -0.08289923
0.10748 -0.010759911 -0.015525103 0.05957763 -0.10224634 0.08328575 -0.13215762 0.09297935
0.13150685 -0.13159339 0.0067051183 0.008394813 0.13354726 0.057524562 -0.15182057 0.14875829
0.059537113 -0.11470096 -0.1613481 -0.13756281 -0.09030478 -0.025235698 -0.11526397 0.16357268
0.019499237 0.01138889 0.037714187 0.15842791 -0.013250966 0.13376868 -0.11272966 0.062622316
-0.05388512 -0.13076611 -0.1285677 -0.11931736 0.08542023 -0.1278487 0.13750567 -0.03581996
-0.060373142 0.16624795 0.03286173 -0.14664412 -0.14740106 0.16291167 0.13554987 -0.015232344
0.03847379 -0.13849609 0.08884452 0.0053514214 0.117958575 0.037742406 0.009447576 -0.056982126
0.08847459 -0.022203887 -0.1644197 -0.16049673 0.063701995 0.017138757 0.06329152 0.06856253
0.14578468 -0.119676456 0.018724728 0.03364174 -0.14447477 -0.1644897 -0.040525 -0.07023316
-0.0051151034 0.018092493 -0.07012048 0.08023133 0.03244227 -0.03772744 0.11217006 -0.034661207
0.053770516 -0.070200115 -0.019934025 -0.06687675 0.12544487 0.047474027 -0.12394838 -0.007913357
-0.039692402 0.03238301 0.0032113267 -0.1598461 -0.05800404 0.07351368 -0.08258687 -0.028759249
-0.07747575 0.05977871 -0.035196148 0.15424903 -0.01025464 -0.02231713 -0.090480156 -0.07247531
-0.059057 0.016427487 -0.055157512 0.06806577 0.0815602 -0.14725031 0.06589339 0.11537093
0.02784602 0.02645345 -0.14369288 -0.002159178 -0.1634097 0.00050175027 -0.04628312 0.14556797
0.15151562 -0.11788766 0.14315964 -0.11575465 0.0042647133 -0.16288757 -0.015174318 0.014271465
0.116842605 -0.09311269 0.1295893 -0.12802897 -0.106847584 -0.057350382 -0.13361885 0.14620766

encoder1.weight_hh_l0 f4 [144, 36]
00000000: 41ce 13be 690a b8bd b134 99bc 400c c93c
00000010: 3803 183e b271 023e 3435 483c f015 3cbd
00000020: e491 e53c d85d b83d 0446 58bd 4f8c 09bd
00000030: 3529 2cbd d7da af3d 5bf2 dfbb 870d c93d
00000040: 7d9e 85bd 2831 26bd 46d6 9d3d 88e1 4cbd
00000050: f04d 2ebd cbae ac3d 1072 f63d e0c9 11bd
00000060: 35b9 e3bd be90 0d3e 1a34 82bc 139d 96bd
00000070: d49b dbbd d619 073e e2b0 2d3c 643b 0fbd
00000080: 0333 1ebe 7bb4 2abd 97fe 023b 467e c53d
00000090: 8795 8e3d da7f 1a3d 84a6 00be 9138 863d
000000a0: bd91 b43d 4fff 763d dce4 03bd 4dbe ea3c
000000b0: c767 78bd 8834 013e 416a 8ebd 9492 423d
000000c0: 12b5 82bd 8dc6 043e 9f25 1c3e f382 d73c
000000d0: e5b9 07be 2596 d2bd 56c8 933d 804d 09be
000000e0: 78f4 e1bd 4c71 e23d 198c f8bc ea4d 1d3e
000000f0: e5f1 7e3d f6fd 9e3b bfae 173d 0e43 1fbe
00000100: 84a5 803c a10a a2bd e2ad 9b3d 186b 6c3d
00000110: bdd7 26be 6758 273e 3809 70bc 0870 ee3d
00000120: df94 e6bd b060 973d 4bfa ffbd 5844 203e
00000130: 05d4 0dbe 5342 24be c250 debd fb74 073e
00000140: d84b 033d 47f4 293e 3e5f d63d 7003 033d
00000150: d492 abbd cb8e b6bd 0332 f73c 90d3 f8bc
00000160: b792 b23d 5543 0b3d 38fe 813c 3079 28bd
00000170: 98f8 bd3c c89e b5bc 04ae cdbd 6099 e8bd
00000180: de2d 7d3d be10 2b3c 8f5b 033e ef65 8f3d
00000190: bcd5 9c3d d9be ad3d cd38 d5bd 70f0 033d
000001a0: 691f a23d d679 403d e5db 943c 74fe ee3d
000001b0: 9ecb 293d 6876 02be 1e91 f83d a911 213e
000001c0: 90cc 04bd 4995 ccbd 34c3 963d ef12 10be
000001d0: ace3 58bd 7bff 0dbe 49d9 053e ee5a 22be
000001e0: aeb1 103d 32c9 813d 3bce 27be 4da6 3dbb
000001f0: 1d50 09be 4e00 9e3b 6975 253e 810c d8bc
00000200: 74c3 ebbd cf20 913d a1c2 9d3d 8795 11bb
00000210: 31d3 cebd 6ffd f43d 1665 113d f540 94bd
00000220: 9c37 433d 21c2 16bd 0342 dabd e73c fbbd
00000230: 7e3b 7bbd 826a 0fbd 814a ab3d a1c2 ae3c
00000240: ca12 ec3c 8f1f 1a3e 821e 22be 641f 11be
00000250: b9be da3c 42c4 a73d 79e1 a33d d2d7 23be
00000260: 399c 55bc 8a86 0fbd f8e4 ab3d 7f62 20be
00000270: 5604 873d 9c4e 93bd 8238 013d 80be 3abd
00000280: 63a7 643c ab0e b73d 43a9 9ebd 3a71 b3bd
00000290: e50e 08be 9d9c d9bd 082b 443d 402c 0fbd
000002a0: c27f 7fbd 46b5 cdbd 5997 86bb 0598 00be
000002b0: 7b5f e2bd 0e13 ebbd 0ccd 15be 4175 033e
000002c0: 5158 173d 95f8 96bd a3f2 f33c 0982 e53d
000002d0: a3c0 26be e1a2 e43d 8814 0a3e d16f 443c
000002e0: d6dc 8cbb 6802 823d 6570 543d 9e7b 1abb
000002f0: 671b 203e d631 1fbe b4b7 f83d 00af 143d
00000300: 2a76 363c 82df 1c3e e78f 033e 36eb 1bbe
00000310: 3212 2abd 6c20 c7ba 6177 293e c21f 173e
00000320: 5404 2bbe 5030 81bc 561a d83c b178 dfbc
00000330: 900a 273b 7fe5 08be 1135 4abd 265a c5bc
00000340: 4bcd e33c fff6 ddbd 8ac4 1e3d 6917 94bd
00000350: afb6 c53c c5e1 77bd 8d98 24be 05bb 363c
00000360: 77d9 f73d bea0 1f3e ead1 08be f6d6 9b3c
00000370: d59e d83c 4554 94bc 839a 04be 20ac 9f3d
00000380: b50a d9bd 4746 16be 38e7 c0bd 2348 163e
00000390: fcb3 c83d f021 1c3e 12dc 603d b844 90bd
000003a0: 9dc9 ee3d 737c f63d be04 25be 4aef 76bb
000003b0: cd9b bf3d 26e6 eebd 358b 3cbc fa63 0a3e
000003c0: 3cd9 023e 5fba 0b3e 2c7a d33d 094a 19be
000003d0: b189 22be 8fa5 0a3d c347 5d3c 69d4 ecbd
000003e0: 8938 0e3e 3c00 ecbd 67f3 643c 546f 573d
000003f0: 69ba 293d bf02 e0bd 6774 1e3e b553 12be
-0.14434148 -0.089863606 -0.018701883 0.024541974 0.14844978 0.12738684 0.012219716 -0.04591936
0.028023668 0.09002274 -0.052801147 -0.033581074 -0.042031486 0.08586662 -0.006834311 0.09817033
-0.0652437 -0.040574223 0.07706885 -0.05001977 -0.042554796 0.084317766 0.120334744 -0.035592914
-0.1111931 0.13824746 -0.015893985 -0.07354178 -0.10723081 0.1319345 0.010601254 -0.03496875
-0.15449147 -0.041676026 0.0019988173 0.09643225 0.06962114 0.037719585 -0.1256352 0.06553758
0.0881686 0.060302075 -0.03220068 0.028655196 -0.060645845 0.12617695 -0.0695386 0.04750307
-0.06382193 0.12966366 0.15248726 0.026307559 -0.13254507 -0.10282544 0.072159454 -0.1340847
-0.11032957 0.11056766 -0.030340241 0.15361753 0.062242407 0.004852052 0.037031885 -0.15552923
0.015703924 -0.079121836 0.07601525 0.05771932 -0.16293235 0.16342317 -0.014650635 0.11642462
-0.11258864 0.073914886 -0.124989115 0.15651071 -0.1385041 -0.16040926 -0.10855247 0.13228218
0.032054752 0.1659709 0.10467385 0.0319857 -0.083776146 -0.08913954 0.030175215 -0.030374318
0.0871939 0.03399976 0.015868291 -0.0411312 0.023189828 -0.02217044 -0.100429565 -0.11357379
0.06181132 0.010441003 0.12827896 0.07001864 0.07657954 0.08483667 -0.104112245 0.03221172
0.07916147 0.04699119 0.01817126 0.11669627 0.04145395 -0.12740481 0.12137054 0.15729393
-0.03242165 -0.099894114 0.07361451 -0.14069723 -0.0529515 -0.1386699 0.13071169 -0.15855
0.0353257 0.06337203 -0.16387264 -0.0028938234 -0.13409467 0.0048218137 0.1615807 -0.02637315
-0.11511889 0.07086336 0.07703138 -0.002221437 -0.10098875 0.11962401 0.035496794 -0.07238952
0.047660455 -0.03680623 -0.10657122 -0.122674756 -0.061336033 -0.035013683 0.0836382 0.02133304
0.028817553 0.15051101 -0.1583195 -0.14172131 0.026702272 0.0819173 0.0800199 -0.16000298
-0.013037735 -0.035040416 0.08393282 -0.15662573 0.06592624 -0.07192728 0.03154803 -0.04559183
0.013955924 0.089383446 -0.07747128 -0.08761831 -0.13286932 -0.10625575 0.0478926 -0.03495431
-0.0623777 -0.10044341 -0.0041073975 -0.12557991 -0.11053368 -0.11478244 -0.14629 0.12837698
0.03694946 -0.07371632 0.029778784 0.11206443 -0.16284423 0.11163879 0.13484395 0.01198955
-0.0042987866 0.06348115 0.051865 -0.0023572217 0.15635453 -0.15546355 0.121444136 0.036299706
0.011136571 0.15319636 0.12847863 -0.15226445 -0.04152126 -0.0015192158 0.16549446 0.14758208
-0.1670087 -0.015770108 0.026379745 -0.02727923 0.0025488473 -0.13368796 -0.049367014 -0.024090838
0.027807852 -0.108381264 0.038761653 -0.07231028 0.024134962 -0.060518045 -0.16073819 0.011152987
0.12102025 0.15588662 -0.13361326 0.0190234 0.026442925 -0.01810659 -0.12949567 0.07796502
-0.10597745 -0.14675246 -0.094191015 0.14675955 0.09799954 0.15247321 0.054897375 -0.07044357
0.116595484 0.120354556 -0.1611509 -0.0037679248 0.093558885 -0.11664991 -0.011507799 0.135147
0.12778181 0.13645314 0.10326037 -0.14969648 -0.15872838 0.033849295 0.013505879 -0.115639515
0.13888754 -0.11523482 0.013974047 0.052596405 0.04143754 -0.10938024 0.15474091 -0.14289744

encoder1.bias_ih_l0 f4 [144]
00000000: b60d 013e dcad 49bd e06c 1abd eee5 72ba
00000010: 0ae0 84bb 9e30 783d 90ca edbd ff31 14be
00000020: 1411 0bbe ce53 903d 0529 6c3d 52af 29be
00000030: f314 aabd 4fd1 bdbd 4fdd 1bbe 712f c53d
00000040: 0902 373c 5aec dabd 93f7 253e 62ce a53d
00000050: 89e8 11be 00e6 e13d 0cfb 263e f68b edbd
00000060: 0c81 82bd 6fda 103e 2067 acbd 243b d0bc
00000070: 1054 983c 8383 203e 49f2 9c3d 3b0f 2c3b
00000080: 97e3 5bbd 9c52 6abd bdbf 143e 306d 4ebd
00000090: 7880 03be 2cca d33d 2138 1d3e cf3b 893d
000000a0: eb1b 5dbd 541e d2bc 58c0 b23d 2841 253e
000000b0: 9b14 153c 776e a6bd 5820 053e a4ca 68bd
000000c0: dc52 f83d 2055 023e f7af 0c3e 8b00 dbbd
000000d0: 7d8e ba3d 27fb 473d f4cd ecbd 98a4 1f3e
000000e0: 1d1b b0bd c037 1a3e 324a 1f3e 88de 943d
000000f0: f029 053e b0ab 33bc f3ed 54bc 3ca5 b4bd
00000100: d69b 5f3d 2df5 923d 44f1 1bbe 5882 d93d
00000110: b0f8 0b3c 6a5a 363d 1de8 af3d 2e0b 9fbd
00000120: 8973 11be 861c 83bd df12 6c3d 3072 903d
00000130: cf11 2f3d d395 fd3d e6af c9bd f173 cb3c
00000140: 01e1 67bd 01c8 29bd 4002 f9bd 0703 19be
00000150: ef31 8bbc 5eec 9c3c 0423 223e 1da8 cdbd
00000160: eb50 a0bd 02ff 923d 41ad e33d 9625 b7bd
00000170: 88fa eb3d a54e 13bd 9e9e cc3d 46e0 2e3d
00000180: 2350 c73d 45f5 a3bd 08ab a6bd a357 1dbe
00000190: 9cc5 88bc f7f3 163e b0d9 0e3e ded2 1abe
000001a0: deed b5bd 15fa 633d 67a2 703d 4684 e23d
000001b0: dfe5 76bd 2a39 6b3d a069 683d ec9b ea3d
000001c0: e5e2 45bd 0c6f bb3a b2b6 80bc 5e0d 06be
000001d0: d0d6 82bd c2fb 8ebd 2e06 68bd c7f9 06be
000001e0: 00c9 de3c c830 10be 5a19 24bd 9c3e d2bd
000001f0: 33cd d0bb 1f0b 29bd df3e d7bd 7a9c 1dbe
00000200: 5e5f 02be 92a6 123e a384 c1bd 1e86 c2bd
00000210: eb99 ce3d 195d 133e b42a 6c3d ce2b 03be
00000220: 43b4 3a3d 9fd7 993d 98e2 5b3c 0231 ecbc
00000230: fff0 9bbc cf42 25be 7c6a c5bd ac6c a63d
0.12602887 -0.04923807 -0.037701488 -0.00092658296 -0.004055028 0.06059324 -0.11610901 -0.14472197
-0.13580734 0.070472345 0.057656307 -0.16570786 -0.08304777 -0.09268438 -0.15221141 0.09628189
0.011169919 -0.10689612 0.16207723 0.08096005 -0.14248861 0.11030197 0.16306704 -0.11598961
-0.0637227 0.14145826 -0.08418107 -0.025418825 0.018594772 0.15675168 0.076634 0.0026254195
-0.053683843 -0.05720769 0.14526267 -0.050397098 -0.12841976 0.103412956 0.15353443 0.06700861
-0.053981703 -0.025649227 0.08728093 0.16138136 0.009099151 -0.08126538 0.1300062 -0.05683388
0.12125179 0.12727785 0.13739 -0.10693463 0.09109209 0.048823502 -0.1156272 0.15590131
-0.085989214 0.1506033 0.15555647 0.07269007 0.13004279 -0.010966226 -0.012996185 -0.088205785
0.054591976 0.0717567 -0.15228754 0.10620564 0.008543178 0.04451982 0.08589194 -0.07765804
-0.1420423 -0.06401925 0.057635184 0.070530295 0.042741593 0.12382092 -0.09848003 0.024835559
-0.056611065 -0.041450504 -0.12158632 -0.14942561 -0.016991584 0.019155677 0.1583367 -0.10041831
-0.07827934 0.07177545 0.1111703 -0.08942716 0.115223944 -0.035963673 0.09991191 0.042694353
0.09732082 -0.08005766 -0.0813809 -0.15365462 -0.01669579 0.14741503 0.13950229 -0.15119502
-0.0888326 0.05565842 0.05874863 0.110603854 -0.060277816 0.057427563 0.056741357 0.11455521
-0.048312087 0.0014300062 -0.015712116 -0.13091037 -0.063886285 -0.06981613 -0.05664652 -0.1318122
0.027195454 -0.14081109 -0.04006324 -0.10265848 -0.006372118 -0.04127037 -0.105100386 -0.15391722
-0.12731692 0.14321354 -0.094491266 -0.09498237 0.10087951 0.14390983 0.057657912 -0.12809679
0.045582067 0.075118296 0.013420723 -0.028831962 -0.019035814 -0.16138767 -0.09639451 0.08126196

encoder1.bias_hh_l0 f4 [144]
00000000: 5395 b6bb 5b8d a5bd e0f1 6e3d d50c e4bd
00000010: ee6c d63d 4496 ccbd 02bc e23d 9eec f9bd
00000020: e93c 00be 0847 e63d 85bb dcbd 0492 57bd
00000030: 8d05 25bd f912 eebd 5c58 ea39 6173 9e3d
00000040: b02a 7c3b 40c1 89bd b368 183e fa92 80bd
00000050: efe2 04bd 429c a0bd 162c 70bd bea7 28bd
00000060: 0752 07be 43eb 513d 62f0 b9bd c931 1b3e
00000070: 5257 58bd e3ee 963d 55ff c63d adbc 733d
00000080: 05f2 82bd 9ca5 7cbd f872 f7bd 0f99 9d3c
00000090: a9ae 013e 2985 93bd 1b8c 80bd 13c3 7abd
000000a0: 8b23 15be 7610 cf3d 3b84 21bd 672a 28be
000000b0: d2b2 a6bc 82f2 9cbd 661b 1ebb 346e f53d
000000c0: b07d d33d 13e7 bb3d 2d36 10bd 0390 d7bd
000000d0: cf8b 19bd 644d f9bd c935 c1bc be6f d43d
000000e0: 9200 03be ba34 57bc 7f74 393c c68f 9cbd
000000f0: 07dd 8f3d 3cf2 583d a9ef 07be ff46 0fbe
00000100: b691 b2bd 8bfa 8bbd d1d0 46bd 24c0 6f3d
00000110: 44b8 043c af32 2d3e af43 743d 3682 c3bd
00000120: ba20 eebd 10c3 bebd d1f7 04bd f50d 083e
00000130: 3301 33bd b019 96bd 7952 dabd 04b2 f13d
00000140: 2c2d 9fbd 81f8 983c 2e57 85bd 7fb7 48bc
00000150: 1504 873a f08a 1bbd 9215 ed3d 4069 f6bd
00000160: b3e0 54bd 1ae6 973d 0b37 0abe 8830 9bbd
00000170: 07d6 a73c c7ec 04be 5d7b 69bd 3345 e0bd
00000180: 42a3 06be 0076 013e 3a61 d33d 0c43 9d3d
00000190: 5e00 1f3e 4174 d5bd bf3e 653d 32bf 2f3d
000001a0: 4e73 1a3e 1945 223e cbf4 f2bd 52a9 0c3d
000001b0: 075d 063e fd14 1dbe 86fe 1b3e 0c13 d03d
000001c0: 2cf2 03be 00dd d3bd 75eb 133e c499 00be
000001d0: 7868 223d b826 703d e8f8 053d e268 1a3d
000001e0: 29ae f5bd 84ff ec3d 3f28 803d 8fad 8bbd
000001f0: ecc4 21be 1fdf 26be 0696 df3d a264 acbd
00000200: 0ea1 be3c b0da 183e ebd4 293c 0679 e63c
00000210: 7520 a23d 7f47 c0bc dcf9 5c3d 84ff d13c
00000220: fa53 d0bc 6b02 00be eba1 aabd d584 a0bc
00000230: b920 cbbd 7940 943d 8945 e0bd a219 1cbe
-0.005572 -0.08083602 0.05833614 -0.1113526 0.104699954 -0.099895984 0.11071016 -0.12203334
-0.12523235 0.11244017 -0.10777954 -0.052629486 -0.040288497 -0.116247125 0.0004469779 0.077368505
0.0038477592 -0.06726313 0.1488369 -0.062780336 -0.032442983 -0.07842304 -0.058635794 -0.041175596
-0.13214885 0.051249754 -0.090790525 0.1515571 -0.05281765 0.07369783 0.097166695 0.059506107
-0.06393818 -0.061681375 -0.120824754 0.019238023 0.12664284 -0.07203133 -0.06276723 -0.061221194
-0.1456434 0.101105615 -0.039432745 -0.16422425 -0.02034894 -0.07663442 -0.0024125217 0.1198391
0.10326707 0.09174933 -0.035207916 -0.10525515 -0.037486847 -0.12172964 -0.023585217 0.10372876
-0.12793186 -0.01313513 0.011319279 -0.0764461 0.070245795 0.052965388 -0.13275017 -0.13991927
-0.087191984 -0.06834897 -0.048538987 0.05853285 0.008100573 0.16913866 0.05963486 -0.0954632
-0.11627336 -0.09314549 -0.0324629 0.13286574 -0.043702316 -0.07329118 -0.10660262 0.11801532
-0.07772288 0.018673183 -0.06510769 -0.01225078 0.0010300899 -0.037974298 0.1157638 -0.120317936
-0.051972102 0.07416935 -0.1349756 -0.07577616 0.020487798 -0.12980948 -0.057002414 -0.10950699
-0.13148215 0.1264267 0.10321279 0.07678804 0.15527484 -0.10422564 0.055968042 0.042906947
0.15083048 0.15846671 -0.11863097 0.034341164 0.13121425 -0.15340038 0.15233812 0.10159883
-0.1288535 -0.10344887 0.14445288 -0.12558657 0.03965041 0.058630675 0.03270808 0.03769768
-0.11996109 0.11572173 0.06257676 -0.06820213 -0.15797776 -0.16296051 0.109172866 -0.08417632
0.023270156 0.14927173 0.010365705 0.02813388 0.07916347 -0.023471592 0.053949222 0.025634535
-0.025430668 -0.12500922 -0.08331665 -0.01959459 -0.09918351 0.0723886 -0.10950763 -0.15244153

encoder2.weight_ih_l0 f4 [72, 36]
00000000: 997d e8bb 73c6 f9bc a6ad 15bd 247f 53be
00000010: 42e7 b4bd 18e1 44be 2ed5 55be d40f 313d
00000020: a62a 413e d3c7 0ebd 5aba 75bb ef9b 2f3e
00000030: b486 4dbe 4d81 56be 7ee0 4cbd c0f1 5cbd
00000040: a512 00be 6a53 2d3e 046e 5fbe 7fa2 54be
00000050: 20f8 05be 62d9 09be 407d ae3d f184 05bd
00000060: 9c5c 2d3e 2878 fc3b 7778 5a3e c274 69be
00000070: 9126 a63d 8bae 0b3e a7fa 4ebd ef9b 3a3e
00000080: da63 9f3d 8ca0 663e 554c e1bd 7c1a 0fbe
00000090: 145e 183d e7cd b63d 06e3 573e 11cc 18be
000000a0: b118 703c 46d2 4139 c468 4abe 0088 ffbd
000000b0: 4f82 7dbc 39f9 34bd 58e8 953d e70e 7fbd
000000c0: 6d9e 053e 85f2 70bd 0e99 ccb9 97b6 4a3e
000000d0: 161a aa3d 5ea2 71be b5a2 37be beb5 903d
000000e0: bfce 2bbe 3b9f 803d 01aa 08be 6adf 44be
000000f0: 0b8e a83d ba2f 9f3c 332b f6bd d1bc 2a3e
00000100: ec5c b83c 2886 0c3e 4761 f8bd d003 483c
00000110: 5ba9 853d 7f0f 333e cd8b 173e 9bef ac3d
00000120: 9d3a cd3c de6d 3d3e f5aa a0bd 35e6 14be
00000130: ac29 0e3e 7e39 acbd 0fdc e6bd c836 c53d
00000140: fe14 423e cb5f e4bc 96dd 3cbd 8893 e43d
00000150: 2317 4cbe 62d8 623e 81b8 1ebe 993d 993d
00000160: d00a 70be 8aee d2bd 77ba a3bc a9e0 22be
00000170: ea70 26be 0bcb d93d b2c6 463e 27e5 193e
00000180: cc86 02bc 0d49 63bd 0a02 533d 424b b93d
00000190: fcf8 6bbe cdb6 5cbe 6754 f8bd 97b4 fcbc
000001a0: 95a8 f23d 9e8f 283e 6259 b8bd 5390 4ebe
000001b0: 3628 47be a777 2dbd c6b7 3bbd e0f3 c4bd
000001c0: 62d5 bd3d 447d 47be 24af 46be dd63 8fbd
000001d0: 8b76 6bbe a6c3 1ebe bd1d 03be c899 05be
000001e0: 3a3c 383e f7c3 0e3e a922 94bd 7aae 803d
000001f0: 1069 e8bc 376c 92bd 79a4 3f3e b102 6f3e
00000200: e30a 07be 7cc4 473e 8d26 493c 3342 43be
00000210: e169 2b3e d17f 5dbe 55b0 2dbe eb39 fd3d
00000220: 64b8 3bbe 121b 24be 99f2 7ebb 27f1 56be
00000230: f79b 25bd b8a7 02bc 5b02 21bc 8c69 20be
00000240: 18db 6cbe b8e5 78bd 7a3c 213e ea91 53be
00000250: 10b9 493e 87d6 17be eb86 1ebc ea32 563e
00000260: 163c f63d 026b 213e 2b99 98bd 9eca f1bd
00000270: 06b0 ce3d cfd5 9b3d a4a5 e9bc fd4b ed3d
00000280: 87fc 07be 0938 01be a8c0 e7bd 32ee 5cbe
00000290: bd8b 4a3d 5971 5bbe ee9d abbd d7b9 a03d
000002a0: a94e 53bd 538a 343e d8b1 3bbe ec7b 3c3e
000002b0: 205c 26bc 4de4 d3bd 6c8b 5fbe bdc5 cdbd
000002c0: cd64 3f3e 84c0 7d3d 8de4 49be 8b74 6cbd
000002d0: 2e20 c4bd 1405 c8bd 8ff6 b6bd d6d5 a93d
000002e0: 496a 8dbc 2879 40be a337 0ebe 6ef2 af3c
000002f0: ecce 023d 867d 33bd 7470 883d 8e57 0cbe
00000300: 8f3b 483e a01f 60bd 866e 30bc 071c 17be
00000310: f106 c33d eeb1 68bc f01c 8ebd 2ddf 043e
00000320: d8fa 043c b539 193d 32de 9c3d 8024 22be
00000330: 9854 55be cab3 093e 63f2 b5bd 51cd c0bd
00000340: 8f26 c1bd a7ae 013e cbf8 47be 565a d33d
00000350: e8c2 473d 7ef0 403d f496 4b3e d803 a43d
00000360: 4081 7b3d 5a53 7e3d d267 213e 65fe 573e
00000370: 180d 4f3e 510f bdbd e9dd 56bd f44c 2fbe
00000380: e7c1 24bd b57d dc3d 5c33 df3d 4301 f2bd
00000390: 7c81 563e 3676 ba3c d768 033e 0fac f2bd
000003a0: 8edf 9cbd 6746 ed3c 3bfb 65bd 9684 3e3d
000003b0: eae1 4d3e c7b5 5a3d 509f d73d 3aaa 39be
000003c0: 3a6c 493e 969a 4c3e fd24 11be 47bd 4abe
000003d0: 7a0f 19be d29d c23d 3e66 f9bc 1cad 98bd
000003e0: 8058 acbc 3729 953a b1eb 243e 0795 373c
000003f0: 000a 5d3e f953 9ebc c126 c8bc e04e cebb
-0.0070950505 -0.030490136 -0.036542557 -0.20653969 -0.088331714 -0.19226491 -0.20882103 0.043227986
0.18863925 -0.034858536 -0.0037495107 0.17149328 -0.20070916 -0.20947762 -0.05001878 -0.05394149
-0.12507112 0.16926351 -0.21819311 -0.20765112 -0.13082933 -0.13461831 0.08519983 -0.032597486
0.16929859 0.0077047534 0.21335016 -0.22798446 0.08112825 0.13640802 -0.05053201 0.18223546
0.07782717 0.22522181 -0.11000887 -0.13974947 0.037199095 0.089259915 0.21082696 -0.14921595
0.014654324 0.00018484247 -0.19766527 -0.12477112 -0.0154729625 -0.04418299 0.07319707 -0.06227007
0.13048716 -0.058825035 -0.00039023947 0.19796215 0.08305757 -0.23597094 -0.17933162 0.070659146
-0.16778086 0.06280371 -0.13346101 -0.1922585 0.082302175 0.019431937 -0.12019958 0.1667359
0.022505246 0.13723052 -0.12127929 0.01220794 0.065264426 0.1748638 0.14799424 0.084441386
0.025052363 0.18498942 -0.078451075 -0.14540942 0.13883084 -0.08409403 -0.112724416 0.09629589
0.1895332 -0.027877709 -0.04610976 0.11160952 -0.19930701 0.22152856 -0.1550007 0.07482452
-0.23441625 -0.10299404 -0.019986374 -0.15906014 -0.16254011 0.106344305 0.19411734 0.15028821
-0.007966708 -0.05548959 0.051515616 0.090475574 -0.23044199 -0.21554108 -0.121254735 -0.03084783
0.11848561 0.16461036 -0.090014234 -0.20172243 -0.19448933 -0.042350437 -0.045829557 -0.09616828
0.09269215 -0.19481379 -0.19402748 -0.07001469 -0.2299444 -0.15504321 -0.12804313 -0.13046944
0.17991725 0.13941942 -0.072331734 0.06283279 -0.02837041 -0.071495466 0.18715085 0.2334087
-0.13187747 0.19508547 0.012277258 -0.19068222 0.16739608 -0.2163079 -0.16961797 0.123645626
-0.18332058 -0.16025952 -0.0038901924 -0.2099043 -0.040431943 -0.007974558 -0.009827222 -0.15665263
-0.23130453 -0.060765952 0.15745726 -0.2066113 0.19699502 -0.1482793 -0.009675722 0.2091786
0.12023179 0.15763476 -0.074510895 -0.11806224 0.100921676 0.0760914 -0.028521366 0.11586759
-0.13279925 -0.12619032 -0.11316043 -0.2157524 0.04944967 -0.21429957 -0.08379732 0.07847946
-0.051588688 0.17630892 -0.18329561 0.18406647 -0.0101538 -0.10346279 -0.21830529 -0.10047481
0.18690796 0.061951175 -0.19716091 -0.05772833 -0.0957645 -0.097665936 -0.08933746 0.08292739
-0.017262595 -0.18796217 -0.13888411 0.021477904 0.031935617 -0.04382088 0.06662074 -0.13705274
0.1955397 -0.05471766 -0.010768538 -0.14756785 0.09522808 -0.014202578 -0.06939113 0.1297576
0.008116446 0.03740855 0.07659568 -0.15834236 -0.20833051 0.1344749 -0.08884122 -0.09414161
-0.094311826 0.12664281 -0.195285 0.103199646 0.04876986 0.04710435 0.19881803 0.08008546
0.06140256 0.06209121 0.1576226 0.21093138 0.20219839 -0.09231437 -0.052457724 -0.17119199
-0.040223982 0.10766164 0.10898468 -0.11816647 0.20947832 0.022761445 0.12832962 -0.11849224
-0.07659827 0.028964235 -0.056147795 0.046513163 0.2010571 0.053396013 0.10528433 -0.18131343
0.19670191 0.19980845 -0.14174266 -0.19798766 -0.1494731 0.09502758 -0.03044426 -0.07454893
-0.021038294 0.0011380081 0.16105534 0.0112049645 0.21585846 -0.01932715 -0.024432542 -0.0062960237

encoder2.weight_hh_l0 f4 [72, 18]
00000000: a7d9 db3d 5bed 45be b5e9 a3bd 4dca 6a3e
00000010: cf78 083d a9c8 383e 01db 17be c7c6 81bc
00000020: 1357 4cbd 0049 96bb 411a 113e a347 5c3c
00000030: f98b 97bc 7bd0 42be 74ae debd b3e0 06be
00000040: 1dfc 37be 51eb bc3d bd25 0f3e a580 94bd
00000050: 56e9 21bd 247f 273c 7cca 38be 7657 233d
00000060: 02d9 2fbe aacc 633e 9a80 b1bd dba1 213e
00000070: 08d4 14bd d661 ffbd 8b58 3bbe 8ec6 413d
00000080: 70ba cabd b586 18b8 1703 bb3d d01e 76bd
00000090: 6c30 98bd a0ed 12be 0a40 1b3e 1d3e b8bc
000000a0: f847 393d a385 cabb 4697 cd3d cadb fd3c
000000b0: 1aa0 aa3d 49d7 293e 2f08 583e 5fb5 463e
000000c0: 2fe7 cf3c 382a 433e c476 5ebe beea 963c
000000d0: d939 30be 849f 7f3d b23d 37bd b224 babd
000000e0: 762d 17be 8786 69be 4d22 65be d576 94bd
000000f0: 9bbf ec3d 85df 303c 04a7 8b3d ad5f 2a3e
00000100: 82bd 63be 7472 263c 7da9 4e3e 7759 063d
00000110: bb88 ec3d 00a5 003e 9f8b 4abe b4c5 a5bd
00000120: d35a 993d 2b2a 403e e641 743d ec26 0a3e
00000130: d350 99bd de54 25bd 458d 9ebd 149e 41be
00000140: ea3d af3d f02e 00be 2eaa 51bc c48b bc3d
00000150: 211d 03be a673 1d3d 0dfe fa3c 8ea8 9e3d
00000160: 216e a9bd 7907 b1bd 2b1c 053e 9ad9 a43d
00000170: c512 533e 25a0 aa3d 695c cb3d 7427 a1bd
00000180: f542 abbc b785 0ebe ef26 f73d a17a 133e
00000190: b656 ce3d a1b2 233e 2c10 81bd 0da9 0cbd
000001a0: ebeb 9a3d 3f33 173e 4552 4a3e 75f4 673e
000001b0: cfd9 3b3e 5803 5b3e 0df0 8b3d 3dc7 9dbb
000001c0: aff8 133e 46af 973d 2f11 2fbc 5352 20be
000001d0: 827a a1bd 8954 43be ebb5 303e 9643 963d
000001e0: 0243 5dbe 1522 b63d 16c3 5b3e 7b6c 3bbe
000001f0: 04b1 9f3c ae83 143d acd9 593d cabc 0b3e
00000200: 5e1c 4c3e 55e1 30be f41d 633e d930 013e
00000210: b3a4 0abe f585 4d3e e781 0c3e 91c9 0e3e
00000220: de12 cf3d 3b5f 913d 8ab6 d2bc 2e9c 333e
00000230: 79d4 2b3d ddd3 433e 4271 b13c 39f1 99bb
00000240: 347a 50be 6493 33be 1019 75bc 858c 8abd
00000250: 7710 43be 202d a23d 5695 eebd 4d1f e03d
00000260: 7e10 6e3d e2af 66be 24d8 513d 10fb 57bd
00000270: 2f4e 3fbe 8422 223d 355c 15be e1d4 bfbd
00000280: 9b08 27be 1cbe 10be 5c63 213e 0465 6fbe
00000290: 884f 2b3d 81d9 833d 0ea4 b5bd 4356 b33d
000002a0: 6163 4bbe d39e 93bd eb4d 15be f1d4 163c
000002b0: 44c2 e4bd 980b f33d 805b 2fbd 5b76 2bbe
000002c0: 90b4 9ebd 0db7 d63c 5692 5fbe bddf 1b3e
000002d0: 7dcc f53d 5cc4 da3d aa25 48bd ece0 3bbe
000002e0: 121c 0ebd 33a8 e7bc 0b42 cdbc fb3f 83bd
000002f0: 2d82 6abe b70e 17be 4f3e 693e f857 063e
00000300: 3c4e 3b3d 6124 f5bd c3bc 04bd 2398 1d3e
00000310: d250 2bbe 9f94 a73c 771f 2ebe 203a 53be
00000320: 776b 143e 0288 6dbe d3b5 dbbd 4e7d 3bbe
00000330: 63ce 813d 5a44 5e3e ad68 913b fdad a33d
00000340: 4b0e b4bc e9b8 843d fd73 24be ad88 2d3d
00000350: 8f14 d7bd deb5 693e 81a8 b9bd 4751 4dbd
00000360: dce9 4dbe 9364 0abd 18ab 193e 7d61 453e
00000370: b463 2e3e 84a4 3b3e eb95 03bc de78 603e
00000380: f1ae cebc 4b78 643d 9c60 e1bd 3823 95bd
00000390: 623d 8abc 633e 063e e7df a33c 613c dc3d
000003a0: a597 173a 12b8 55be 072e abbd c07a 17be
000003b0: 3a73 ddbc f90d ed3d bd30 56bd 1660 f7bd
000003c0: c3d8 77bd b04b 9f3d ed1d 26bd a422 883d
000003d0: 5a32 5abd 86a7 ecbb bac7 593d f0ef f4bd
000003e0: 2fc9 103e 86fb ab3c 09e7 debd eabd 43be
000003f0: 964d 26be 0214 d43d a882 d93d 73d4 4cbe
0.10734873 -0.19328825 -0.080035605 0.22928734 0.033318337 0.18045296 -0.14829637 -0.015841855
-0.049887728 -0.004586339 0.14170171 0.013444814 -0.018499361 -0.19024841 -0.10873118 -0.13171653
-0.17967267 0.092245705 0.1397924 -0.072510995 -0.039529167 0.010223184 -0.18045992 0.03987833
-0.17172626 0.22246042 -0.08667107 0.15784399 -0.03633502 -0.124698326 -0.18295495 0.047308497
-0.098988414 -3.636508e-05 0.09131449 -0.06008798 -0.07431111 -0.14348459 0.15161148 -0.022490555
0.04523465 -0.0061804815 0.10038619 0.030988593 0.08331318 0.16586031 0.21096872 0.19405125
0.025378792 0.19059074 -0.21724993 0.01842248 -0.17209567 0.062407985 -0.04473657 -0.0908903
-0.14763436 -0.22805224 -0.22376366 -0.07249228 0.11559983 0.010795479 0.06818965 0.1663806
-0.2224026 0.010159124 0.20181842 0.032800164 0.11549517 0.12562943 -0.19779824 -0.080943495
0.074880265 0.18766086 0.05963316 0.1349141 -0.07486119 -0.04036414 -0.07741789 -0.18907958
0.08556731 -0.12517905 -0.012796922 0.09206346 -0.1280408 0.03844037 0.030638719 0.07746993
-0.082729585 -0.086440034 0.12999026 0.08049317 0.20612629 0.083313264 0.09929735 -0.07868853
-0.020905951 -0.13918196 0.12067973 0.14402248 0.100751325 0.1598611 -0.06301913 -0.034340907
0.07564529 0.14765643 0.19757946 0.22651847 0.18344806 0.21387994 0.068328954 -0.004815011
0.14450334 0.07406478 -0.010685249 -0.15656404 -0.07884695 -0.19075216 0.17256896 0.0733711
-0.21607593 0.088932194 0.21461138 -0.18303101 0.019493587 0.036258392 0.053186104 0.13646236
0.19932696 -0.17273457 0.22179395 0.1261629 -0.1353939 0.20070632 0.13721429 0.13944079
0.101110205 0.07098242 -0.025721807 0.17540047 0.041950677 0.19123788 0.02166045 -0.0046979454
-0.20359117 -0.17536694 -0.014959589 -0.06765083 -0.1904925 0.07918763 -0.11649577 0.1094347
0.058121197 -0.22528031 0.05123152 -0.052729666 -0.18682168 0.039583698 -0.14585955 -0.09366775
-0.16311876 -0.14135021 0.15760559 -0.23378378 0.041823894 0.0643797 -0.088691816 0.087566875
-0.19862129 -0.07208028 -0.14580505 0.009206043 -0.11169866 0.11867446 -0.04281187 -0.16744368
-0.07749283 0.026210332 -0.21833166 0.15222068 0.12001894 0.10681984 -0.048864044 -0.1834752
-0.03469474 -0.028278446 -0.025055906 -0.06408688 -0.2290122 -0.14751707 0.22777675 0.13119495
0.045728907 -0.11969829 -0.03240658 0.15390067 -0.16730049 0.02045661 -0.1700419 -0.20627642
0.1449412 -0.23196414 -0.107280396 -0.18309519 0.06338193 0.21705762 0.004437527 0.0799217
-0.021979472 0.06480581 -0.16059871 0.042366672 -0.10501968 0.22823283 -0.09065343 -0.05012634
-0.20108742 -0.03378732 0.15006673 0.1927547 0.17030221 0.18324476 -0.008031349 0.21921107
-0.025229903 0.055778783 -0.11004755 -0.07282108 -0.016874973 0.13109736 0.020004226 0.10753704
0.00057827897 -0.20870999 -0.083583884 -0.14792919 -0.027032483 0.11574931 -0.052292574 -0.12078874
-0.060509454 0.07778108 -0.040555883 0.06647232 -0.053270675 -0.007222119 0.05316899 -0.11959827
0.14139245 0.02099396 -0.1088391 -0.19115415 -0.16240534 0.10355379 0.10620624 -0.20002918

encoder2.bias_ih_l0 f4 [72]
00000000: 9038 a1bc 22c3 debd 1168 5c3e e988 2f3e
00000010: ad4d 8e3d 251e 653d eed8 903c 57ea 383e
00000020: 7700 ea3c cfc9 1c3e 21b8 063e 6bde 983d
00000030: e3dd 603e c799 babd 515b 843d 9597 483e
00000040: 4dda 2d3e e1b5 2abe ddb3 563c 7f10 42be
00000050: a2aa 3f3e 88e2 4cbd be28 0cbe 36fb 3abd
00000060: 7bba 1d3e 3112 623e 3892 453e e078 fc3d
00000070: f940 33bd ad1a e0bd 31cd 123e e08d 64be
00000080: 35d8 1f3e 4cd1 533e 330d 01be 7415 643e
00000090: 9c5c 553e 2520 64be a8aa 4dbd ee57 8dbd
000000a0: 8ccf 58be 3faa eebd e1cc 013e c12f 25be
000000b0: c5b6 5e3d 14d0 24bd d38c 003e 6cd9 9c3c
000000c0: 79c2 5d3e fa31 353e 98f8 833d 3941 66be
000000d0: a103 5f3d 5167 4cbe 6121 92bd e5e9 07bd
000000e0: bf7f b73d 32e2 5e3e 23ce 29be d210 f53d
000000f0: eb14 3ebe af6d 493e abfd 83bd 784c 353e
00000100: a1c5 383e 1a1a dfbd d2a0 d9bb 50a6 11be
00000110: cbb8 38be 1ae7 11be 1483 643e a5fd 53be
-0.019680291 -0.108770624 0.21524073 0.17142071 0.06948409 0.05593695 0.017681565 0.18058144
0.028564675 0.15311359 0.13156177 0.07464298 0.21959643 -0.09111362 0.0646273 0.19589074
0.16977806 -0.16670944 0.013104406 -0.18951605 0.18717435 -0.050020725 -0.13687417 -0.04564973
0.15403168 0.22077252 0.1929406 0.123277426 -0.043763135 -0.10942588 0.14336087 -0.22319746
0.1560982 0.20685309 -0.12602691 0.22273809 0.20836109 -0.22277887 -0.05021158 -0.06901537
-0.21172923 -0.116535656 0.12675811 -0.16131498 0.05437352 -0.0402375 0.1255372 0.019146644
0.21656217 0.17694846 0.064439 -0.22485818 0.05444682 -0.19961287 -0.07135273 -0.033182044
0.089599125 0.21765974 -0.16582541 0.11966099 -0.18562667 0.19670747 -0.06444868 0.17704952
0.1804414 -0.1089365 -0.0066414857 -0.142236 -0.18039243 -0.14248314 0.22315627 -0.20702226

encoder2.bias_hh_l0 f4 [72]
00000000: a086 b83c 0ce3 73be 0f20 a5bd 6727 413e
00000010: 9bb3 0dbe eaac 333e 21a8 b7bd 2c64 f4bd
00000020: 1541 433e 579c e7bd 9763 c0bd 1b10 a53d
00000030: 9389 493d c2a2 133e 2b4e c9bd 73e3 363e
00000040: fcec 10be f66c 2cbe baff 8c3d e3eb 343e
00000050: 2255 1abe d0a2 503d 6bc6 0abe 4679 923d
00000060: 1fbf 223e f14d 4c3e 7877 543d 980c d93d
00000070: 2287 17be f30b ec3b 8514 e53d c51d f0bc
00000080: 4d6f 19be 751f 98bd 3334 d4ba 1c18 4a3e
00000090: 2f2b 1ebe 569e 55be e801 3a3e 3095 a93d
000000a0: 6086 c63d 85ae 413e a94c e9bb b5a1 17be
000000b0: c381 f5bd d6fa 59be 5f4c f13d 218f c0bd
000000c0: a8f7 b7bd ec8d 62be 3526 6a3e 00ba 33bd
000000d0: 991a 503e 0c84 adbd 22e0 063e 02cd cb3c
000000e0: a813 713d 4a59 1f3d 6518 37be 026e 46be
000000f0: 4be3 4b3d 598a 053d 9b8f d03d b218 6d3e
00000100: de9f c1bd 0d8e 703e 36a0 653e a766 38be
00000110: 0a26 bc3d 414c 6dbe a865 3a3e aa02 2dbe
0.022525132 -0.2381708 -0.08062755 0.18862687 -0.13838045 0.1754643 -0.08967615 -0.11933169
0.19067796 -0.11309116 -0.09393995 0.080597125 0.049203467 0.14417556 -0.098293625 0.17860202
-0.14152902 -0.1683844 0.068847135 0.17668109 -0.15071538 0.05093652 -0.13552253 0.07152037
0.1589322 0.19951607 0.051871747 0.10598105 -0.14797643 0.007203573 0.111855544 -0.02931107
-0.14983864 -0.07427875 -0.0016189873 0.1973576 -0.1544616 -0.20861182 0.1816479 0.082804084
0.09693599 0.1891423 -0.0071197343 -0.1480778 -0.11987641 -0.21287093 0.11782145 -0.094023
-0.089827836 -0.22124451 0.22866137 -0.043878555 0.20322646 -0.084724516 0.13171437 0.024878029
0.058856636 0.038903512 -0.178804 -0.19377902 0.04977731 0.03260264 0.101836406 0.23153952
-0.0945432 0.23491688 0.22424397 -0.18007909 0.09186943 -0.2317362 0.18202841 -0.16895548

decoder1.weight_ih_l0 f4 [144, 18]
00000000: c4f7 49bd c98a 78bd a41a 24be e746 163e
00000010: 2412 0dbe c661 783c 1a2c 003e 5fcd 953a
00000020: 28e8 203e cccc de3d f939 0dbe ad9f babd
00000030: e97f fc3d 8807 063d 3ee0 3dbd d627 243d
00000040: cec6 693d e803 9ebd b32d c3bd 78d0 19be
00000050: f2e2 6a3d 99e7 85bd 0fdd 583c 596c b43d
00000060: 9df7 0abe 8e8d dcbc ac67 a93d d4ec cd3d
00000070: 27c6 793a 90a1 e83c 9ab2 3e3d 6d42 07be
00000080: 67e9 1abe 934c 0fbe 42d0 8b3d e250 993d
00000090: 6f0a 0e3d 64c8 8e3d d7cf 0bbd 6cd0 b4bd
000000a0: 6144 f93d 57b6 2a3e e471 96bd 348f 20bd
000000b0: 020b 223e 2c5b 15be 2bf0 8fbc d5a7 dc3d
000000c0: 34ec 453d 4fd9 253d 02de d63d b4af 2abe
000000d0: 997c e13c 7140 223d d97e 0cbe c69d 2bbe
000000e0: a68f 1fbe 46ee 47ba d5e6 febd 8772 8cbd
000000f0: 54aa e23d de5a ebbd 14bd 003e 1925 f0bd
00000100: ca29 ccbd e1ea 783d d6cd efbb 3051 1ebe
00000110: 7d9c 97bd df44 e23d a91e 23be b12b 10bd
00000120: b6b1 16be 4882 0a3e 7f8c 0b3d 8b6a 89bd
00000130: c190 4a3d 6dcf bb3c 9094 4ebd e97e c83d
00000140: 4d11 993d bc66 d0bd e7d1 d13d c67e 0e3e
00000150: 8a92 ee3d 3afe 223d 6ecf 573d 291a ac3b
00000160: 9c44 de3d a2d4 873d 05ed 0bbd daae 993c
00000170: 31c3 65bd c161 1a3e 4af4 bbbd 372c c43d
00000180: cd90 c5bc 02f9 1dbd 2d46 0abe ab6b 123e
00000190: b723 a0bd 42bc e53d 34ff 72bd ab99 8d3d
000001a0: 8f0b 02be 9144 5d3d 52cf 293e 3963 153e
000001b0: 813f 013e aebf b5bd af00 d8bd bc8a d33d
000001c0: e985 0abe b1e0 d63d 8fbb bf3c 40b1 a53d
000001d0: 6abd 76bb 0317 b93d 9faf ac3d f7d3 00be
000001e0: daee ad3a 2dd2 ebbb 2630 9dbd 74a8 983c
000001f0: 18d9 babd 3152 eabd 0e1e babc 5fe6 393c
00000200: 9a76 e13d 9ba3 e3bd 161d febc 049b 59bd
00000210: 320f df3d 92a5 223e 0535 18be a4ef 75bc
00000220: c608 bc3d a483 d03c be4b 193e 36aa cb3d
00000230: 5aee 8cbd e992 233e a1e5 11be d980 9b3c
00000240: edd1 1ebe dec3 893d 95d0 f83d 5f17 1e3e
00000250: eaa0 cfbd b80e 43bd 0924 cfbd 4aba eb3d
00000260: 049f 82bb adb8 debb d06e 13be 9efc d3ba
00000270: 0a9c d33d 62d8 193d 541e 2a3e cd92 e8bc
00000280: c1ed fc3d 090a 48bd 3097 423d 6beb c33d
00000290: ab15 c43d 0c5f d0bd 5aa9 133e 0913 18be
000002a0: 5f92 113d 38d1 a03d 2ddd 2abc 3b51 91bc
000002b0: 4bc1 e63d 12cc f23d e2e8 aa3d afa7 1f3d
000002c0: 6643 073e 5b9c c53d 0cab ef3d bcdf 80bd
000002d0: 78cd 883d a76f 2c3e 6db7 f2bc c847 173e
000002e0: 26ac 213e fd2d f43c 5693 cb3d 1ca2 05bd
000002f0: 79f5 56bd 6858 7abb 4cc7 f5bd 2d3c 19be
00000300: 0f91 20be fa47 273e 5ea2 09be 0fef d23d
00000310: 767f b33d e547 03be 8a5c 5b3d 8e67 093c
00000320: 65d4 d6bd f76b 1f3e b996 62bd 3792 4a3d
00000330: c65b 89bc ab26 3abd 55ad 2b3e 16c5 b63c
00000340: 82b8 c6bd 5a4d 0b3e e1da c13c 0131 083e
00000350: 67c4 813c 8245 563d e2ec 0e3e eca0 60bd
00000360: 7234 eabd 48a6 053e fb1c f7bd 87fe 5b3a
00000370: 00f7 7c3d 1445 ee3c a426 b0bd 7728 27be
00000380: c7b1 803c d119 14be 492f cfbd de4b d1bd
00000390: 1769 b23d 9dfa c6bd bc5b ea3b fc13 07be
000003a0: a1f1 e63c be79 47bc 45da fdbd baf7 c83d
000003b0: b653 993d 441d 853d 0fa9 d73d 7dc9 bdbd
000003c0: f365 5d3c e49d 2f3d a428 08bd db0b 583d
000003d0: 5a41 163e ea30 04be 5c54 91bd 1833 9cbd
000003e0: 4b48 883d 594e f53d ae67 24bd a856 10be
000003f0: 8e50 3f3d ff1a 633d 5a32 40bd 6dcd ddbd
-0.049308553 -0.06067923 -0.16025788 0.14675485 -0.13776451 0.01516003 0.12516823 0.0011429003
0.1571356 0.10878906 -0.13791646 -0.09112487 0.123290844 0.032722026 -0.046356432 0.040077053
0.05707436 -0.07715589 -0.09530201 -0.15020931 0.05734534 -0.06538314 0.013236298 0.08809728
-0.1357102 -0.026922967 0.08271727 0.10054937 0.0009528123 0.028397352 0.046557046 -0.13208933
-0.15128098 -0.13994054 0.068268314 0.0748613 0.03467792 0.06971815 -0.03413376 -0.08828816
0.12171245 0.1667112 -0.07345942 -0.03919907 0.15824512 -0.1458556 -0.017570576 0.10774199
0.048320964 0.040490445 0.104915634 -0.16668588 0.027525233 0.039612237 -0.13720264 -0.16759405
-0.15582141 -0.0007626753 -0.124463715 -0.06857782 0.11067644 -0.11491941 0.12572128 -0.11725826
-0.09968908 0.060770873 -0.0073182387 -0.15460658 -0.07402895 0.11048292 -0.15929665 -0.035197917
-0.14716229 0.13526261 0.034069534 -0.067097746 0.049454454 0.022926057 -0.05043465 0.09789831
0.07474003 -0.10175845 0.10245114 0.13915548 0.11649044 0.03979323 0.052688055 0.005252142
0.1085293 0.06632353 -0.034161586 0.018760134 -0.056094352 0.15076353 -0.09177454 0.09578746
-0.024116898 -0.03856755 -0.13503332 0.14298885 -0.07819312 0.11217548 -0.059325412 0.069140755
-0.12699722 0.05402047 0.16582993 0.14588632 0.12621881 -0.088744506 -0.105470054 0.10329196
-0.13527645 0.10492075 0.023404865 0.080904484 -0.003764952 0.09037592 0.084319346 -0.12580858
0.0013270036 -0.0071966858 -0.07675199 0.018635012 -0.091234386 -0.11441458 -0.02271941 0.011346429
0.110089496 -0.1111519 -0.031019729 -0.05312635 0.1089157 0.15883473 -0.14863975 -0.015010748
0.09181361 0.025453396 0.149703 0.099445745 -0.068813995 0.1597401 -0.14247753 0.018982338
-0.15509768 0.06726812 0.12149159 0.15438603 -0.10138114 -0.04762146 -0.10114295 0.11510141
-0.0039862413 -0.0067969174 -0.1439774 -0.0016173308 0.103324965 0.037559874 0.16613132 -0.028390313
0.123500355 -0.048837695 0.047507465 0.09566387 0.09574445 -0.10174379 0.14420071 -0.14851011
0.03553998 0.07852405 -0.010428709 -0.017738929 0.112673365 0.118553296 0.083452 0.038978275
0.13209304 0.09648963 0.117025465 -0.06292674 0.06679815 0.16839467 -0.02962848 0.14773476
0.15788326 0.029807085 0.099402115 -0.032625303 -0.052480195 -0.0038199667 -0.120009035 -0.14964361
-0.15680335 0.1633605 -0.13440844 0.10299503 0.087645456 -0.12820394 0.05355505 0.008386506
-0.1048973 0.15568529 -0.05531952 0.049455848 -0.016767394 -0.045447033 0.1676534 0.022310775
-0.09703161 0.13603726 0.02366394 0.13299944 0.015840722 0.05231238 0.13957551 -0.054840967
-0.114357844 0.13051713 -0.120660745 0.00083921145 0.061758995 0.029085673 -0.0860112 -0.1632403
0.01570977 -0.14462973 -0.10116441 -0.10219549 0.087114505 -0.097157694 0.007152049 -0.13191217
0.02819139 -0.012175022 -0.12395147 0.09812875 0.0748667 0.064997226 0.10530292 -0.092669465
0.013513076 0.042875186 -0.033241883 0.05274568 0.14673367 -0.12909284 -0.070961684 -0.07626933
0.06654414 0.11977834 -0.04013794 -0.14095557 0.046707682 0.055445667 -0.04692302 -0.108301975

decoder1.weight_hh_l0 f4 [144, 36]
00000000: 4c9d 0c3e 2921 20be 1599 c33d 766f d3bc
00000010: b900 f0bd 0fb9 0c3e 2295 903c 8921 d43d
00000020: 20cf 2ebc ffbf 083e b215 a13c d1a6 f1bd
00000030: 3ee6 b2bd cee7 2a3e d794 55bc f9de 25be
00000040: 5352 16be 5cab 63bd 7025 e43c a91b 483d
00000050: 6d1e c73d c471 803c 3e14 24bd de43 0bbe
00000060: 0572 173d dcd4 fdbd f48f cc3d 59b9 553d
00000070: 3b2d dc3d 054c 043e c57e a5bd 7055 6d3d
00000080: 8b46 6bbc 6028 ac3d 7370 8ebd 32b8 9dbd
00000090: 5b63 143e f97a 61bd cc7e e93d fbb9 1fbe
000000a0: e74f 573d 4b27 f3bd 1be7 84bd 8c97 4fbc
000000b0: 1dcc 423d fa34 17be 7b13 06be 9e55 1b3e
000000c0: 13c3 1f3e 7167 24bd 272e f4bd 1fb0 053e
000000d0: 3e4f c6bd 99cd 39bd 986c ba3c 9354 f2bd
000000e0: 8223 bebd 39eb f6bd 32d0 d13d 5500 abbd
000000f0: 7c6f f23d d5bc a1bd f9fb b83d c76a d7bd
00000100: e948 99bd 9416 3f3d 6870 a1bd 9394 fcbd
00000110: 37af 88bc f590 693c 586f f03d bb23 c5bd
00000120: 237f b43d 546a 463d a9d3 b53b f34d 04bd
00000130: 7e66 9f3d 7c69 d8bc 6e52 083e 9175 43bd
00000140: 39d7 d43d 20f9 1d3e 92a8 e6bd 36a8 bebd
00000150: 61d2 b4bd d02f 86bd 59c1 db3d ba11 a83d
00000160: 386d 1a3e ace3 0fbe a4bd 97bd efde 57bc
00000170: 963a f9bd 0466 1d3d ca56 943d b2c7 1cbe
00000180: 8387 f4bd 3011 133c 797e 3b3b dc18 10be
00000190: ab5e 45bd eb61 1abe 673e 93bd d318 293d
000001a0: 6c7a 0e3e 600f 15be 5dde 0cbd 4cfd 6cbd
000001b0: 9140 efbd 30bd b4bc f755 b23d 6191 253e
000001c0: d402 f7bb 6982 dc3c dc7d 2fbd b88f 24be
000001d0: 8cb1 3d3d 5547 0fbe a435 b33d cc71 1ebe
000001e0: 3f7d 223e d78e 77bd 4200 c5bd 4cad 033e
000001f0: 32b8 853d aa31 97bd dddb 823d f991 7dbd
00000200: e768 0cbe b792 cebb eba9 153e 0459 a03d
00000210: c242 2a3e 79ab d3bd dbc1 a0ba 93a4 01be
00000220: ffc3 6f3d 9bb8 b43d 4d9f d43d bf0d d53d
00000230: 184d 7e3c d7ce b6bd a048 c33c b893 003e
00000240: 66f8 ecbc 3c80 6d3d 8968 e7bd e185 28be
00000250: 6fa2 023e 5f11 663d 0c97 273e 226b 6bbc
00000260: 3107 2bbd a70a 06be 6051 0f3e c7e3 b13c
00000270: b137 0bbe 022e 0b3c 8b66 1ebe c033 c93c
00000280: f184 8abd 541f 26be 1e79 913c 86e4 b7bc
00000290: 5778 213e b15a 583d a0f0 c53c 6fe1 8f3d
000002a0: 7650 a6bd b023 86bd 07ff 20be b5c3 be3d
000002b0: 0853 803d aafc 8fbd 4b36 16be 21ac 0cbe
000002c0: 644f 9dbc 3aa0 61bd 0c45 1dbe 6869 adbc
000002d0: 9dc2 44bc 51d2 10be 699e febd ce66 153e
000002e0: 1bc6 7dbd c541 8abd 2642 22be b916 6e3d
000002f0: e45d a6bd 946b 47bd 38b6 28be 63ce b0bd
00000300: 4c9c f63d 4294 a3bd 89b2 4c3d b012 0fbe
00000310: 8ffa 0a3e 034e 31bd 5061 15be 74c9 01be
00000320: 30f5 e1bd 6152 e93b 2896 8f3d 23b4 08be
00000330: 6557 703d bd8e 03be a475 f3bd aaa3 a73d
00000340: 5ee5 5fbd e944 423d 52fa 6c3d 7303 b23d
00000350: 3beb e53c 6646 9d3d f97a fc3d 5721 07bd
00000360: a144 47bd 6e26 b0bd bd92 7dbd 9bde 24be
00000370: 1c79 413d aa74 aebd 1127 8abc f067 9e3c
00000380: 16f8 77bb fb7e aa3d 5aca 83bd d84d 18be
00000390: dbdc 063d 7781 1bbe 081a 0dbe 98a4 b7bd
000003a0: 3b53 9d3d 5e30 1fbe 07d9 7a3d ec78 aebc
000003b0: 2c3f 9ebd 5d8a fdbd 5fb9 243e 909f 58bd
000003c0: 300f 02bd ef20 4bbd 3d99 a83d 3c15 00be
000003d0: f2bc fe3c 70dd 89bc c2c1 86bd 852b f3bd
000003e0: 40ce f03c de29 f5bd 8cf2 c6bd 438b dabd
000003f0: 0d18 b53d a7a6 7f3d b67c afbc 1756 423d
0.13731879 -0.1563765 0.095506825 -0.025809985 -0.11718888 0.13742469 0.017649237 0.10357959
-0.0106695 0.1335449 0.019663665 -0.11799396 -0.087353215 0.16689989 -0.013035974 -0.16198339
-0.14679842 -0.055583343 0.027849883 0.048854504 0.097226 0.015679248 -0.040058367 -0.13600108
0.036973972 -0.12394115 0.099883944 0.052178714 0.107508145 0.12919624 -0.0808082 0.057942808
-0.0143600805 0.084061384 -0.06955042 -0.07701148 0.14491026 -0.055048916 0.11401138 -0.1559829
0.052566435 -0.11872729 -0.06489392 -0.012670409 0.04755794 -0.14766303 -0.13093369 0.15169379
0.15601759 -0.040137712 -0.11922865 0.13055466 -0.09683083 -0.04536209 0.02275686 -0.118325375
-0.09284116 -0.12056584 0.10244788 -0.08349673 0.1183767 -0.07897345 0.09032435 -0.10518413
-0.0748461 0.04665239 -0.07882768 -0.12333026 -0.016685111 0.014255752 0.11739987 -0.09625956
0.08813312 0.048441246 0.0055489135 -0.0323009 0.07783221 -0.026417486 0.13312694 -0.047719542
0.10392613 0.15427065 -0.11262621 -0.093094274 -0.08829189 -0.06552088 0.107302375 0.08206506
0.15080726 -0.14051694 -0.07409218 -0.01317571 -0.121693775 0.038427368 0.07243116 -0.15310553
-0.11939909 0.008976266 0.002860932 -0.14071983 -0.048185986 -0.15076415 -0.07189637 0.04128344
0.13913888 -0.14556646 -0.03439175 -0.05785875 -0.11682237 -0.022062868 0.08707803 0.16168739
-0.007538179 0.026917653 -0.04284464 -0.1607045 0.0463119 -0.13992055 0.087504655 -0.15473098
0.1586809 -0.060438957 -0.0961919 0.12859076 0.06529273 -0.073825195 0.06389592 -0.06190679
-0.13711892 -0.006304111 0.146156 0.078294784 0.16627029 -0.1033544 -0.0012264805 -0.12660436
0.058536526 0.08824273 0.10381947 0.104030125 0.01552131 -0.0892617 0.023838341 0.1255635
-0.02892704 0.057983622 -0.112992354 -0.16457321 0.12757276 0.05616891 0.16366214 -0.014368804
-0.041754905 -0.13090001 0.13995886 0.021715058 -0.13595463 0.008494856 -0.15468805 0.02456081
-0.06763638 -0.16222888 0.017757948 -0.022447836 0.15768562 0.052820865 0.02416259 0.0702542
-0.081208155 -0.065497756 -0.15722285 0.09314672 0.06265837 -0.07030614 -0.14669149 -0.13737537
-0.019202895 -0.055084445 -0.1535837 -0.021168426 -0.01200929 -0.1414273 -0.12432558 0.14589998
-0.061956506 -0.06750826 -0.15845546 0.05812714 -0.08123377 -0.04868658 -0.16475761 -0.08633115
0.1204153 -0.07987262 0.049974952 -0.13971972 0.13572143 -0.04328729 -0.14587903 -0.12674505
-0.11033094 0.007120416 0.07011062 -0.13349967 0.058677096 -0.12847419 -0.118876725 0.08185513
-0.0546621 0.047429 0.05785591 0.08692064 0.028066268 0.07679443 0.12328143 -0.03299078
-0.048649434 -0.0860108 -0.06190752 -0.16100542 0.04723464 -0.08518346 -0.016864331 0.01933667
-0.003783708 0.08325001 -0.0643508 -0.14873445 0.032925468 -0.15186106 -0.13779461 -0.08966941
0.076818906 -0.15545794 0.06124213 -0.021297894 -0.07726893 -0.12379906 0.16086338 -0.052886546
-0.031752765 -0.049591955 0.08232353 -0.125081 0.031095956 -0.016829222 -0.06579925 -0.11873535
0.029395223 -0.11970876 -0.09714231 -0.10671093 0.08842478 0.06241479 -0.021421771 0.047445383

decoder1.bias_ih_l0 f4 [144]
00000000: a18f fa3d a8ac 1d3e b080 23bb 5d33 053e
00000010: f0da 173c 2c03 053c 38fa 81bc 5b60 013e
00000020: 033a 0bbe 0365 29bd 59c7 02be c17e 0e3e
00000030: e39d 843d 83c1 dc3c bac9 29be eb07 1f3e
00000040: 8e8d 00be 404c d93d 0297 113e 5940 0b3e
00000050: c8f4 213d 5b16 06be 9d76 09be 8525 243e
00000060: 7c2c 923d 640d 063e 5a41 26be e5a2 6b3c
00000070: 099c 2abd a155 e03d 7ac2 323c a5b0 26bc
00000080: 6730 aabd 18a9 163e 4707 203e 1d89 483c
00000090: 83f2 023e ca93 d5bd 4d34 94bd 3d01 d13d
000000a0: a740 35ba 58f7 923d 6659 d6bc 033d b7bc
000000b0: e140 04be 3f92 293e 567b 133e 54b2 c13c
000000c0: c29a 413d edc2 a6bd 7c58 d53d 17fc d43d
000000d0: ba28 c13d 677e 61ba 7d02 0ebe 63a0 05be
000000e0: 00b3 0d3e 0ff2 ee3d 79bd dfbd 02e7 fdbd
000000f0: 4441 05bd 8107 2d3d 8a23 8cbd 2ef5 b6bd
00000100: bf5d 04be 8020 15be feab afbd 4527 16be
00000110: 2a97 91bd dc7e d03d 3355 003e 537a 93bc
00000120: a465 0cbe 640f f5bd 2cf5 c7bd 1ae4 bdba
00000130: 1cdc bfbc 624f 48bd c1ec 8f38 7c6f d1bd
00000140: 9e8a 25be a6a1 b3bd cfeb 1bbe 777a 97bc
00000150: 8a2c bcbd 1bf0 7abd d76b 8a3d 379b 19be
00000160: 3326 6b3c d25a 413d f295 a93d 942a afbd
00000170: 75f7 3f3d 4585 3ebd 38e1 f43d a05b 163e
00000180: 8f5e 8ebd 2861 023e 20ba debd 3720 ccbd
00000190: b50f 61bc bd0e cd3c 2cec aabc ce62 05be
000001a0: fa9a 443c 0277 29be 6d35 75bd 43d4 1abe
000001b0: ed80 0dbe 0b9a fe3d e083 01be 83dc a1bc
000001c0: 47da f1bd f846 c4bd 337a 253e ce91 ea3c
000001d0: 87f6 dd3d 7ef0 12be 2674 bf3d 37cc fe3c
000001e0: a37b 32bd 4ca3 b93d d33f 293e 0267 993d
000001f0: cf2e 6cbd 0b43 90bd ede4 57bd a3ba c6bc
00000200: 5feb d4bc 2cdb c63d 4d88 963d 8e0d a93c
00000210: b7cd 8bbc f230 143e 925f a43b 2126 163e
00000220: 33ea f1bd 9a0c 8a3c 49e6 f6bd ae26 01bd
00000230: 6d9f c7bd 0bd0 e93d c0fd 5fbd 2de5 cc3d
0.12234426 0.15397894 -0.002494853 0.13007875 0.009268507 0.008118432 -0.015866384 0.12634413
-0.13596348 -0.041356098 -0.12771358 0.1391554 0.06475427 0.026947742 -0.16580859 0.15530364
-0.12553999 0.10610247 0.14217761 0.13598765 0.039540082 -0.13094465 -0.13424154 0.16029938
0.07137391 0.13091046 -0.16235867 0.014382099 -0.041652713 0.109538324 0.010910625 -0.010173951
-0.08310013 0.14712942 0.15627776 0.012239722 0.12787823 -0.10428579 -0.07236538 0.10205314
-0.0006914236 0.07176083 -0.026165675 -0.02236796 -0.12915374 0.16559695 0.14402518 0.023644604
0.04726673 -0.08142648 0.10417268 0.10399645 0.09431596 -0.0008601904 -0.13868137 -0.13049464
0.13837814 0.11667263 -0.10924811 -0.12397577 -0.032532945 0.042243484 -0.06842716 -0.08933483
-0.12926386 -0.14563179 -0.08577727 -0.14663418 -0.071089104 0.101804465 0.12532501 -0.018002665
-0.13710648 -0.11965826 -0.0976356 -0.0014487535 -0.023420386 -0.04890383 6.86287e-05 -0.10226342
-0.1616616 -0.08771066 -0.15226673 -0.018491013 -0.09188183 -0.06126414 0.0675885 -0.15000616
0.014352369 0.047205754 0.08280553 -0.08553043 0.046866853 -0.046513814 0.119570196 0.1468339
-0.06951629 0.12732375 -0.10875344 -0.09967082 -0.013736655 0.025031442 -0.020864569 -0.13025972
0.01199984 -0.16549304 -0.059865404 -0.15120034 -0.13818713 0.12431725 -0.12647963 -0.019758468
-0.11809211 -0.09583849 0.16159897 0.028633978 0.10838037 -0.14349553 0.093483254 0.031103237
-0.04357494 0.090643495 0.16528253 0.0749035 -0.057661828 -0.070440374 -0.052708555 -0.024258917
-0.02599114 0.097097725 0.07350216 0.020636346 -0.017065866 0.14471796 0.0050162757 0.14662983
-0.11812248 0.016851712 -0.12055642 -0.03153103 -0.09747205 0.11416634 -0.054685354 0.10004649
