autoencoders/lightning_logs/mlp/version_1/checkpoints/epoch=149-step=24749.ckpt (torch, 585337 bytes, 94 tensors)

encoder.0.weight f4 [100, 100]
00000000: 9f22 60bd 3ac3 a4bd 9012 4cbd 79b6 26bd
00000010: 3ebc 57bd ad39 ad3d d4c8 44bd 962c 313c
00000020: 9f53 c73d 5641 8fbd d7b0 723d a6d9 a6bc
00000030: 729f 4fbd 0a01 b8bd 7cde cf3c dfc2 cdbd
00000040: 3dad 7dbc acc3 adbd 5ce6 ca3d 7141 4dbc
00000050: 89d4 abbd 2a1f a73d 53c2 bc3d e175 e1bc
00000060: 29dc fabc 80b4 953c 42b6 953d cb90 efbc
00000070: 2fe2 b9bd 14f7 a33d 61ea bf3d 3de1 5c3d
00000080: 3b54 953d 7072 1cbd 739a 643d f73f 42bd
00000090: b1e7 093d b3a1 a23d 82aa 863d 81b5 d2bc
000000a0: 5766 cabc d234 9f3d 34ee 9ebd ccca 7b3d
000000b0: 2092 5b3d 8f8a 473c 969c 90bc 2ea6 a4bd
000000c0: 69cf 18bd 819c 61bd bfce 5c3d 2617 b9bd
000000d0: 6021 5ebd eb8e e2bc 0124 91bd c0ef 913d
000000e0: ef68 983c a663 0a3d cdc2 ea3c c21d a43d
000000f0: 681d cb3d d2af 31bd b7ab b9bc 6370 82bd
00000100: 3094 2abd c541 4f3d 1da5 afbd 0f26 383d
00000110: 22dc bb3d 2914 c5bd 4045 6dbd fa09 37bd
00000120: 4bf0 debb 9543 d7b8 ba47 f83c e74f 90bc
00000130: bf75 9abd 3f86 e2bc 55b4 973b ad6c 6abd
00000140: 5832 993d aded c73c 1813 96bd 7ed1 cd3d
00000150: e86b 8dbd ebb8 c5ba 11bb ae3d 3214 323b
00000160: 49f9 423c fac2 63bd f3ea 5c3d d027 b0bc
00000170: 9de1 ca3c 9f65 a9bd 21e8 66bd 631d 98bd
00000180: 2d83 9d3d 8495 ad3d b338 86bd 7f8e d93a
00000190: f83a bf3c f3a9 01bd 10b0 c33c 643d c83d
000001a0: 7ff6 86bb 5653 043a c813 8cbd 0bd4 103d
000001b0: 84fc b83d 1c0b babc 81d1 db3b 049c e53b
000001c0: 1ed8 18bd 84ed 923d 4574 fe38 b3d2 233d
000001d0: 1205 5abd d8a1 84bd 8028 a9bd abf4 f0bb
000001e0: 6594 483d bb55 5e3d b8f8 19bc 81c7 28bd
000001f0: 6ed7 caba 4c27 8d3d fb1c 413d 5343 46bd
00000200: 6f44 703d b188 613d 319c 8fbd 31ed 763d
00000210: 1814 70bd 8e3a 97bd fc44 1f3c 33f0 84bd
00000220: ac9c afbb 637c dc3a b1cc 6b3d dfda ab3d
00000230: a3e5 c33d a925 4dbd 7bd1 36bd 747e 7bbc
00000240: c309 3dbc 8bca a9bd 4832 61bd 5051 0cbb
00000250: 1cdf 8c3d 82ba a9bd bb4f c53d 5c05 bbbd
00000260: e80c 8ebd 1beb 63bd 7a53 acbc 96ea 07bd
00000270: c0d5 033c 4dde 4cbd 1e6d 3a3d 9d83 07bd
00000280: 2779 7bbd c7b8 b73d 0f31 06bd 4a49 363d
00000290: 49d8 80bd ce66 553d a860 263d 1aee 613c
000002a0: 2408 bdbd b23c 3f3d 4b02 98bd 562d babc
000002b0: 7403 cfbd 030a 8bbd b017 35bc 3034 423c
000002c0: 721f 393d 3844 9abd 20d3 853d 4f62 bd3d
000002d0: 5e24 51bc 9ff0 7a3d 706c c1bb 2cc4 6a3c
000002e0: 494a 103c cd2f 03bd 5dd9 6d3c 287b a6bc
000002f0: 6c92 953d dfa0 d8bc 8957 de3c 74a3 f3bb
00000300: 2af3 4bbd a5b0 afbd fcad 7f3d 93ce 4a3c
00000310: dd11 8ebd 5693 c3bd a31a 9dbd 9391 aebd
00000320: 0fd1 4fbd b94f 183d 99f8 c63d 89db 1e3d
00000330: 93d3 8f3d b809 9c3c 3191 bcbd 954a 173d
00000340: a6eb 683c 4c20 b6bc 1e9a 8fbd be28 3bbc
00000350: 79ba 983c 6436 223d af7d 08bc c50a 3fbd
00000360: 3902 60bd 5f0e ad3d 2efc e3ba 10d4 b3bd
00000370: f132 e8bc 0177 66bd 6c32 8b3d 00c1 d43c
00000380: 4d13 ecbc 20de 813d ea2c a6bc 6c8f a83d
00000390: 3f31 28bd 13d2 a53d cbb1 a9bc a55c 39bd
000003a0: 345b b6bd 7599 29bd 9d48 10bd d5ad 40bd
000003b0: 9dca bdbc aaab c6bc 2f75 1d3c 09a2 be3d
000003c0: ed71 a0bc ad1a 6abd 5952 b2bb e36c 39bd
000003d0: c53a 3c3c e925 b5bd 3403 25bd 9670 babd
000003e0: 6f0b b9bd 1fd2 b13d f9db 3b3d f200 853d
000003f0: 3490 61bd 367d 393c 31ee c63b 1775 b1bd
-0.054720517 -0.08045049 -0.04982239 -0.040701363 -0.052669756 0.084582664 -0.048043087 0.010813853
0.09732746 -0.06994884 0.05925068 -0.020367455 -0.05068917 -0.08984573 0.025374644 -0.10046934
-0.015483198 -0.08484587 0.09907219 -0.0125278095 -0.08390147 0.08160241 0.09216752 -0.02752203
-0.030622559 0.018274546 0.073101535 -0.029243847 -0.09076344 0.08006111 0.09370876 0.05392574
0.07291456 -0.038195074 0.055811357 -0.047424283 0.033668224 0.07940998 0.065754905 -0.025721313
-0.024707003 0.077737466 -0.077602774 0.0614727 0.053606153 0.012179031 -0.017652791 -0.08039509
-0.037307177 -0.055080894 0.053908106 -0.09037618 -0.054231048 -0.02765604 -0.07086945 0.07125807
0.018604724 0.03378644 0.028657341 0.08013488 0.09917718 -0.043380566 -0.022664888 -0.06369092
-0.04164523 0.050599832 -0.08576415 0.04495817 0.091728464 -0.09622986 -0.05792737 -0.04468725
-0.0068035475 -0.00010264587 0.03030764 -0.017616225 -0.075419895 -0.027651904 0.0046296516 -0.057232548
0.074803054 0.024405325 -0.073278606 0.10049723 -0.06905347 -0.0015085017 0.08531774 0.0027172682
0.0119002545 -0.055605866 0.053935003 -0.02150336 0.024765784 -0.08271336 -0.05637372 -0.0742748
0.076910354 0.084757835 -0.06553783 0.0016598253 0.023343548 -0.031656217 0.023887664 0.09777334
-0.00411874 0.00050478184 -0.068397105 0.03535847 0.090325385 -0.022710375 0.0067083244 0.007007124
-0.03731548 0.07174209 0.00012133321 0.03999586 -0.05322749 -0.06476182 -0.08259678 -0.0073533854
0.048969645 0.054280978 -0.009397678 -0.041205887 -0.001547558 0.06892261 0.04714678 -0.04840405
0.058659013 0.055062 -0.07012213 0.060284797 -0.058612913 -0.07384215 0.009721037 -0.06491127
-0.005359253 0.0016821738 0.057568256 0.08391356 0.09565284 -0.050084744 -0.04463337 -0.015349973
-0.011537972 -0.08290585 -0.054979593 -0.002141077 0.06878492 -0.08287527 0.09634348 -0.091318816
-0.069360554 -0.055644136 -0.021035898 -0.033182703 0.008046567 -0.05001669 0.04551422 -0.0330845
-0.061394837 0.0897079 -0.03276163 0.044503488 -0.06291253 0.052099995 0.040619522 0.013789678
-0.09230068 0.046688743 -0.07422312 -0.022726696 -0.101080805 -0.06789019 -0.011053011 0.011853263
0.045196004 -0.07532543 0.065344095 0.092472665 -0.012765018 0.06126463 -0.0059028193 0.014328998
0.008806773 -0.03202801 0.0145171555 -0.020322397 0.073033184 -0.026443897 0.02714135 -0.0074352566
-0.049792446 -0.08578614 0.062421784 0.012378353 -0.06937001 -0.095495865 -0.07671096 -0.0852386
-0.050736483 0.037185404 0.09715385 0.038783584 0.070227765 0.019047603 -0.092073806 0.03693636
0.014216339 -0.022232197 -0.070118174 -0.011423288 0.018643605 0.039602652 -0.008330747 -0.04664113
-0.05468962 0.08450007 -0.0017393881 -0.08780682 -0.028344603 -0.056265835 0.067967266 0.025970936
-0.028817797 0.06341195 -0.020285089 0.082304806 -0.04106259 0.08096709 -0.020714661 -0.04525437
-0.08904114 -0.041406114 -0.0352255 -0.04704078 -0.023167903 -0.024251778 0.009610458 0.093082495
-0.019585574 -0.057154346 -0.0054419455 -0.045269858 0.011488621 -0.088451214 -0.040286258 -0.09103505
-0.09035384 0.086826555 0.04586408 0.06494321 -0.055069163 0.0113213565 0.006070875 -0.08664911

encoder.0.bias f4 [100]
00000000: 3176 b53c 9e2c 773d 16bc ce3c 65d0 f73c
00000010: cc99 98ba 56ad 67bd 7f28 04bd 278f c63d
00000020: 6679 bebc 2a6d 173d 4045 9bbc 3c87 30bc
00000030: 5962 42bd cbe1 f93c 6d85 253d a871 833d
00000040: f7d0 bebd ab18 64bb 4b2a 91bd 7bca afbd
00000050: 0a98 c33d 3461 c63d 80c4 55bb fa29 c0bd
00000060: 0aa1 973d 4e46 033d 84f0 b43d bc52 b73d
00000070: 3415 c03d 93a8 cd3d 7cd6 2a3d 9286 99bd
00000080: 798d 2ebd eaf8 6b3c beb7 833d 33db 73bd
00000090: 8a9f c13c 64e9 9cbd 2634 383c a88e ca3c
000000a0: 580e 97bd 7abf b73c f614 2fbd 5e89 43bd
000000b0: ad6e 64bd 9e61 8f3d c235 c8bd 451f 8dbd
000000c0: 241d 9e3c f40c cfbc 9dc4 86bd d71a cc3d
000000d0: 782b a03c 2b07 b93c fe80 ad3d 1383 51bd
000000e0: 92c8 803d 164e ac3b b910 23bc 7033 bdbd
000000f0: a893 ab3b 9945 34bd 12b7 9ebd be85 203d
00000100: c31f b6bd bb77 853d 5279 493c f65e 6dbd
00000110: 9a1f 803d 5c18 2c3d 8858 75bd 8b36 a23d
00000120: 587f 97bd 5221 c13d c373 5b3d 3c57 a73d
00000130: 0971 64bd cb07 923b ca52 9e3d 7dbc f9bc
00000140: 2ca6 c33d c1a5 c33d 8ea7 a2bd b5c2 b7bd
00000150: 5236 113c 0265 ccbd 5b0f c2bd 078d 9b3d
00000160: 4676 91bd 2a99 bdbd a5d0 a2bd 4744 4abd
00000170: 139e ba3c 9ad9 aebd 208b 6c3c 1726 dc3c
00000180: b548 163d 67c2 85bc d58f f73c 00a2 00bd
0.022151085 0.060345285 0.02523617 0.030250737 -0.0011642515 -0.05656179 -0.032265183 0.09695273
-0.023251247 0.03696934 -0.01895392 -0.01077443 -0.047457073 0.030503174 0.040410448 0.064181626
-0.09317201 -0.0034804742 -0.07088145 -0.08583542 0.095504835 0.09686509 -0.0032618344 -0.093830064
0.07403763 0.03204947 0.08834937 0.08951327 0.09379044 0.100419186 0.041708454 -0.074963704
-0.042615388 0.014402607 0.064315304 -0.059535217 0.023635644 -0.07661703 0.011242902 0.024726227
-0.07375783 0.02243017 -0.0427446 -0.047738425 -0.05576961 0.07001041 -0.097758785 -0.0689073
0.019301005 -0.025274731 -0.0658047 0.09966057 0.019551978 0.022586426 0.08471869 -0.051150393
0.06288256 0.005258332 -0.009952717 -0.092383265 0.005236108 -0.044011686 -0.07749762 0.039190046
-0.08892777 0.065169774 0.012296991 -0.05795189 0.062560275 0.04201542 -0.059898883 0.079205595
-0.07397336 0.094301835 0.053577196 0.081709355 -0.05577186 0.0044564954 0.077306345 -0.030485386
0.09553179 0.095530994 -0.07942115 -0.08972684 0.008863049 -0.09980203 -0.09475585 0.07595258
-0.07102637 -0.09257729 -0.07949952 -0.04938152 0.022780454 -0.08537598 0.014437467 0.026873631
0.036690433 -0.01632805 0.030219952 -0.031404495

encoder.2.weight f4 [100]
00000000: 4149 803f c515 803f 0f89 7f3f 8e0d 803f
00000010: e809 803f b0db 7f3f d1b8 7f3f 8b0b 803f
00000020: 6d01 803f b424 803f 00d5 7f3f 8201 803f
00000030: fb2b 803f 4fa7 7f3f f265 7f3f 8de1 7f3f
00000040: 0000 803f ff24 803f 0000 803f 0000 803f
00000050: 7106 803f 77c5 7f3f 650e 803f 0000 803f
00000060: 21da 7f3f 8410 803f 61ee 7f3f e53d 803f
00000070: e6bc 7f3f 6f22 803f c53c 803f 0000 803f
00000080: ed04 803f 9474 7f3f 8f27 803f f8b7 7f3f
00000090: f42b 803f 770a 803f 20cf 7f3f 6dd6 7f3f
000000a0: 0000 803f bb12 803f 9e6b 7f3f 6a18 803f
000000b0: cc08 803f 74e4 7f3f 0000 803f 59e1 7f3f
000000c0: b4c3 7f3f 6b0d 803f 0000 803f d421 803f
000000d0: 6ada 7f3f c5e6 7f3f a93d 803f 44fe 7f3f
000000e0: 2617 803f 599f 7f3f 3eeb 7f3f 0000 803f
000000f0: 3952 7f3f c60a 803f 0000 803f 22e3 7f3f
00000100: 0000 803f c94c 803f 0f1f 803f 7fd6 7f3f
00000110: 10aa 7f3f 7bcb 7f3f 6132 803f c0c1 7f3f
00000120: 0000 803f 4c0e 803f 9907 803f 3489 7f3f
00000130: 8f4e 803f 88de 7f3f f8de 7f3f f3c0 7f3f
00000140: b2d9 7f3f c124 803f 0000 803f 0000 803f
00000150: 25e9 7f3f 0000 803f 0000 803f b2be 7f3f
00000160: db25 803f 0000 803f 0000 803f dbff 7f3f
00000170: 6fe5 7f3f 0000 803f 1714 803f 6713 803f
00000180: a03a 803f 760d 803f 45ad 7f3f ff4b 803f
1.0022355 1.0006644 0.9981851 1.0004137 1.0003023 0.9994459 0.9989138 1.0003523
1.0000435 1.0011201 0.9993439 1.000046 1.0013422 0.9986467 0.9976493 0.9995354
1.0 1.001129 1.0 1.0 1.0001966 0.9991068 1.0004393 1.0
0.99942213 1.000504 0.9997311 1.0018889 0.9989761 1.0010508 1.0018545 1.0
1.0001503 0.9978726 1.0012072 0.9989009 1.0013413 1.0003194 0.9992542 0.9993656
1.0 1.0005716 0.99773586 1.000745 1.0002685 0.99957967 1.0 0.9995323
0.99907994 1.0004095 1.0 1.0010324 0.9994265 0.999615 1.0018817 0.99997354
1.0007064 0.9985252 0.99968326 1.0 0.99734837 1.0003288 1.0 0.9995595
1.0 1.0023433 1.0009478 0.9993667 0.9986887 0.9991986 1.0015374 0.99905014
1.0 1.0004363 1.0002319 0.9981873 1.0023974 0.9994893 0.999496 0.9990379
0.9994155 1.0011216 1.0 1.0 0.99965125 1.0 1.0 0.9990035
1.0011553 1.0 1.0 0.9999978 0.9995946 1.0 1.0006131 1.0005921
1.0017891 1.0004108 0.99873763 1.0023192

encoder.2.bias f4 [100]
00000000: 72e5 77b9 4461 73ba 181f e139 7c51 143a
00000010: b423 a1ba a963 0a3a 082b 38b8 8f9a b539
00000020: 9d8d 9cb8 257e dcba 59c9 bcb8 ba0b 5c3a
00000030: 384a 10b9 a2c5 e73a 6828 e039 a2b2 b239
00000040: 9809 4db9 6de0 783a 5056 96ba f0aa d839
00000050: 4849 0eba f779 fe38 6efb e4b8 59f4 57b7
00000060: 8409 0d3a 1f18 203a 296d aa3a c0d2 0e3a
00000070: a21f 3e3a d0ea acba 1618 fcb9 088f b939
00000080: df5a 14b8 b135 cbb9 8fb9 7cba d807 113a
00000090: 738b a3ba fbf3 1fba c7dd d0b8 2131 08b9
000000a0: c467 e4b8 9aa2 3c3a 5585 b3b9 18bf 613a
000000b0: 20a0 42ba df38 3f39 ac82 1dba f28c 18b9
000000c0: ad0b 02ba 9ae5 b13a 4cf0 013a 104d dfb8
000000d0: 2214 453a e516 93b8 664f 39ba 0b2f a5ba
000000e0: b528 07b9 02eb 783a fb48 5c3a 3b3c 913a
000000f0: ec69 afba 3344 bcba 7b69 8bba 9cc4 53ba
00000100: 24f6 f739 f7ea 68ba 737c be3a c1b2 493b
00000110: a78f 0139 91f6 9f3a 2fbc a6b9 c361 4d3a
00000120: c042 1eba 30a1 beba 02dc 3a3a b0b2 633a
00000130: 5d6b 93ba 349e b537 6933 413a 24fa 833a
00000140: c95c 8fba 5ca1 a438 1202 39b9 3dac ad3a
00000150: 4a4b aeba 3972 5939 8da9 763a 0f3b 543a
00000160: ad67 6a38 8f3b 64ba 5993 e038 efa4 213a
00000170: 566f b9b9 5a4a 40b9 224d 30ba e8b8 feb8
00000180: b995 a639 e32a 883a 1640 843a f494 dfba
-0.0002364123 -0.0009284208 0.0004293851 0.0005657894 -0.0012293966 0.0005279133 -4.3909095e-05 0.00034638165
-7.465037e-05 -0.0016822262 -9.0020425e-05 0.00083940814 -0.00013760559 0.00176828 0.00042754714 0.00034083897
-0.00019553897 0.0009493891 -0.0011469815 0.0004132609 -0.000542779 0.000121343815 -0.000109187196 -1.287189e-05
0.0005380141 0.000610711 0.0013002503 0.00054482743 0.00072526385 -0.0013192538 -0.0004808313 0.00035392516
-3.537058e-05 -0.0003875918 -0.00096406875 0.000553248 -0.0012477472 -0.00061017246 -9.959522e-05 -0.00012988273
-0.00010891215 0.00071958604 -0.0003424088 0.0008611544 -0.0007424373 0.00018236366 -0.00060085463 -0.00014548356
-0.0004960846 0.0013572455 0.00049567665 -0.00010647823 0.00075179536 -7.013771e-05 -0.0007069021 -0.0012602521
-0.00012889768 0.0009495468 0.0008403209 0.0011080572 -0.0013383008 -0.0014363587 -0.0010636294 -0.00080783083
0.000472949 -0.000888511 0.0014532938 0.0030776712 0.00012355913 0.001220422 -0.00031802195 0.0007834697
-0.0006037168 -0.0014543887 0.00071281206 0.00086859893 -0.0011247207 2.165055e-05 0.00073700264 0.0010069055
-0.0010937686 7.850185e-05 -0.00017643746 0.0013250184 -0.0013297584 0.00020737284 0.00094094203 0.00080959586
5.5886503e-05 -0.00087063847 0.00010708598 0.00061662396 -0.000353689 -0.00018338245 -0.0006725361 -0.00012146105
0.0003177354 0.0010388758 0.00100899 -0.0017057941

encoder.2.running_mean f4 [100]
00000000: c644 9b3c f518 723d 9cb3 e23c b101 023d
00000010: 3485 933b 3c83 442d b34b 9238 70d1 cb3d
00000020: 571b 2339 b321 183d bf11 f939 d73d 3a3a
00000030: bb10 3638 85be f03c 02c7 2a3d 452a 823d
00000040: 0000 0000 6c12 2a3b 0000 0000 0000 0000
00000050: 0b6e be3d d1e3 c63d 5682 6f3b 0000 0000
00000060: 32ef 8f3d fcb6 fe3c 0a82 b63d 0157 be3d
00000070: 73d5 bc3d 47ee ca3d eccc 293d 0000 0000
00000080: 40a9 cf37 80d8 903c f5bd 8e3d 6e39 1032
00000090: 5dcd d23c 42a9 0730 caf7 503c 72bf cc3c
000000a0: 0000 0000 4465 c03c 7af9 1a37 049a a138
000000b0: 55e3 7935 5e38 8e3d 0000 0000 9540 c333
000000c0: 0403 ab3c 58cc ee38 0000 0000 b830 c33d
000000d0: f28f 9a3c 29a8 d93c 9467 b53d 230c 6134
000000e0: 3ff3 813d 24d5 b43b 33f7 d63a 0000 0000
000000f0: fd75 e23b d0be 1636 0000 0000 0742 1d3d
00000100: 0000 0000 9db9 723d 90a5 873c 2abd fa37
00000110: 9ea9 763d df24 2b3d 9c13 0236 283c 9a3d
00000120: 0000 0000 10ae bd3d aadb 583d 98a7 a83d
00000130: f561 353a 2a75 093c 971f a83d 40b0 6836
00000140: b05f ce3d f600 c13d 0000 0000 0000 0000
00000150: 3d11 3b3c 0000 0000 0000 0000 9533 9c3d
00000160: 2dcf f630 0000 0000 0000 0000 de65 ad34
00000170: 951a bf3c 0000 0000 8b79 933c fa54 ca3c
00000180: a68f 0d3d b9bf 123a 44bb ec3c 3280 9f39
0.018953692 0.059105832 0.027673535 0.031739894 0.004501963 1.117045e-11 6.9759226e-05 0.099520564
0.00015555076 0.037141513 0.00047506203 0.0007104552 4.3407763e-05 0.029387722 0.041693695 0.063557185
0.0 0.0025950922 0.0 0.0 0.09298333 0.09711421 0.0036546192 0.0
0.07028045 0.031093113 0.08911522 0.092939384 0.092204 0.09908729 0.041455194 0.0
2.4755136e-05 0.01768136 0.06969825 8.394961e-09 0.02573269 4.9353244e-10 0.01275439 0.024993632
0.0 0.023485787 9.237201e-06 7.705766e-05 9.309054e-07 0.06944345 0.0 9.0921425e-08
0.020875461 0.00011386786 0.0 0.09530777 0.018867467 0.026569443 0.088576466 2.0959173e-07
0.06345224 0.0055185724 0.0016400575 0.0 0.006911038 2.246281e-06 0.0 0.038393047
0.0 0.059259046 0.016558439 2.9890409e-05 0.060220353 0.04178321 1.9382924e-06 0.07531005
0.0 0.092617154 0.052943863 0.08235091 0.0006919199 0.0083897505 0.0820915 3.4673285e-06
0.10076845 0.094240114 0.0 0.0 0.011417684 0.0 0.0 0.07627026
1.7957739e-09 0.0 0.0 3.229788e-07 0.023328105 0.0 0.018002292 0.024698723
0.034560822 0.0005598027 0.028897889 0.00030422356

encoder.2.running_var f4 [100]
00000000: d5eb 3639 e3b6 0b39 34fd fb38 b612 3939
00000010: 0fb6 2e38 a122 b829 b53c 3b35 64cb a139
00000020: abcb 2836 c07d 1339 5495 a736 4292 4537
00000030: 571b 3b35 f4a9 0e39 bb2d 2e39 e99c 2439
00000040: 0400 0000 01a6 d937 0400 0000 0400 0000
00000050: cb8d 1539 feab f938 ca1a 9238 0400 0000
00000060: ac96 1739 3cb7 1239 5f25 3e39 a6d6 9c39
00000070: 1b5b 1839 6612 4839 570c ea38 0400 0000
00000080: 7680 4334 1579 1639 8346 2539 32eb c42e
00000090: 9e5f 6039 c0f8 2b2d 4112 1039 767b 2339
000000a0: 0400 0000 b01e f938 041e 6533 e948 7235
000000b0: 5b15 8832 d6d0 bd38 0400 0000 e816 3630
000000c0: afb3 0a39 7b4e 7a36 0400 0000 3772 8a39
000000d0: 2341 da38 9420 3239 d619 2539 d9ed 8a2f
000000e0: 5d7b 3239 04ba 7a38 ecb0 1838 0400 0000
000000f0: d122 9238 d7f0 b532 0400 0000 bf32 0f39
00000100: 0400 0000 533b a439 9fdc 2839 fd31 ce34
00000110: 4ba4 4139 a13b f338 0131 7133 7a66 a338
00000120: 0400 0000 7532 5d39 c1fb 3539 b553 5439
00000130: 2740 c237 c59b 7b38 0b38 6639 a044 f432
00000140: 05d4 be39 7eab d438 0400 0000 0400 0000
00000150: 5b57 dd38 0400 0000 0400 0000 04af 8f39
00000160: 109d 352d 0400 0000 0400 0000 0bb8 5c31
00000170: 4aae 0539 0400 0000 a8e0 1539 6fcc 1f39
00000180: 99f1 0239 2bb3 2e37 a33f 1e39 faaa d936
0.00017444727 0.00013324204 0.000120157754 0.00017649945 4.1654388e-05 8.1772486e-14 6.975127e-07 0.0003085985
2.5152501e-06 0.00014065858 4.994372e-06 1.1776168e-05 6.9702713e-07 0.00013605488 0.00016610969 0.00015698712
6e-45 2.5945717e-05 6e-45 6e-45 0.0001426257 0.00011905281 6.966812e-05 6e-45
0.00014456612 0.00013991905 0.00018133734 0.00029914564 0.00014529789 0.0001908034 0.00011160288 6e-45
1.8207524e-07 0.00014350221 0.00015761894 8.954827e-11 0.00021397925 9.775458e-12 0.0001373971 0.00015590884
6e-45 0.00011878961 5.3345516e-08 9.0258123e-07 1.5842195e-08 9.051121e-05 6e-45 6.6243766e-10
0.00013227643 3.7298585e-06 6e-45 0.00026406508 0.00010407183 0.00016987539 0.00015745251 2.5271055e-10
0.00017021359 5.9777885e-05 3.6404395e-05 6e-45 6.9683076e-05 2.1180695e-08 6e-45 0.00013656447
6e-45 0.00031324718 0.00016103916 3.840686e-07 0.00018467118 0.0001159825 5.6156754e-08 7.7915334e-05
6e-45 0.00021094999 0.00017355291 0.00020249079 2.3156475e-05 5.9988135e-05 0.00021955387 2.8436546e-08
0.0003639759 0.00010140891 6e-45 6e-45 0.000105543724 6e-45 6e-45 0.00027405482
1.0323534e-11 6e-45 6e-45 3.211883e-09 0.00012748796 6e-45 0.00014293438 0.00015239579
0.00012487768 1.0412924e-05 0.0001509176 6.4870082e-06

encoder.4.weight f4 [100, 100]
00000000: f6dc 223d b8cb 81bd 57de d73c 1377 883d
00000010: 45d7 b13d a17d 1abd 618a c5bd e933 b7bd
00000020: 43a2 a2bd d7ea 573d 6eed 59bd cb1d cd3b
00000030: 6d40 cabd 3c0c e13c 07ad 473d 4682 08bd
00000040: 879f 9e3d 9ca5 78bc d9c0 bbbd 928d be3d
00000050: cb1b 4f3d 3ea1 84bd 7cf7 853d f432 f23a
00000060: 0b9b 5ebd 2033 cb3d 8706 e23a 1202 fd3c
00000070: 91c8 c13d bb6e c83d 102b 7dbd a9f4 66bd
00000080: f275 00bd 0f63 913d ff09 cebc dc80 9a3d
00000090: 2a00 96bd 2004 1fbc f2cd 1f3d b985 193a
000000a0: 62b3 2abd d96f e43c 2efd af3d 8a8d a73c
000000b0: a889 95bd 0595 b83d 28fb 38bd db6f 2bbb
000000c0: 9cb4 bcbd d987 1fbd e635 e83c de49 923d
000000d0: d4fd b43d d27f 3c3d c45d 6b3d 9b72 44bd
000000e0: ce4d 843d 5caa 03bd cfe4 a33d 1cb5 9bbc
000000f0: 64bb 253d ed08 a4bd d8e3 afbc 5e8e b23c
00000100: 50d1 bc3d 2493 80bd 756c 8abc cb4f a03d
00000110: 40dc 593d a3d4 f6bc bf18 2cbd 7145 edbc
00000120: a5df 40bd 08ba 973d 87df 44bd c35d cd3c
00000130: 2a0f b7bd 45f1 c73d cc7f a73d a3e2 bc3d
00000140: dd42 3c3d 6760 64bc 718b 40bd 455a 8c3d
00000150: 7c5f 97bd 91cd 983d c00f aebd 55cc f9bb
00000160: fdc1 0b3d f1ef 033d f118 cbbd 906e e6bb
00000170: 5d4e 9c3c 2828 34bc 693a f1bc ed65 5abb
00000180: 744e a7bc 76d7 4dbd 9e80 4f3b 4902 0b3d
00000190: 11ca a63d 6a77 9cbd 8370 3c3d 2f5c 323d
000001a0: 1ba4 1a3d 9af7 0c3c 238a 3f3d 89ec 21bd
000001b0: 5a70 913c ef1b f3bc 4ff2 c63c d961 43bd
000001c0: 53c9 8abd 444d 413c b32b 75bc 4acc 153b
000001d0: 0c06 513c cb1a 8f3c 87c3 4ebd cbf2 073d
000001e0: ed49 9dbd fd6e 89bd 463f 88bd 5780 87bd
000001f0: 58a8 b0bb 10a7 41bb f0ee bfbd 5d47 903c
00000200: e571 113a 9cea 943d 83c2 973c e4ee cbbd
00000210: 6c59 b9bd 21c8 113d 16c7 483d 641e 8abd
00000220: 7e06 f43c 014b 823d 2346 cbbd 55ec a1bd
00000230: 7602 fc3b a152 c6bd 0bd1 a63d ae19 cebc
00000240: 26b8 b33d 082f 2bbc 0bea 833c 338a a1bd
00000250: db13 21bc 1101 b13d 5a59 bdbd a2a5 433c
00000260: 8d0a 7c3d 6f80 bcbd 0483 2a3d 1241 6b3d
00000270: 8926 5bbc 6286 cd3d 3405 c5bd 7e8f 233d
00000280: ae0f c6bd 09d6 e9bb 5b67 4f3d cd84 54bd
00000290: f343 65bd d724 b83d 9391 523d 5f50 b33d
000002a0: 9f89 9c3d 1f28 d0bc e4a9 893d 98f6 adbd
000002b0: 8b0f eebc ab3c bf3d 74a7 7bbd 7437 b83d
000002c0: 9069 9ebd 5a5e 71bc b4c8 90bd 6aa7 b8bd
000002d0: d0d2 a23d 74d2 8cbc 1127 953d 49a4 163d
000002e0: bfd4 913a 20a8 90bd 18ee debc 9b5d 26bd
000002f0: 8c39 af3d 358f 78bd 8833 96bd 51b1 e1bc
00000300: cb60 c43d 9190 56bc 1dff 6cbc 0cb3 62bc
00000310: 8f79 8c3d 9a27 353d 8bd2 a6bd 337a 13bb
00000320: 2322 bdbd a763 023d 1e76 363d f3d2 afbb
00000330: 4cd2 193b 74f4 cabd c005 68bd 9fb3 67bd
00000340: 7cf2 31bd 8246 2f3d a029 c23d 22c0 bebd
00000350: c81a bfbd 0ce2 69bd 0860 83bd a029 923d
00000360: b50b 2f3d d960 9ebc 5c31 9abd 14e1 f2bc
00000370: ad60 94bd e026 8c3d 7164 c73d a3b0 8ebc
00000380: 8fcf 07bd c335 9abd 2b11 153d 9556 a63d
00000390: 9b71 bfbd bee8 243d db08 77bd 0118 c93c
000003a0: 06b4 b33d b38f d63c de3e 403d 94de 80bd
000003b0: c3bc 093d ad58 2abd fdd3 903d fe89 e13c
000003c0: 9a3e 77bd 9316 8f3c 0d6f 5cbd e89e 84bd
000003d0: 854e 603d dc5b 9ebc 515e 9d3d 334a f53a
000003e0: 3a6e 273d a775 8c3b ac44 c7bd 6fc5 59bd
000003f0: 315c 9abd db4d 2d3d ee08 41bc f50f b0bd
0.039761506 -0.063376844 0.026351137 0.066633366 0.086836375 -0.037717465 -0.09645534 -0.08945448
-0.07941105 0.052714195 -0.053204946 0.006259655 -0.098755695 0.027471654 0.048748996 -0.033327363
0.07745271 -0.015176203 -0.09167642 0.09304346 0.050563615 -0.06476067 0.065413445 0.001847832
-0.05434708 0.09921861 0.0017244377 0.030884776 0.09462083 0.09786745 -0.061808646 -0.05638567
-0.03136248 0.07098972 -0.02515125 0.07544109 -0.0732425 -0.009705573 0.039014764 0.0005856413
-0.04167498 0.027885364 0.08593212 0.020453233 -0.073016465 0.09012798 -0.045161396 -0.00261592
-0.09214136 -0.038947914 0.028346013 0.07142995 0.088374764 0.046020336 0.05746247 -0.04796086
0.064601526 -0.03214489 0.08002626 -0.019007258 0.040461913 -0.08009515 -0.021470949 0.021796402
0.09219611 -0.06278065 -0.01689742 0.07827719 0.053188562 -0.03013069 -0.042015787 -0.028963776
-0.047088284 0.074085295 -0.048064735 0.025069123 -0.08938439 0.097628154 0.08178672 0.09222915
0.045962203 -0.013939 -0.04700798 0.06853155 -0.07391259 0.07461084 -0.08499098 -0.007623235
0.03412055 0.032211248 -0.099168666 -0.007032223 0.019080335 -0.010995902 -0.029446797 -0.0033324913
-0.020423152 -0.050254308 0.0031662355 0.033937726 0.0814401 -0.07639964 0.046005737 0.043544944
0.03775416 0.008603955 0.046762597 -0.039532218 0.017753769 -0.029676406 0.024285464 -0.047700737
-0.06776681 0.011798207 -0.014964032 0.0022857361 0.012757789 0.01746883 -0.05047944 0.03319053
-0.07680116 -0.067106225 -0.066526935 -0.06616276 -0.005391162 -0.002954904 -0.093717456 0.017612154
0.00055482826 0.07271311 0.018525368 -0.09957674 -0.09050259 0.03559125 0.04901799 -0.06744078
0.029788252 0.06361962 -0.09925487 -0.07906405 0.007690723 -0.09683729 0.081453405 -0.02515873
0.08775358 -0.010448225 0.016102811 -0.078876875 -0.009831394 0.086427815 -0.09245558 0.011941345
0.0615335 -0.09204184 0.041628852 0.057435103 -0.013375887 0.10035397 -0.09620133 0.039931767
-0.096709594 -0.0071361107 0.050635677 -0.05188446 -0.055973005 0.08991402 0.05140836 0.08755564
0.07643437 -0.025409756 0.06721857 -0.084943 -0.029060146 0.09337743 -0.061438993 0.08994952
-0.07734978 -0.014731968 -0.07069531 -0.09016307 0.079503655 -0.017190196 0.07282842 0.03677777
0.0011126025 -0.07063317 -0.027213141 -0.040616613 0.08555898 -0.060683448 -0.073340476 -0.027550371
0.09588774 -0.013095991 -0.014465121 -0.013836633 0.06859123 0.04422722 -0.08145627 -0.0022503256
-0.09235027 0.031833317 0.04454624 -0.0053657233 0.0023471294 -0.09909907 -0.05664611 -0.056567784
-0.04344414 0.04279185 0.094805956 -0.0931399 -0.0933128 -0.05710034 -0.06414801 0.071368456
0.042735774 -0.01933329 -0.07528946 -0.029648341 -0.07245002 0.06843352 0.097359546 -0.017418211
-0.033156928 -0.075297855 0.036393326 0.08121983 -0.093478404 0.040261023 -0.06031118 0.024547579
0.08774571 0.026191568 0.046934955 -0.062924534 0.033627283 -0.041588474 0.070716836 0.02753162
-0.060362436 0.017466819 -0.053816844 -0.064756215 0.054762382 -0.019330911 0.07684005 0.001871413
0.040876605 0.004286486 -0.09729895 -0.053166803 -0.07537115 0.042310577 -0.011781914 -0.085967936

encoder.4.bias f4 [100]
00000000: 026e 9c3d ea87 ccbc 9428 843d 991f a33d
00000010: e065 90bd 4582 b73d 7334 583d b638 053d
00000020: 35f1 37bd 5e27 38bc 51ff b5bd aa16 b6bd
00000030: bfb2 aabd 6b03 7f3d 18d7 e93c 40de 173d
00000040: 6316 3dbd c6e2 49bd a90c 3b3d 5aae b7bd
00000050: 9336 7bbd 3683 8abd d5ec 803c 4cae f0bc
00000060: 5e7d a3bd fb04 8abd 2e3d 263d bc7d 433c
00000070: 3892 663a ab23 553d f3e1 8dbd 4efc 7b3d
00000080: e101 cd3c f42f c83d cb8e 753d 9c11 c2bd
00000090: cc6a 983d 4b24 ec3c ab34 b5bd 7d69 91bd
000000a0: eba3 0ebc a9df 303c 946a 633c 65a0 fd3c
000000b0: 9374 40bd 1239 8cbd 4b21 7b3d c080 c33d
000000c0: 4ebd c2bd 88ee 663c a89f f6bc f2c0 9a3d
000000d0: bc7d 653d de96 babd f2b1 8abd 0f0c 3f3d
000000e0: 5cec 45bd b312 bcbb 1d1f 993d 8209 5c3d
000000f0: 7932 203c f3b4 23bd dcbb 853c 6494 043d
00000100: 7380 cebc 8675 6dbd 32c6 6ebd 122d 99bc
00000110: b02a 83bd 7b24 ebba 61b7 0ebc b048 c03c
00000120: c37f e1bb 8ed2 a8bd d50b 503d d8e0 823d
00000130: cd22 5e3d 58d5 9abd 85c4 0f3d c074 9d3d
00000140: 11b5 723c 58c7 05bc d6da 473c 2b75 89bd
00000150: 3386 54bb 62c0 a23c aedc a33d 778a b23d
00000160: d9ca 873d 26ad 673b 0ed3 213d 4cdc 943d
00000170: d182 c5bc af24 353d 2be2 bcbd 8ccd 683d
00000180: d4b6 e8bc ceb5 a2bd f19b 7abd 1abf 22ba
0.0763817 -0.024967153 0.06453052 0.07965011 -0.07050681 0.08960394 0.052784394 0.032524787
-0.044907767 -0.011239855 -0.08886588 -0.088910416 -0.08334874 0.06225912 0.028544948 0.03707719
-0.046163928 -0.049288534 0.04566637 -0.08968802 -0.061331343 -0.06763308 0.01573793 -0.029379986
-0.07982896 -0.06739231 0.04058569 0.011931833 0.0008795592 0.05203597 -0.06927862 0.061519913
0.02502531 0.09774771 0.05995063 -0.09476015 0.07442245 0.0288259 -0.08847936 -0.071001984
-0.008706073 0.010795512 0.013880391 0.030960271 -0.046986174 -0.06846823 0.061311048 0.095460415
-0.09508763 0.014094956 -0.030105427 0.07556333 0.056028113 -0.09110807 -0.067722216 0.04664236
-0.048321113 -0.005739534 0.074766375 0.053720005 0.009777659 -0.03996749 0.01632493 0.03236808
-0.025207734 -0.057973407 -0.058294483 -0.018698249 -0.06404626 -0.0017939949 -0.008710713 0.02347216
-0.0068816855 -0.08243285 0.050792534 0.06390542 0.054232407 -0.07560223 0.035099525 0.07688284
0.014813677 -0.008165203 0.012198171 -0.06711801 -0.0032428622 0.019867126 0.08001076 0.08717816
0.06630487 0.0035351007 0.039507918 0.07268581 -0.02411023 0.044224437 -0.092228256 0.05683665
-0.028407492 -0.07944833 -0.061183874 -0.0006208286

encoder.6.weight f4 [100]
00000000: 28d0 7f3f 6431 803f d341 803f a7a6 7f3f
00000010: e23a 803f 020e 803f 9f19 803f 89f2 7f3f
00000020: 6b16 803f 641e 803f 4c27 803f dbce 7f3f
00000030: 4dd1 7f3f 26b5 7f3f 802a 803f 7b15 803f
00000040: ef09 803f 65c9 7f3f 3112 803f f293 7f3f
00000050: 520f 803f d0cd 7f3f 481e 803f 36f3 7f3f
00000060: 429f 7f3f a93c 803f 5d2c 803f 22bf 7f3f
00000070: 1eb6 7f3f f8d4 7f3f ab13 803f f8c8 7f3f
00000080: 2a00 803f 080d 803f 3e2a 803f 9504 803f
00000090: f873 803f 5308 803f 79ac 7f3f 7d88 7f3f
000000a0: c4de 7f3f c6da 7f3f 2004 803f 0c46 7f3f
000000b0: a20f 803f 630e 803f 149d 7f3f 4d2d 803f
000000c0: 980d 803f a090 7f3f f202 803f 590e 803f
000000d0: 42bc 7f3f b4fe 7f3f b0cc 7f3f b600 803f
000000e0: d38b 7f3f 0018 803f 2319 803f 3127 803f
000000f0: f707 803f c6e2 7f3f 7891 7f3f 95d2 7f3f
00000100: 6c0c 803f 3d9e 7f3f 3e80 7f3f c806 803f
00000110: 0910 803f b7a8 7f3f 483e 803f e7ee 7f3f
00000120: f5ec 7f3f 2909 803f 790d 803f 0d02 803f
00000130: ad9e 7f3f 3af9 7f3f 8127 803f 5de4 7f3f
00000140: 0816 803f 0c8d 7f3f 7a13 803f 5c4d 803f
00000150: 581e 803f 7ebc 7f3f 0412 803f a8c6 7f3f
00000160: 452e 803f 993b 803f 42c1 7f3f 2fb2 7f3f
00000170: 3e2d 803f c512 803f 71c1 7f3f edfb 7f3f
00000180: 39a9 7f3f bfcb 7f3f 0a2d 803f 21a9 7f3f
0.99926996 1.0015073 1.0020088 0.99863666 1.001797 1.0004275 1.0007819 0.99979454
1.0006841 1.0009274 1.0011992 0.9992501 0.9992874 0.99885786 1.001297 1.0006555
1.0003031 0.9991668 1.0005552 0.9983512 1.0004675 0.9992342 1.0009241 0.99980485
0.99852383 1.0018512 1.0013539 0.9990102 0.99887264 0.9993434 1.0006002 0.9991603
1.000005 1.0003977 1.0012891 1.0001398 1.0035391 1.000254 0.9987255 0.9981764
0.9994929 0.99943197 1.0001259 0.9971626 1.0004771 1.000439 0.9984906 1.0013825
1.0004148 0.99830055 1.0000899 1.0004379 0.99896634 0.9999802 0.99921703 1.0000217
0.9982273 1.0007324 1.0007671 1.001196 1.0002431 0.99955404 0.9983134 0.999307
1.0003791 0.9985083 0.9980506 1.000207 1.0004894 0.99866813 1.0019007 0.9997391
0.9997094 1.0002795 1.0004112 1.0000626 0.99851495 0.99989665 1.0012056 0.9995783
1.0006723 0.99824595 1.0005944 1.0023608 1.000926 0.9989699 1.0005498 0.999125
1.001412 1.0018188 0.99904263 0.9988126 1.0013807 1.0005728 0.99904543 0.99993783
0.9986759 0.99920267 1.0013745 0.99867445

encoder.6.bias f4 [100]
00000000: fe22 613a a081 49ba de3c 7639 a2a7 b93a
00000010: f3df 46ba e329 a439 4c82 6bb9 fc9c 0aba
00000020: 9d7a 6eba 39f0 df3a 4767 1eba 367a d03a
00000030: 5181 973a bb93 aeba 5296 adb8 438f a7b9
00000040: 215a 543a dbfa 7c39 3ffe db3a e122 a139
00000050: d79f 1939 d93e cf3a f5f9 8fb9 c5d2 ab3a
00000060: 8ccc 02ba 2d48 363a 9ee9 12bb 4768 db39
00000070: a3dd a63a 9093 05b8 81b7 bc3a a8de 09b7
00000080: 9773 f1ba 8121 6f39 c418 52b8 8a64 dc3a
00000090: fd7b a6ba 29f9 073a ed6c f53a b752 f839
000000a0: fd21 1bbb d448 fdba 32e6 f7ba 6bd0 323a
000000b0: 884f a6b9 83d8 5dba 4936 0f39 5532 b239
000000c0: 7104 103b 8c78 873a 038c 003a fc4f dcb7
000000d0: d666 3cba 5708 b639 5e90 0b3b dba0 2d3a
000000e0: 071b 5eba 7afe 3e3a d4b3 18ba 70c2 12bb
000000f0: a1f0 0c39 d0df 203b a825 083a 5301 b53a
00000100: 6ccb 5fb9 7a5f 0e37 3af3 0d3b 0726 4639
00000110: 6621 9c3a 9b18 0a39 b6b9 0ebb 9cdf 87b8
00000120: 2470 80ba e8d1 1fba 0921 3b39 cb03 ad3a
00000130: 5489 27ba 74b7 a439 38fd f7b9 d1ed a6b9
00000140: 497d 7539 43f5 94ba 6bf6 1439 c73a 20bb
00000150: a9a9 5ab6 494f 4fb9 6ba0 30b9 ced2 1b3a
00000160: 1634 e939 7449 b139 f2ec 263a 8b8e 2aba
00000170: 8100 02bb a6cb c83a 2779 ea39 b674 9f3a
00000180: 2345 b3b9 e66d 5d39 2e4d d5b9 2401 37b9
0.0008588283 -0.0007686857 0.00023483063 0.0014164338 -0.00075864716 0.00031311726 -0.00022459886 -0.0005287675
-0.00090972503 0.0017085142 -0.0006042611 0.0015905562 0.0011558925 -0.0013319174 -8.277282e-05 -0.0003195946
0.00081005885 0.00024126044 0.0016784145 0.000307343 0.00014650762 0.0015811577 -0.00027461318 0.0013109079
-0.00049895863 0.0006953504 -0.0022417079 0.00041848628 0.0012730848 -3.18471e-05 0.001439795 -8.2176775e-06
-0.0018421289 0.00022805297 -5.0090966e-05 0.0016814631 -0.0012701746 0.0005186969 0.0018724479 0.00047363873
-0.0023671382 -0.0019324073 -0.0018913208 0.0006821218 -0.00031721243 -0.0008462744 0.00013657766 0.00033988306
0.0021975304 0.0010335608 0.0004903676 -2.626329e-05 -0.00071869546 0.0003471996 0.0021295766 0.00066233956
-0.00084726553 0.0007285845 -0.00058251363 -0.0022393726 0.00013441082 0.0024547465 0.00051935995 0.0013809599
-0.00021342718 8.486089e-06 0.0021659867 0.00018896918 0.0011911809 0.00013169872 -0.0021778173 -6.478952e-05
-0.0009799046 -0.0006096647 0.00017846016 0.0013199983 -0.0006391008 0.000314172 -0.00047300174 -0.00031839174
0.00023411693 -0.0011364598 0.00014206178 -0.0024449097 -3.2583287e-06 -0.00019770594 -0.00016844428 0.0005944193
0.0004448003 0.00033814798 0.0006367705 -0.0006506226 -0.0019836726 0.0015319481 0.00044722224 0.001216552
-0.0003419305 0.00021117143 -0.0004068403 -0.00017452665

encoder.6.running_mean f4 [100]
00000000: 375b 6e3e 2f1c 8d3e db20 733e 2140 833e
00000010: a866 403e c420 7e3e 2f0e 433e 1125 5c3e
00000020: 0c70 5d3e 3e36 653e 7b5e 313e 1317 283e
00000030: 5501 293e b67f 813e 9582 673e 4012 3c3e
00000040: 5ce8 223e c2e2 593e 0d44 583e 27e0 283e
00000050: 8807 1f3e 1ccc 293e 587a 6d3e db2d 433e
00000060: c574 1c3e 3f23 3d3e 159b 6b3e f433 663e
00000070: 6580 2c3e d5c7 663e 72ed 223e 0dd8 7a3e
00000080: 00f6 693e 895b 7e3e bcb1 763e bc69 303e
00000090: 8324 493e 2aae 403e bbe5 2c3e c128 2c3e
000000a0: 2a32 653e 6c48 4d3e 992e 483e 8ff1 5e3e
000000b0: 45e9 233e f0e2 393e b932 7a3e 4d68 803e
000000c0: c9b9 323e a527 483e b279 2e3e 3faa 5d3e
000000d0: 964c 403e 8adc 353e 5a97 2d3e 643f 883e
000000e0: 5b79 153e d41d 3f3e c18d 813e 83da 883e
000000f0: a52f 5c3e 4dfc 403e 545f 3d3e 549a 733e
00000100: 0da7 2a3e ce93 3a3e f2a8 2f3e b77e 593e
00000110: f3dd ea3d a650 343e 4ac3 593e 25a4 333e
00000120: e88f 523e 9435 3a3e b183 933e dfc9 913e
00000130: f437 733e 6f68 383e 5482 3a3e 5119 773e
00000140: f15f 7b3e 626c 4d3e c352 2b3e 9a21 0e3e
00000150: db98 523e 21b5 383e dd1a 8d3e a1c0 653e
00000160: 4c18 7e3e eaef 5f3e e42c 503e 76f0 783e
00000170: d4b9 553e 1a0c 3d3e eb6e 113e cc2c 633e
00000180: 4db6 1c3e a683 343e f770 443e 19a6 413e
0.23276983 0.27560565 0.23743002 0.25634864 0.1878916 0.24817187 0.1904838 0.21498515
0.21624774 0.22383973 0.17321198 0.16415052 0.16504414 0.25292748 0.22608407 0.18366337
0.1590895 0.21277907 0.2111971 0.16491757 0.15530217 0.16581768 0.23191202 0.19060461
0.15278919 0.18470477 0.23008378 0.22480756 0.16845854 0.22537167 0.1591089 0.2449648
0.22847748 0.24839605 0.24091238 0.17227834 0.19642834 0.18816438 0.1688451 0.16812421
0.22382417 0.20047158 0.19549026 0.21771835 0.16006954 0.18152976 0.24433412 0.25079575
0.17453684 0.19546373 0.1703861 0.21646975 0.18779215 0.1775991 0.16952267 0.26610863
0.14597075 0.18663722 0.25303462 0.2672921 0.2150255 0.18846245 0.18493396 0.2378934
0.16665287 0.18220446 0.17154291 0.21239744 0.11468115 0.1760889 0.21265903 0.17543085
0.20562708 0.18184501 0.2881141 0.28474328 0.23751813 0.18008588 0.18213779 0.24130751
0.24548317 0.20060876 0.1673079 0.13880005 0.20566122 0.18037845 0.27559558 0.22436763
0.24813956 0.21868864 0.20329624 0.24310479 0.20871669 0.18461648 0.14202468 0.22185057
0.15303917 0.17628345 0.19183718 0.18911017

encoder.6.running_var f4 [100]
00000000: 6ffc f43d 10b8 163e a9e7 053e ef2a e73d
00000010: 949e a83d 2e52 1d3e 2175 be3d 80f8 b43d
00000020: d315 de3d b268 203e bbd5 913d 1ef1 953d
00000030: bab2 cc3d cc9e f33d be41 d53d e5ff b43d
00000040: eac8 8f3d c0cb b03d 966f da3d c532 c13d
00000050: c077 843d 0a31 a13d 17e9 383e 4d93 dd3d
00000060: f955 9c3d cd7a c73d 4124 f63d 1ddb ca3d
00000070: b611 9f3d 40a2 243e 9e17 983d 39fc ea3d
00000080: 7682 1a3e f98c fb3d b383 223e 6560 b23d
00000090: 969d e43d 9948 ab3d 1b4d d53d e55c 973d
000000a0: fabf 203e 6ca5 8f3d d413 d53d 5cfd f23d
000000b0: 0524 c13d af56 363e 7aac 103e a1b0 e73d
000000c0: 14b8 b63d b972 cd3d 572f b23d e7cd c53d
000000d0: e450 b33d 0648 a13d 7915 a23d 0b1a 2f3e
000000e0: e644 633d 87b9 be3d f007 c63d c5f6 133e
000000f0: c788 c03d dce3 ae3d e765 cc3d ee9c 353e
00000100: 3c29 bf3d 1c18 a83d 114a cb3d abf3 cc3d
00000110: 1851 213d cef0 c23d 16d5 133e af52 9d3d
00000120: 9367 1b3e ab8d e63d be6b 3a3e eeb8 153e
00000130: ff72 d63d 2271 d53d 8a47 b53d a5ea f93d
00000140: 2d74 953e 5150 c73d ce40 7e3d 766e 5d3d
00000150: 3a96 e83d 0dd2 d23d 33ed 1b3e 62bf b13d
00000160: 8bfc 1d3e 5696 cd3d e55c dc3d e2e5 c73d
00000170: fb03 e33d 9efb b83d bc80 903d 297b 183e
00000180: c288 8d3d 2a44 db3d 03ec b23d 4f2e e13d
0.119622104 0.14718652 0.13076653 0.11287486 0.082333714 0.1536338 0.09299684 0.0883646
0.108440064 0.15664938 0.07120844 0.0732138 0.09995027 0.118955225 0.1041293 0.088378705
0.07020743 0.08632612 0.106658146 0.09433512 0.06468153 0.078706816 0.18057667 0.10819111
0.076335855 0.09740219 0.12018634 0.09905074 0.0776705 0.16077518 0.074263796 0.11473889
0.1508883 0.12282748 0.15870552 0.08709792 0.1116287 0.08363456 0.10415097 0.07390765
0.15698233 0.070139736 0.104041725 0.11864731 0.09430698 0.17806505 0.14128295 0.11312986
0.08921829 0.10031647 0.087004356 0.096584134 0.08755663 0.078750655 0.07914252 0.17099778
0.05548563 0.0931273 0.09669483 0.14449604 0.09401088 0.085395545 0.09980374 0.17735645
0.09334037 0.082077235 0.099262364 0.100074135 0.039383978 0.09518586 0.14436755 0.07681786
0.15176229 0.1125749 0.18205163 0.14621326 0.104711525 0.10421969 0.088515356 0.12202958
0.29190198 0.09732116 0.06207352 0.054060422 0.113567784 0.1029397 0.15227203 0.086790815
0.15428369 0.1003844 0.10759906 0.097606435 0.110847436 0.09032367 0.07055804 0.14890732
0.0691085 0.10706361 0.08736422 0.10995161

encoder.8.weight f4 [18, 100]
00000000: a3b0 25bc 7f6e 813d 09a9 adbd 4188 533d
00000010: 836f b33d 64f5 003b 61df 90bc b72c 0ebd
00000020: c824 45bd 305a b23d 5999 a73c 8152 cc3d
00000030: 6203 adbd 4620 203d 6d40 e3bb 3b5f 723d
00000040: 7e72 513d f5e0 0d3d 5ba2 c33d 89e7 953d
00000050: 5109 233c 6e56 4ebd 1b5c aabb 8a5d 72bc
00000060: 92ad 1fbb c6b5 be3d d73e 233d 2f7a 123c
00000070: ea90 efbc 3984 9d3d fa8a c63d 5cda edbc
00000080: 3ada 723b 8089 ac3d 16dc f83c 278b 933c
00000090: 18ff 5a3d 9b41 983d d0a1 f3bc 606d 543d
000000a0: f32c 9e3d a560 893d 675b a23d 3d9b 3c3d
000000b0: 3ca6 96bc 524a 88bd d2f7 263d 03e2 a73d
000000c0: 8311 483c 6103 1b3d 856d fabc 7ca9 42bd
000000d0: 7f52 ab3d a4ce 1ebd 80e0 863c 94da 223b
000000e0: 3930 6ebd 1fbc 04bb c6bd 353d 7185 b43d
000000f0: 2c06 153d ea9c bcbd a992 bcbd f41d 913d
00000100: c4fd 5c3d b3c4 b73d 4af5 90bd 7881 eabb
00000110: 353b 963d c954 0abd 3c13 783b 508c b9bd
00000120: 009b aa3c 8a01 5b3d 78a0 2e3d d48c ba3d
00000130: 30ab 4dbc d3d8 043c e6c0 b63d 6d17 813c
00000140: 0c8f 6abd b541 2fbd 747c b1bc 2321 bc3d
00000150: 8e27 913d 1b3a 83bd 967d a63c d399 a53d
00000160: 0cbe bcbd 98aa a33d 0fcf ad3c 198a 203d
00000170: 845d df3b 7c39 7c3d 1c59 a6bd b531 c1bd
00000180: 9c3c c1bd 69a5 01bd c5fe 06bd 65bd d73c
00000190: 516a 963d 8417 86bd 4c69 fb3c 8d92 4bbd
000001a0: 14a2 d6bc 041f be3d 896d 60bc 5c41 0dbc
000001b0: 9366 543d e34d 93bd 05f9 17bc caf4 793d
000001c0: 8f46 8bbb 602e 4bbd 96e8 3fbd bf13 b8bd
000001d0: c555 43bd f42b 523c 0e99 4c3b 6a49 cd3c
000001e0: b6e0 2e3c b63b 543c 95ae 7d3d e1b1 543d
000001f0: 23a2 da3b d065 3cbc 42fd 9bbd 25dc b63d
00000200: 5548 9cbd 6cbb c1bd 96ea 773d 1b20 cb3d
00000210: e890 853d fe31 2d3c 6519 6cbd 0ab6 97bd
00000220: 95e2 2abc 6f2c c23d 81ca c83d 86ec b93d
00000230: 8402 c33d 47b3 c63d 5fe2 7f3d 7874 dcbc
00000240: e966 75bd e4f6 943c b955 e33a 4696 8cbd
00000250: fdf8 a63d 94fe 50bd cb2b 883d f79d bc3d
00000260: 68bd a13d 906f 943d 807c c1bd 8e96 8a3b
00000270: b727 98bc 6228 323d e353 de3c 8183 9f3c
00000280: ea1f 2b3d 8923 ae3d fc97 113d 0a41 82bc
00000290: f227 6b3d ea14 a03d 2626 b93d 3c9c b0bd
000002a0: f659 703d 6c0d 543c a0ec 83bd 48ac 86bd
000002b0: 4b0c 513c 31b7 2fbd 2db1 723d 4419 92bb
000002c0: 7ee2 593b ffb2 1cbc 335b a3bd b506 bb3d
000002d0: 5e69 9f3d f78d cabd 61e5 3dbd 05d0 84ba
000002e0: 559e 6c3c 8223 b3bd 49a3 c4bd 7e3f bb3c
000002f0: edb8 19bd b9ed b33d 612e b0bd 6682 8b3d
00000300: afc2 bfbd 73bc 7e3d bb3b df3c b2c2 0a3d
00000310: 8da5 4bbd d2a7 c23d 00b1 69bd 7393 96bd
00000320: e5b3 bebd 87fd bbbd 335d 15bd fca3 bfbd
00000330: 596c 31bc 5291 453d cd4b be3c 98fd 7dbd
00000340: 4692 0f3d 71c3 41bc 8f46 84bc 375c 8d3d
00000350: 1533 a5bd efa3 fcbc 2386 92bd 68e7 11bd
00000360: 9bbc 0f3d 360f c43d 82b0 163d 0fe4 88bc
00000370: 6a14 813d d37c 9ebb 143b 923d 3190 d03c
00000380: c198 c33c 6d9f 653d 6db6 3c3c fcb7 43bd
00000390: 7d2a 90bd 5f0e 5cbb b87f 20bb c335 a53d
000003a0: c9d2 013b 2e28 aabc a4e3 ddbc bdad 60bb
000003b0: aeb7 58bd ebcc b83d a5bf 2ebd 3e90 2c3d
000003c0: 65b5 94bd 42d4 1b3d 20a4 12bd c26c 9a3d
000003d0: 6e1b af3d bd71 893c 9496 c13d 8629 abbd
000003e0: 7a7a 123b af43 0abd faff 933d cd2c ad3d
000003f0: 26c1 c63c 35d3 32bd 4f73 423d 0705 f73c
-0.010112914 0.063199036 -0.084795065 0.051643614 0.087615035 0.0019677514 -0.01768464 -0.034710612
-0.04813078 0.08708608 0.020458864 0.09976674 -0.08447911 0.03909328 -0.0069351704 0.05917285
0.05113458 0.034638364 0.09552451 0.073195525 0.009950952 -0.050375395 -0.005198968 -0.014792809
-0.002436493 0.09312014 0.03985485 0.008940264 -0.029243905 0.07691235 0.096944764 -0.029034786
0.0037056343 0.084246635 0.030378383 0.018010689 0.053465933 0.07434388 -0.029740244 0.05186212
0.07723417 0.067078866 0.0792759 0.046046484 -0.018389814 -0.066548005 0.040763684 0.08197405
0.012211206 0.03784502 -0.030569801 -0.047524914 0.08365344 -0.038771287 0.016464472 0.002484952
-0.058151457 -0.002025373 0.044370435 0.088145144 0.03638284 -0.092096165 -0.09207661 0.07085791
0.053952947 0.08973064 -0.07078035 -0.007156547 0.073355116 -0.033772264 0.0037853261 -0.090599656
0.020825863 0.053468265 0.042633504 0.09108892 -0.012553021 0.008108336 0.08923511 0.01575824
-0.057265326 -0.042787272 -0.02166579 0.09186008 0.070876226 -0.06407567 0.020323556 0.0808598
-0.09215936 0.079915226 0.021216897 0.0391942 0.006816568 0.06157826 -0.08122465 -0.09433309
-0.094353884 -0.031651888 -0.03295781 0.026335428 0.07344497 -0.06547454 0.030689858 -0.04970031
-0.026200332 0.092832595 -0.01369799 -0.00862154 0.051855635 -0.0719259 -0.0092756795 0.061024465
-0.0042503546 -0.049604774 -0.04685267 -0.08988141 -0.047689218 0.012827862 0.0031219157 0.02505942
0.010673692 0.012953689 0.061934073 0.05192745 0.0066721602 -0.011498883 -0.076166645 0.08928708
-0.07630984 -0.09459576 0.060526453 0.09918233 0.06521779 0.010571001 -0.057641406 -0.07407768
-0.010429998 0.09481131 0.098042496 0.090783164 0.09521964 0.09702163 0.062471744 -0.026911005
-0.059912596 0.018184133 0.0017344273 -0.068646 0.081529595 -0.051024035 0.06648978 0.09209817
0.078974545 0.07247841 -0.094475746 0.0042293733 -0.018573625 0.043495543 0.02713961 0.019471886
0.041778482 0.085028715 0.035545334 -0.015900154 0.05741114 0.07816489 0.09040479 -0.08623549
0.058679543 0.012942653 -0.06441617 -0.06575829 0.0127592785 -0.042899314 0.059251 -0.0044585783
0.0033246572 -0.00956416 -0.07976379 0.09132139 0.07783769 -0.09890359 -0.04636133 -0.0010132795
0.014442046 -0.08747007 -0.09601457 0.022857424 -0.037529875 0.087855764 -0.08602596 0.06811981
-0.09363305 0.062191438 0.027250161 0.033877082 -0.04971843 0.095046654 -0.057053566 -0.073523425
-0.09311656 -0.09179216 -0.036465835 -0.093574494 -0.010829055 0.04823429 0.023229504 -0.062009424
0.035051607 -0.011826382 -0.016146926 0.06902354 -0.08066384 -0.030839888 -0.07154491 -0.035621077
0.035091978 0.09573214 0.036789425 -0.01671031 0.06302722 -0.0048366576 0.071401745 0.02545938
0.02387655 0.056060243 0.011518103 -0.047782883 -0.07039354 -0.0033577902 -0.0024490189 0.08066895
0.0019809476 -0.020771112 -0.027086087 -0.0034283244 -0.052909546 0.0902346 -0.042663235 0.042129748
-0.07261161 0.03804422 -0.035801053 0.07540275 0.08550154 0.016777867 0.094525486 -0.08357529
0.0022350834 -0.033755954 0.07226558 0.08455811 0.024262022 -0.043658454 0.047473248 0.030153764

encoder.8.bias f4 [18]
00000000: cf0c 883d 2767 aebc 689b cb3d d6d2 b1bd
00000010: bab6 a93c ca26 88bd 5d07 33bd f7ad 633c
00000020: 5e87 39bc ce57 9ebd a215 0d3c e89c af3d
00000030: ffd5 303d a055 c43d bc63 383d 73e9 6bbd
00000040: e412 8e3d 6587 a5bd
0.06643068 -0.021289421 0.09941751 -0.08682792 0.020717014 -0.066480234 -0.043708194 0.013896457
-0.011323778 -0.07731591 0.008611115 0.08574849 0.043172833 0.09586644 0.04501699 -0.05759568
0.06937197 -0.08082465

encoder.10.weight f4 [18]
00000000: 3959 803f f122 7f3f fa2b 803f 47b3 803f
00000010: e8fa 7e3f 899d 803f 0838 803f 7a81 7f3f
00000020: 998d 803f 18a0 7e3f f5c7 7f3f 8f70 803f
00000030: e14f 803f f53d 803f ae3c 7f3f dbe2 7f3f
00000040: 0fa1 803f 104c 803f
1.0027229 0.9966269 1.001342 1.0054711 0.996016 1.0048076 1.0017099 0.9980694
1.0043212 0.99463034 0.99914485 1.003435 1.0024377 1.0018908 0.99701965 0.9995553
1.0049151 1.0023212

encoder.10.bias f4 [18]
00000000: f8ff 81b8 bd59 943b f000 b83b 5650 b9bb
00000010: 4edf 54bb 25ae cfbb b10c d93b e7fe 38bc
00000020: 0239 44ba 5310 a43b b506 a03b bde4 2a3b
00000030: 8184 943a fcdb 71bb 4bab ca3b 7131 2e3b
00000040: 9cbd e4bb 0abf 87ba
-6.198877e-05 0.004527299 0.005615346 -0.0056553287 -0.0032481733 -0.0063378983 0.0066238274 -0.011291242
-0.00074853015 0.005006829 0.004883612 0.002607628 0.0011330993 -0.0036904803 0.0061849705 0.0026579762
-0.006980611 -0.0010356617

encoder.10.running_mean f4 [18]
00000000: 84ec ae3e cc96 8e3e f74c ae3e b4c7 793e
00000010: 903c a83e 3d49 613e 54cb 903e 0815 ce3e
00000020: 1737 993e 60ba 663e ee60 a93e 6237 ae3e
00000030: 5d1a a23e d615 b23e 74fb ba3e b929 8f3e
00000040: 20bd 993e e881 933e
0.34164822 0.27849424 0.34043095 0.24392587 0.32858706 0.22000594 0.28280127 0.4025042
0.29924843 0.22532034 0.33081764 0.3402663 0.3166074 0.34782284 0.36519969 0.2796152
0.30027103 0.28810048

encoder.10.running_var f4 [18]
00000000: b51c 9a3e f767 403e d83f 413e 73d8 213e
00000010: cd85 7c3e 3399 1c3e a9f3 513e a7c9 d63e
00000020: 9f5b 6a3e 52b0 0f3e 7184 953e b684 863e
00000030: 0419 7a3e 47be 893e 0a6a b13e 7ec2 4a3e
00000040: 4bbf 4a3e 9106 6d3e
0.30100027 0.1878966 0.1887201 0.15805225 0.24660416 0.15292816 0.20503105 0.41950724
0.22886513 0.14032105 0.29202607 0.26273125 0.24423605 0.26902983 0.34651214 0.19800755
0.19799535 0.23147036
