autoencoders/lightning_logs/mlp/version_0/checkpoints/epoch=149-step=24749.ckpt (torch, 585337 bytes, 94 tensors)

encoder.0.weight f4 [100, 100]
000000 be 2c 45 3c e2 2d 32 bd 19 d4 8e bd aa da 3d bd
       0.012034593 -0.04350079 -0.06974048 -0.046351112
000010 66 d0 bb 3d 8e d5 91 3d cd 5d 2a 3c 1d a9 b1 bc
       0.09170608 0.071208104 0.01039834 -0.021687085
000020 89 87 c8 3d b9 d8 c4 bc 2c d5 99 3c 63 17 48 bd
       0.09791476 -0.024029123 0.018778406 -0.04885043
000030 f1 98 0d 3b 95 cc 19 bd 7f 1e a5 3d 6c 50 2d 3d
       0.0021606053 -0.03754862 0.08062457 0.042313024
000040 bb 73 9b bc 25 db de 3c d5 2f 9b 3d 78 f4 8f 3d
       -0.018976083 0.027204106 0.075774826 0.070290506
000050 28 53 e1 3c e8 e0 91 3d 53 ff 77 bd 28 d2 93 bc
       0.027505472 0.071229756 -0.06054623 -0.018044546
000060 96 a4 b8 3c db c6 9f 3d 23 fb 2e 3d 5e b2 79 bd
       0.022539418 0.078016005 0.04271997 -0.06096112
000070 4c f4 73 3d 86 d3 24 bd 8d ae 6b 3d de ee f2 3c
       0.05955915 -0.040240787 0.05753951 0.029654916
000080 02 3a 41 3c fd 68 c3 bd b0 00 4e bd 62 e7 50 3d
       0.011793615 -0.09541509 -0.050293624 0.051001914
000090 a2 4b 85 bb 56 12 77 3d b5 1f a4 3d 31 c9 96 bd
       -0.004067854 0.06032022 0.0801386 -0.07362593
0000a0 1d 28 b1 bd 1f 70 18 3d 24 f9 67 3d 5b d5 a6 3d
       -0.08650229 0.037216302 0.056634083 0.08146163
0000b0 73 13 be 3d 0d 15 ee bb 7c d1 42 3d 5c 2a b9 bd
       0.092810534 -0.007265693 0.04756306 -0.090412825
0000c0 f7 79 71 bc a2 91 99 bd 59 0e ef bc cf ff 42 bd
       -0.014738551 -0.074984804 -0.029181646 -0.04760724
0000d0 7c b7 87 3c 42 84 87 bd b1 8e 2c bd 40 e8 b9 bd
       0.016566984 -0.06617023 -0.04212827 -0.09077501
0000e0 c3 c2 e5 bc af 49 a7 bd 71 61 65 bd 42 d0 9c bd
       -0.028046971 -0.08168351 -0.05600113 -0.076569095
0000f0 5b 86 af bd 93 50 5a 3d 13 72 69 3d 27 e3 88 3d
       -0.08570548 0.053299498 0.056993555 0.06683951
000100 b1 58 8a 3d be f0 ac bd 03 b5 74 bd 07 ba 31 3d
       0.06755198 -0.084443554 -0.05974294 0.0433903
000110 6e 17 87 3d 97 9c 08 3d 81 ed 49 bb 05 1a 7c bd
       0.06596266 0.03335246 -0.003081173 -0.06154825
000120 5d 27 37 3d 29 8d 3a bd be 06 95 bc 89 5b a4 3d
       0.044715274 -0.045544777 -0.018191691 0.080252714
000130 90 bd ba 3c 96 29 ad 3d 35 f4 2d bd ab 6d d1 bd
       0.022795469 0.084551975 -0.042469222 -0.10225996
000140 6b 5f 6c bd 7a 5e f8 ba 2e f9 82 bd 00 5d 5a bd
       -0.057708185 -0.0018949055 -0.063951835 -0.053311348
000150 22 eb be 3d 46 1d 18 bd 97 52 26 bd b7 82 5a 3c
       0.09322192 -0.037137292 -0.040606108 0.013336829
000160 11 ab 50 3d 19 e4 b5 bd 76 16 cf bc 8c 08 bd ba
       0.05094439 -0.08881397 -0.025279265 -0.0014422103
000170 36 4c 05 3b 8b 73 bd bd d3 5c b2 bd 99 2d 6b bd
       0.0020339615 -0.09250554 -0.08709111 -0.057416532
000180 cb be ab bb 49 fb a7 bd 17 61 4e 3c ae 12 b6 3d
       -0.00524125 -0.08202226 0.01259639 0.088902816
000190 72 1e b7 bc 20 af c3 3d 95 bb 3d 3d 99 6e 50 3d
       -0.022353385 0.09554887 0.04632147 0.050886724
0001a0 f5 18 9c 3d d8 e2 b6 bd cf eb 8d bd e2 c7 00 bd
       0.07621948 -0.08929986 -0.069297425 -0.031440623
0001b0 46 5f a6 3d 6e 97 04 bd 5a e4 b3 3d a2 5e ca 3b
       0.08123641 -0.032370977 0.08783789 0.006175832
0001c0 0b eb a2 bc 14 bc 93 3d c8 34 75 3d 65 58 8b 38
       -0.019887468 0.072136074 0.05986479 6.644501e-05
0001d0 ae 4f 3a bd b6 3e a8 bc 62 be 46 bd cb b9 6e 3d
       -0.045486145 -0.020537715 -0.048521407 0.058282655
0001e0 e9 13 50 bd b5 ef 24 bc 3a 2c 87 bd 7b ee 18 3d
       -0.050800238 -0.010066916 -0.066002324 0.037336808
0001f0 93 2a a9 bd 0e 28 c3 3d aa 69 4c bc 3e 0c 79 3d
       -0.082600735 0.09529124 -0.012476364 0.06080269
000200 5e 67 cd 3c 64 f1 b5 bc 74 a8 cf bd a9 d4 ba bd
       0.025073703 -0.02220983 -0.10139552 -0.09122593
000210 6d 6f 1c 3d f9 7f c1 3d cb 09 39 39 19 32 3f bd
       0.0381922 0.09448237 0.00017646623 -0.046678636
000220 cc 6e d4 3c 66 ad 50 bd 4c 0a c0 bd 56 e1 26 3b
       0.025931738 -0.050946616 -0.09376964 0.00254639
000230 76 cc 58 3d f6 fd 42 bb ea 6d 73 3c f2 80 b0 bd
       0.052929364 -0.0029753423 0.0148577485 -0.08618344
000240 a5 9c d0 bc 83 d4 91 bd 1d 4e bf 3d fb 03 44 bd
       -0.025465319 -0.071206115 0.09341071 -0.04785536
000250 eb 4c 2c 3d 14 e5 5d 3d e2 bb bd b9 73 33 00 3c
       0.042065542 0.054173544 -0.00036188873 0.007824766
000260 d1 6d 17 3d fa a0 42 3d 6e c3 6d 3c 11 87 8b bd
       0.036969963 0.0475168 0.014511926 -0.06812871
000270 61 ec 6e bd b6 d3 17 3c 28 20 0f 3b f2 2b a4 3d
       -0.058330897 0.009266784 0.0021839235 0.080161944
000280 e0 4b 98 3d a6 40 9c 3d 3d c3 23 3d 01 c6 80 3d
       0.07436347 0.07629518 0.039981116 0.06287766
000290 96 7a 1c 3d e1 62 4e bd 71 b6 b7 bc 88 a1 06 bb
       0.038202845 -0.050387267 -0.022425862 -0.0020543057
0002a0 d4 0b 1e 3d 4d de 91 bd 24 2c 82 3d 8f ba 15 bc
       0.0385855 -0.07122479 0.063560754 -0.009138717
0002b0 88 17 86 3d 8c f7 25 bd 52 d8 22 bd a1 a6 5e 3c
       0.06547457 -0.040519282 -0.03975708 0.013589532
0002c0 eb ff c6 bd 06 ce 7b 3d b9 6f bb bd 2e 8b 24 3d
       -0.09716781 0.061475776 -0.09152169 0.040171795
0002d0 6e f2 ea bb d8 19 9c bd 25 04 f1 3b e5 46 af 3d
       -0.007170013 -0.07622117 0.0073552304 0.08558444
0002e0 3f 5b b2 3d 9e a4 4d 3d 5f 82 3f 3d 77 8c fe 3c
       0.0870881 0.05020582 0.04675519 0.031072838
0002f0 35 2c 8e bd c5 e7 c6 3c e1 a1 40 bd 8a 99 1f 3d
       -0.069420256 0.024280438 -0.04702938 0.038964786
000300 7b 30 4b 3d b1 c2 bb 3d 29 7a ad bd 53 1a 13 ba
       0.04960678 0.09167994 -0.08470566 -0.00056115276
000310 cc 5a 9d bc c7 a4 56 3d d9 ec 9f 3d 1c 91 a9 bc
       -0.019208334 0.052403238 0.07808847 -0.020699076
000320 38 10 91 3d fb 80 06 3d 7e 46 a2 3d 6e b6 c2 bd
       0.070831716 0.03283785 0.079236016 -0.09507452
000330 e8 b2 95 bd af ed b5 bc 97 d6 73 3d e7 31 8b 3d
       -0.07309514 -0.022208063 0.05953082 0.067966275
000340 5d 50 61 bd 3c ec 83 3d ad 1c 36 bc cf d6 2d 3d
       -0.05500828 0.064415425 -0.011115235 0.042441186
000350 97 44 6a bd 7f b4 9c bd f4 ff 07 bd 53 53 1e bd
       -0.05719432 -0.076516144 -0.03320308 -0.038653683
000360 6b a0 71 3d 7c a4 35 bd 2f 71 85 3d 99 ce c1 bd
       0.058990877 -0.044346318 0.06515729 -0.094632335
000370 f8 35 bf bc aa fd b7 3d 08 be 2e bb bd e5 09 3d
       -0.023341164 0.089839295 -0.002666356 0.03366636
000380 14 a4 be 3c d0 36 c1 3c 25 7b 05 3d 7c 9e 16 3d
       0.023271598 0.023585707 0.032588143 0.036772236
000390 1b 6d 0a bd a6 2a 59 bd 73 bd df 3c 90 ea 64 3d
       -0.033795457 -0.05301919 0.027312016 0.05588776
0003a0 cc b2 6a bd 3c f6 1b bd 9f af df 3b e7 97 1a 3c
       -0.05729942 -0.038076624 0.0068263556 0.00943563
0003b0 4e 41 47 3c df 46 83 bd c3 5a 17 3c a1 d3 19 3c
       0.012161566 -0.06410002 0.009237948 0.009388835
0003c0 52 5c f7 bc 58 2c 2a 3d 9c 0a 79 bd ab 87 57 3c
       -0.030195389 0.041546196 -0.060801134 0.013154904
0003d0 c4 68 82 3d 8b a5 c0 3d aa 2e ac 3d e3 ed c4 3d
       0.06367639 0.09406575 0.08407338 0.09615686
0003e0 10 c1 c5 bd 65 26 5b 3d bd 91 b6 3d 18 e1 7c bd
       -0.096559644 0.053503413 0.08914516 -0.061738104
0003f0 99 78 79 3d c0 b8 95 bd 10 20 93 bd df 94 25 3b
       0.060906027 -0.07310629 -0.0718385 0.0025265736

encoder.0.bias f4 [100]
000000 2c b8 b6 3d 71 5b 61 3d 98 70 1f bd e1 5d 30 bd
       0.08921847 0.055018846 -0.038925737 -0.04305828
000010 52 45 3a 3d 08 21 ab 3d c6 37 98 bd 33 be 98 3d
       0.045476265 0.083559096 -0.07432513 0.074581526
000020 4b d6 96 3d 39 6e 33 bd 26 20 a0 bd 10 ed 2e 3d
       0.07365092 -0.04380629 -0.07818632 0.04270655
000030 90 4e ab bd c7 6c c1 3d 64 d8 bf 3c c3 f6 3e bd
       -0.08364594 0.09444576 0.023418613 -0.04662205
000040 2d 94 c5 3d 29 04 b0 3d 8d dd dd 3a 82 e3 5e 3d
       0.09647403 0.085945435 0.0016926989 0.054416187
000050 9e 45 97 bd 62 ea 2d 3d 84 a0 2e bd 19 4b 36 bd
       -0.07386325 0.042459853 -0.04263355 -0.044505212
000060 76 61 6c bd d0 61 a2 bc ab 33 18 3d 80 f1 ca 3d
       -0.057710133 -0.019822031 0.03715865 0.09909344
000070 21 0a 92 3c c5 21 ca 3d 1a 4b bd bd f3 6d 60 3c
       0.017827095 0.09869722 -0.0924284 0.013698089
000080 c8 7a fe bc 2a 45 b0 3d e9 4d ad 3d 49 70 21 3c
       -0.031064406 0.08606942 0.08462126 0.009853431
000090 6b 20 19 bd 20 d3 86 3b b9 85 b6 3b d9 ba dd 3c
       -0.03738443 0.0041145235 0.00557014 0.027066635
0000a0 24 10 b8 bc cc c4 b9 3d 88 1b 51 3d 08 f1 96 3d
       -0.022468634 0.09070739 0.051051646 0.07370192
0000b0 97 f2 ca 3d ef 15 62 3c 5e b9 85 bc 58 0c 87 3c
       0.099095516 0.013799175 -0.016323742 0.016485378
0000c0 c6 37 b4 3d 91 83 86 3d de cd 89 3d 70 92 83 3d
       0.087997004 0.06568063 0.06728719 0.06424415
0000d0 7b 85 72 3c 69 24 7c 3d 2a c9 31 3d 48 a7 2b bd
       0.014802332 0.06155816 0.043404736 -0.04190758
0000e0 ea 5f 37 bd 2c 6a 7f bc 2b 48 3a 3d 21 e9 ac 3c
       -0.044769205 -0.015589278 0.04547898 0.021107258
0000f0 70 e0 a8 3d 4e 04 b9 bc 4f 1e 58 bd b2 10 66 3d
       0.08245933 -0.02258506 -0.05276328 0.056168266
000100 1a b6 54 3c 89 88 f7 bb 46 63 0d 3d 93 e0 c3 3d
       0.0129828695 -0.007554118 0.034518503 0.095643185
000110 ea 5a c9 3b 18 2c af 3d be 62 38 3d e2 b3 72 3d
       0.006144871 0.08553332 0.045016043 0.05925358
000120 12 0a b0 3d 87 1d 73 bd f3 17 a6 bd 2b 12 6c bb
       0.08595671 -0.05935433 -0.08110037 -0.003602157
000130 ec 0c 09 3d 3d 0b 0e bd 1e 45 ea 3c 92 09 b6 bd
       0.03345959 -0.034678686 0.02859741 -0.08888544
000140 0a fe e7 3c ef 40 b6 bd 87 23 c7 bd ef be a5 3d
       0.028319377 -0.08899104 -0.09723573 0.08093058
000150 39 cc 26 bd 6c cf 8b 3d f4 23 79 3c 49 db 3e bd
       -0.040722106 0.06826672 0.015206326 -0.046595845
000160 44 df d8 3c 9d f5 13 bc 5a 43 2d 3c 93 7d 12 bc
       0.026473649 -0.009030727 0.01057514 -0.008941072
000170 5d 35 5f bd 15 23 f9 bc f1 22 07 3c 47 95 3e 3d
       -0.05449425 -0.030412236 0.008248077 0.04652908
000180 78 57 b2 bc 6d cc aa 3d 75 a3 87 bc d6 48 43 3d
       -0.021770224 0.083397724 -0.016557435 0.047676884

encoder.2.weight f4 [100]
000000 02 1c 80 3f 01 f3 7f 3f 00 b8 7f 3f df 65 7f 3f
       1.0008547 0.9998017 0.99890137 0.9976482
000010 48 0f 80 3f 45 01 80 3f 00 00 80 3f c4 8b 7f 3f
       1.0004663 1.0000387 1.0 0.9982264
000020 e2 1e 80 3f ab 14 80 3f 00 00 80 3f ad 14 80 3f
       1.0009425 1.0006307 1.0 1.000631
000030 45 11 80 3f 9f 08 80 3f 51 16 80 3f 45 e0 7f 3f
       1.000527 1.0002631 1.000681 0.99951583
000040 c4 e9 7f 3f 04 15 80 3f bc eb 7f 3f 6f e2 7f 3f
       0.99966073 1.0006413 0.9996908 0.99954885
000050 00 00 80 3f e3 31 80 3f 40 03 80 3f 48 0b 80 3f
       1.0 1.0015224 1.0000992 1.0003443
000060 81 8e 7f 3f 36 05 80 3f 0a 13 80 3f 91 fa 7f 3f
       0.9982682 1.000159 1.000581 0.9999171
000070 63 59 7f 3f 76 22 80 3f 00 00 80 3f 13 ea 7f 3f
       0.9974577 1.0010517 1.0 0.99966544
000080 2e 30 80 3f 46 9f 7f 3f 1d 08 80 3f a9 e1 7f 3f
       1.0014703 0.99852407 1.0002476 0.99953705
000090 d7 e5 7f 3f 1f 12 80 3f 5d 38 80 3f cf 3e 80 3f
       0.9996008 1.000553 1.0017201 1.0019168
0000a0 1c 16 80 3f 60 ce 7f 3f 80 e6 7f 3f 26 b4 7f 3f
       1.0006747 0.9992428 0.9996109 0.9988426
0000b0 fc b9 7f 3f b0 f2 7f 3f 79 da 7f 3f 37 e6 7f 3f
       0.99893165 0.99979687 0.9994274 0.99960655
0000c0 11 2f 80 3f e3 04 80 3f 2b 01 80 3f b8 9f 7f 3f
       1.0014364 1.0001491 1.0000356 0.99853086
0000d0 f6 d4 7f 3f b2 81 7f 3f 2a f4 7f 3f 7b 1f 80 3f
       0.9993433 0.99807274 0.9998194 1.0009607
0000e0 0a fd 7f 3f 9e ac 7f 3f f9 bd 7f 3f 0f f9 7f 3f
       0.9999548 0.9987277 0.9989925 0.9998941
0000f0 c0 04 80 3f 4c 1b 80 3f 35 d2 7f 3f 64 4a 80 3f
       1.000145 1.000833 0.99930125 1.0022702
000100 32 2f 80 3f 32 08 80 3f 54 90 7f 3f d8 bd 7f 3f
       1.0014403 1.0002501 0.998296 0.99899054
000110 fc a1 7f 3f dd ee 7f 3f fa 8b 7f 3f b5 eb 7f 3f
       0.99856544 0.9997385 0.9982296 0.99969035
000120 be d7 7f 3f 70 0d 80 3f 00 00 80 3f 12 e2 7f 3f
       0.9993857 1.0004101 1.0 0.9995433
000130 59 a8 7f 3f 80 a5 7f 3f 63 42 80 3f 00 00 80 3f
       0.99866253 0.9986191 1.002026 1.0
000140 c7 c9 7f 3f 00 00 80 3f 81 2d 80 3f 74 11 80 3f
       0.9991726 1.0 1.0013887 1.0005326
000150 96 fe 7f 3f e4 3c 80 3f 8d 5d 80 3f ac 1d 80 3f
       0.9999784 1.0018582 1.002855 1.0009055
000160 bf 0b 80 3f 8c 2a 80 3f 9f 12 80 3f 49 14 80 3f
       1.0003585 1.0012984 1.0005683 1.000619
000170 00 00 80 3f 0e c1 7f 3f 84 10 80 3f 1e e5 7f 3f
       1.0 0.99903953 1.000504 0.9995898
000180 a1 ff 7f 3f b7 1c 80 3f 7e bd 7f 3f ab 39 80 3f
       0.99999434 1.0008763 0.9989852 1.0017599

encoder.2.bias f4 [100]
000000 72 41 e5 38 28 f4 e7 b9 c2 f3 8e 3a ff 1f 0f 3a
       0.00010931761 -0.00044241664 0.0010906386 0.0005459785
000010 66 70 31 39 89 aa 36 b9 8b ce 87 3a e1 2e 6c 3a
       0.00016921907 -0.00017420402 0.0010361237 0.0009009671
000020 ff 94 f3 ba 0e ac d0 ba 87 dc 83 39 48 70 8d 3a
       -0.0018583833 -0.0015920417 0.00025150573 0.0010790909
000030 3e 2c 90 ba 4b da 96 39 09 cd a7 38 84 dc d9 ba
       -0.0010999513 0.0002877287 8.001371e-05 -0.0016621505
000040 99 fe 53 ba 86 14 c1 38 a4 d2 ea ba 20 a7 ea 39
       -0.0008086949 9.20678e-05 -0.0017915559 0.00044756476
000050 c4 c1 5e 3a 87 67 a2 3a d7 cb 02 ba a4 4e 50 b9
       0.0008497501 0.0012390473 -0.0004989481 -0.00019865722
000060 3a 6c 7c ba 85 16 7c ba 01 fc 6c ba ad 9e d7 39
       -0.0009629164 -0.0009616393 -0.0009040237 0.00041126218
000070 0c 57 92 3a 33 7b 8b ba d4 9e a8 3a 5f bc 64 38
       0.0011164858 -0.0010641575 0.0012864717 5.453487e-05
000080 d5 e7 7a ba db ba 77 b9 b7 4e 04 b9 cc 42 10 3a
       -0.0009571289 -0.00023625365 -0.00012617825 0.00055031176
000090 0a 2b 25 ba ff 77 aa 39 a5 fc 72 3a 59 80 f3 ba
       -0.0006300664 0.0003251433 0.00092692144 -0.0018577679
0000a0 a7 f1 9a 39 20 74 82 3a 20 97 6b b6 1d 63 91 3a
       0.00029553214 0.0009952821 -3.5105695e-06 0.001109216
0000b0 8c d6 23 3a 93 29 ec b9 ab 39 ef b7 7b 5a 50 ba
       0.00062499265 -0.00045044403 -2.8517874e-05 -0.0007948053
0000c0 65 9f 0c 3a c2 ca ab b9 20 01 f2 39 48 d8 de 38
       0.0005364328 -0.00032766728 0.00046158675 0.000106260704
0000d0 a9 6c 7b b9 71 4a c7 39 fa 64 05 39 cd b1 a0 ba
       -0.00023977704 0.000380117 0.00012721485 -0.001226002
0000e0 8a 33 68 39 8e f0 56 38 25 b3 55 39 3c 9a af ba
       0.00022144444 5.124561e-05 0.0002038 -0.0013397406
0000f0 68 75 8a ba 52 d8 e1 39 d2 c4 a5 ba 25 fb 15 ba
       -0.0010563554 0.00043076515 -0.0012647158 -0.00057213224
000100 82 5f 56 b9 b1 9e 2b 38 1d b9 30 ba 32 b3 cd 39
       -0.0002044421 4.091737e-05 -0.0006741451 0.00039234158
000110 82 8c 5c ba 1c 62 23 3b 65 37 eb 3a 0b d9 b5 b9
       -0.0008413271 0.0024930304 0.0017945586 -0.0003468472
000120 96 28 cb b8 d6 bf 74 3a 7b 21 a9 b9 5a e7 89 3a
       -9.687354e-05 0.0009336447 -0.00032259137 0.0010521219
000130 c5 fe 59 ba 11 47 75 3a 0f c5 d0 b9 39 2e 59 3a
       -0.00083158567 0.0009356598 -0.00039819672 0.0008284781
000140 8b df 98 3a ea cd dc 3a 47 c8 7f ba f3 36 97 3a
       0.0011663301 0.0016846035 -0.00097573217 0.0011536762
000150 15 c1 cb 39 68 c6 f9 ba 40 b3 f0 b7 07 a7 8f ba
       0.00038863035 -0.0019056322 -2.86937e-05 -0.0010959812
000160 a1 4d b4 b9 2f 7f 5b 3a 30 73 c6 3a 34 a9 cb b9
       -0.00034390113 0.0008373139 0.001514053 -0.00038845243
000170 61 b6 0e b8 4d dc 90 39 1b 4a a2 39 78 b5 ea ba
       -3.4025292e-05 0.00027629957 0.0003095426 -0.0017906865
000180 f4 71 e9 39 da e0 86 ba ae 8e 43 3b e5 59 8f 39
       0.00044526125 -0.00102904 0.0029839682 0.00027342062

encoder.2.running_mean f4 [100]
000000 00 0a ad 3d 15 42 6b 3d be 43 ac 37 6d 7d 3d 3a
       0.08449173 0.057436068 2.0535543e-05 0.0007228468
000010 0e c1 27 3d 04 5b a4 3d 00 00 00 00 67 6e 99 3d
       0.040955596 0.08025172 0.0 0.07491761
000020 7d d1 97 3d 60 d2 58 38 00 00 00 00 d5 e8 29 3d
       0.074130036 5.169434e-05 0.0 0.04148181
000030 32 3e 8b 33 10 29 b5 3d f0 b6 c5 3c 04 00 00 00
       6.484005e-08 0.08845723 0.024135083 6e-45
000040 ed 5b cb 3d 43 3b a4 3d 49 f8 9e 3b 57 ef 63 3d
       0.09929643 0.08019116 0.0048513752 0.055648174
000050 00 00 00 00 e7 29 38 3d 09 59 23 39 42 b8 f8 38
       0.0 0.044961836 0.0001557806 0.00011859882
000060 ac 08 f9 35 02 d5 46 3a 54 00 0e 3d 4e 8a ca 3d
       1.855447e-06 0.0007584841 0.03466828 0.09889661
000070 a4 80 83 3c 3f 09 bf 3d 00 00 00 00 1f b1 63 3c
       0.016052552 0.093279354 0.0 0.013897209
000080 18 b1 7a 36 d9 b0 b2 3d 51 c8 bb 3d 6b 88 24 3c
       3.7355985e-06 0.08725137 0.09169067 0.01004229
000090 1c 12 26 38 33 91 d4 3b 25 fa db 3b 1e 52 05 3d
       3.959435e-05 0.0064870357 0.006713169 0.032549016
0000a0 a7 fb c8 38 ca 0b bf 3d ee f0 44 3d c8 8e 90 3d
       9.583617e-05 0.093284205 0.04808133 0.07058483
0000b0 b4 97 ca 3d b3 16 65 3c df 51 5a 39 94 59 95 3c
       0.09892216 0.013982463 0.000208206 0.01823119
0000c0 7b 1e b3 3d 55 df 86 3d 49 b9 8b 3d 1c 4c 7e 3d
       0.08746048 0.06585566 0.0682245 0.062084302
0000d0 2a 55 a6 3c 88 34 6f 3d 31 1e 1d 3d 33 7d 30 38
       0.020304281 0.058399707 0.03835887 4.207827e-05
0000e0 da 0a 47 35 1c 5a 19 3a ad 1c 35 3d 08 0e 9c 3c
       7.414907e-07 0.0005849914 0.0442168 0.01904966
0000f0 72 c5 a3 3d 0e e7 3a 3a 7c fe a4 34 df e9 67 3d
       0.07996644 0.0007129767 3.0732542e-07 0.05661952
000100 d6 58 4b 3c d1 aa 05 3a 75 11 08 3d d1 83 b8 3d
       0.012411317 0.0005099001 0.033219773 0.09009517
000110 0b b3 be 3b c6 f4 bb 3d 88 41 35 3d 15 28 72 3d
       0.0058196834 0.09177546 0.04425195 0.059120256
000120 e3 38 ac 3d 88 e9 a8 37 00 00 00 00 32 31 7c 3b
       0.08409288 2.0135907e-05 0.0 0.003848147
000130 54 88 f4 3c cf ea ca 38 3c 2e f5 3c 00 00 00 00
       0.029850163 9.675847e-05 0.029929273 0.0
000140 da b0 d7 3c 00 00 00 00 0b e9 f6 34 df b7 a2 3d
       0.026329447 0.0 4.5990632e-07 0.07945227
000150 34 58 ad 37 23 d0 9b 3d 76 d3 68 3c 4e f2 a4 36
       2.066428e-05 0.07608058 0.0142105725 4.915789e-06
000160 ad 74 cc 3c 45 41 e3 3a b4 f6 56 3c c5 13 7c 3b
       0.02495798 0.0017338177 0.013120342 0.0038463932
000170 00 00 00 00 ee 41 7d 38 5f 84 2f 3c 69 41 5b 3d
       0.0 6.0381302e-05 0.010712712 0.053529177
000180 18 ed fc 39 9e b4 b7 3d 94 9d ff 39 0b f3 3a 3d
       0.00048241834 0.08969997 0.00048754795 0.04564194

encoder.2.running_var f4 [100]
000000 73 0c 41 39 f0 1a 5a 39 32 6b 28 34 7a 37 61 37
       0.00018410552 0.00020800135 1.5685217e-07 1.3423962e-05
000010 4c f1 6d 39 c5 a3 19 39 04 00 00 00 b9 52 41 39
       0.00022691971 0.00014652226 6e-45 0.00018436731
000020 74 e3 d2 38 24 de 20 35 04 00 00 00 e9 92 1e 39
       0.00010055947 5.99279e-07 6e-45 0.00015122782
000030 33 38 1f 30 cb 86 66 39 93 34 17 39 04 00 00 00
       5.7923727e-10 0.00021984724 0.00014420068 6e-45
000040 f3 ed e0 38 94 bd 3e 39 22 25 87 38 e2 fe 0e 39
       0.00010725474 0.00018190435 6.444218e-05 0.00013637127
000050 04 00 00 00 ae 3e 0a 39 9b 9f 0b 36 8a 66 d6 35
       6e-45 0.00013184056 2.0805517e-06 1.5974085e-06
000060 d5 ee 19 33 a4 45 a4 37 17 a0 19 39 ca bf ea 38
       3.5840305e-08 1.9582752e-05 0.00014650855 0.00011193713
000070 a1 31 d3 38 1e 19 36 39 04 00 00 00 b9 3d e9 38
       0.00010070508 0.0001736623 6e-45 0.000111218025
000080 3d 20 85 32 ce 52 f6 38 05 a7 b3 39 ac 63 d7 38
       1.5497898e-08 0.00011745618 0.0003426598 0.00010270564
000090 bb 1d 9b 34 8c 37 40 38 47 cd 5c 38 db c9 09 39
       2.8892632e-07 4.58281e-05 5.2643267e-05 0.00013140535
0000a0 2e 3a 01 35 78 3b 07 39 06 ac 11 39 7e a9 35 39
       4.814091e-07 0.00012896757 0.00013892361 0.00017324646
0000b0 41 04 eb 38 c5 56 cc 38 e7 9a 09 36 d9 ad ed 38
       0.000112064656 9.74364e-05 2.0504756e-06 0.00011333422
0000c0 10 07 08 39 d2 2a 0f 39 d1 81 20 39 e8 c7 2d 39
       0.00012972602 0.00013653495 0.0001530715 0.00016573037
0000d0 5e c5 8f 39 a2 64 04 39 ab 27 2f 39 fd bb 2c 35
       0.00027422135 0.0001262599 0.00016704078 6.434855e-07
0000e0 a7 a2 02 32 c8 cb 4c 37 96 3a 0e 39 45 18 0a 39
       7.603979e-09 1.2206794e-05 0.00013564 0.00013169747
0000f0 53 b6 13 39 99 76 6e 37 bc 44 58 32 79 db 09 39
       0.00014086934 1.4213519e-05 1.2588483e-08 0.00013147098
000100 20 d0 d8 38 83 65 8e 36 f9 9c 03 39 61 85 45 39
       0.00010338449 4.2437473e-06 0.0001255161 0.00018837072
000110 e1 91 5c 38 d8 a1 17 39 9c 1b 84 39 8c 25 0d 39
       5.2587948e-05 0.00014460774 0.00025197573 0.00013460795
000120 67 0a 11 39 8c a4 91 34 04 00 00 00 ce a3 43 38
       0.00013832153 2.7128078e-07 6e-45 4.6644178e-05
000130 e7 2a 6b 39 91 0a 99 35 0b e5 21 39 04 00 00 00
       0.00022427329 1.1402464e-06 0.00015439482 6e-45
000140 b9 57 d7 38 04 00 00 00 89 9f e1 31 b6 d2 25 39
       0.000102683385 6e-45 6.566499e-09 0.00015814122
000150 4a de 19 34 00 9e 3c 39 bc 1d 13 39 6f fa 55 33
       1.4330104e-07 0.00017987937 0.0001403009 4.9820695e-08
000160 50 bc dc 38 67 62 fd 37 f8 23 06 39 69 e9 ba 38
       0.000105254934 3.0205772e-05 0.00012792635 8.912647e-05
000170 04 00 00 00 8f 03 cf 34 f5 68 e2 38 ff 8f a8 39
       6e-45 3.8559344e-07 0.000107960695 0.00032150742
000180 82 51 22 37 7b e4 9f 39 5b 24 ae 36 06 94 0b 39
       9.67493e-06 0.00030497074 5.1898364e-06 0.00013311216

encoder.4.weight f4 [100, 100]
000000 b2 8a 01 bc 63 45 84 3d 7d 58 9f 3c d5 7d 9d 3d
       -0.007906603 0.06458547 0.019451374 0.07690016
000010 d9 14 91 bd 1e c1 e3 bc a6 8d 88 bd c4 4f 3f bd
       -0.070840545 -0.027802046 -0.06667642 -0.04670693
000020 16 69 9b bd 7e 20 20 3d e9 45 c9 3d 5b 16 43 3d
       -0.07588403 0.039093487 0.098277874 0.04762874
000030 cf df 82 3c 06 98 c6 3d 6d 8c b6 bd d1 2a ca 3d
       0.01597586 0.09696965 -0.08913503 0.09871448
000040 69 69 17 3d 03 cc 22 3d a9 f1 b0 3d 3b ae 11 bd
       0.03696576 0.039745342 0.08639843 -0.03556655
000050 41 bc b3 bd 71 d4 36 bd bf e4 df 3b ef 32 ac bd
       -0.08776141 -0.044636194 0.0068326886 -0.08408152
000060 50 90 5e bd ff 1e 3b bd c6 24 1c bd 5a 47 9b 3d
       -0.054336846 -0.045683857 -0.038121007 0.075819686
000070 ae 22 49 3c 28 e0 e5 3c 83 f4 a9 3d e0 61 28 3d
       0.012276335 0.028060988 0.0829859 0.041108966
000080 61 50 3d 3c 2d 62 aa bd 53 38 fb bb 8c c5 fb 3c
       0.011554808 -0.08319507 -0.0076666265 0.030733846
000090 26 17 75 bd 6f f8 3a bc bb b7 c3 3d d4 c6 6c bd
       -0.05983653 -0.01141177 0.09556528 -0.057806805
0000a0 98 78 b1 bd cf 83 7e bd 99 a5 f9 3a 42 82 8d 3d
       -0.086655796 -0.06213742 0.0019046544 0.0690961
0000b0 ab 9c ae 3d d8 12 8c 3b 4f f8 16 3d b7 a4 b1 3c
       0.08525976 0.0042747073 0.0368579 0.021684987
0000c0 2c ee 24 bd 99 9c 30 3d 9d 12 8a bd 9c f5 2e 3b
       -0.0402662 0.043118093 -0.067418315 0.0026696688
0000d0 02 f1 07 3d cc 0e b0 bd 43 90 93 bd 09 f6 9f bc
       0.033188827 -0.08596572 -0.0720525 -0.019526498
0000e0 b6 4d ce 3a 8c 9d 9a bd 61 5d a4 bd 60 30 5b bd
       0.0015739712 -0.07549581 -0.08025623 -0.05351293
0000f0 71 0a b0 bd 52 ee e8 3c 67 96 a4 3d 1f c8 da 3b
       -0.085957415 0.028433952 0.080364995 0.0066766883
000100 1d 3a ea 3c df 44 9f ba 1e d6 a3 bd 28 a8 b6 3c
       0.028592164 -0.0012151262 -0.07999824 0.02229698
000110 40 27 9d 3d 30 a9 80 bc e7 a4 cb bc 10 17 70 3d
       0.07673502 -0.015705675 -0.024858905 0.058615744
000120 f4 36 28 3d 4a a9 63 3d bc 0d 7b 3c 8b 29 5e bd
       0.041068032 0.05558137 0.015323099 -0.054238837
000130 72 6f 5b bd 3b 1b ac bd 3a 6b c8 bd 5f 79 47 bd
       -0.05357308 -0.08403631 -0.09786077 -0.048699733
000140 95 2f 5b bd 19 fb fc bb bd c6 9d bc 22 72 8a 3c
       -0.053512175 -0.007720363 -0.019259805 0.016900126
000150 79 7c c4 3d 06 85 8e bd 60 1f ba bd 2f e0 31 bd
       0.09594054 -0.06958966 -0.090880156 -0.04342669
000160 60 3f 11 bd 6a 5a 35 bd 65 c5 7e bd 7b ce a1 3d
       -0.03546083 -0.04427568 -0.06219997 0.07900711
000170 00 22 33 3d cb eb 74 3c a1 67 53 3d 91 39 97 bc
       0.043733597 0.014948796 0.0516125 -0.018460067
000180 fd cc b7 3d d5 b0 e0 bc e1 58 5c bd cc ed 86 3c
       0.08974645 -0.02742807 -0.0537957 0.016470812
000190 bb db b7 3d 3f 55 aa b9 af 0b 26 bd ab 95 4a 3d
       0.08977457 -0.0003248844 -0.040538486 0.04945914
0001a0 9a a3 fe bc e9 29 ae 3d dd b6 96 bd de bd 84 bd
       -0.03108387 0.085040875 -0.07359097 -0.06481527
0001b0 43 f4 40 bd 93 1a b0 bd 70 7a e2 bc d7 25 28 3d
       -0.047107946 -0.08598819 -0.027646273 0.041051712
0001c0 0c f6 70 bd b6 5b a4 3d 6a e9 45 3c de 6b 03 bd
       -0.0588284 0.08025305 0.012079576 -0.032085292
0001d0 b2 b7 70 bd 7c cd ef 3a 5b 3e ae 3d 26 2c 29 bd
       -0.058768936 0.0018295492 0.08507987 -0.04130187
0001e0 37 81 f5 3c 4a 9b 62 bd 9c 65 56 bc bc 43 39 3d
       0.029968841 -0.055323876 -0.013085749 0.045230612
0001f0 9b de b8 bd 50 1d 79 3d 7d 41 b2 3d 07 ba cc 3d
       -0.090268336 0.06081897 0.08703897 0.099964194
000200 2c e3 aa bd c0 23 6f 3d 45 38 88 3b 60 05 ad bd
       -0.08344111 0.058383703 0.0041570985 -0.08448291
000210 6f f4 85 3d 20 de 7a 3d b4 40 7c bd 41 d3 b1 3c
       0.06540763 0.06124699 -0.061585143 0.021707179
000220 26 92 90 bd 25 bd 71 bd 2e ec 80 bd fc 40 6d bc
       -0.070591256 -0.059018273 -0.06295048 -0.0144808255
000230 ed 1d 9d bc 37 28 26 3d c3 50 72 3c fe 8c 8c bd
       -0.019179309 0.040565696 0.014789763 -0.068628296
000240 ca f5 bf 3c 46 a1 f8 bc 42 63 69 3c 8b f6 c5 bd
       0.023432631 -0.030350339 0.014244856 -0.09666165
000250 6d bd 24 3c fe 6b e3 3b 79 d5 b5 3d 17 0f a1 bb
       0.010054928 0.006940364 0.08878607 -0.004915129
000260 1e 8c 9b bd 5c 16 90 bd af 4e 01 3d 45 08 00 3d
       -0.075950846 -0.07035515 0.03156918 0.031257886
000270 82 63 94 bc 42 12 58 bd 9a 09 b9 bd 79 13 15 3b
       -0.018113855 -0.052751787 -0.090350345 0.0022747202
000280 86 e0 9d bc a2 03 b0 3d 53 8a 55 3d e7 8a a7 3d
       -0.0192721 0.08594443 0.05213387 0.081807904
000290 f9 86 be bd c2 72 50 bd 3b 0a bc 3d 95 89 1b bd
       -0.09303088 -0.05089069 0.09181639 -0.037973005
0002a0 95 95 98 3d 21 02 a3 bd 10 89 c0 3d b7 6b 9f bd
       0.074504055 -0.079593904 0.094011426 -0.07784217
0002b0 7f bf 68 3d a7 fb c1 3d 77 b7 7b bd 76 6d 69 3d
       0.05682325 0.09471827 -0.061454263 0.056989156
0002c0 a0 41 ba bc 19 a0 2c bd 85 cc 6c bd 07 99 8a bd
       -0.02273637 -0.04214487 -0.057812233 -0.06767469
0002d0 29 a2 bb 3d 20 34 b6 3d be 31 90 3d 1c d6 a4 bd
       0.09161789 0.08896661 0.070407376 -0.080486506
0002e0 8e 63 7c bd 05 57 ca 3d da e1 db bc af d0 b4 3d
       -0.06161838 0.09879879 -0.026841093 0.08828866
0002f0 2d 04 bf bd ac d7 db 3b a1 00 37 bd 55 8f ba 3d
       -0.09326968 0.0067090597 -0.044678334 0.0910937
000300 eb 30 ba bd 83 bd 98 3d cc ec a7 bd f2 7b b7 3c
       -0.090913616 0.074580215 -0.08199462 0.022397969
000310 67 d1 38 3d 6b 9a c3 bd c3 f4 1c bd bd 4d 9b 3c
       0.045121577 -0.09550937 -0.03831936 0.018957967
000320 30 1b 72 3c 3c 30 3c bd 18 69 a0 3d 9e 4e c8 3d
       0.01477699 -0.045944437 0.07832545 0.0978062
000330 4a 77 88 3d 87 e7 74 bd 09 34 0d bd f9 b1 b8 3d
       0.066633776 -0.059791114 -0.034473453 0.090183206
000340 bd e0 ea 3c 57 2a 6d bd ef d9 b1 bd d6 5b 86 3c
       0.028671617 -0.057901707 -0.08684146 0.016401213
000350 2a c6 ef bc 91 50 6f bd 2e d8 9b bd db cf 9b bb
       -0.029269297 -0.058426443 -0.076095924 -0.004755003
000360 67 bf c2 3d 34 a3 92 bc 5e 24 e8 bc 2b 6e 0a bd
       0.09509163 -0.017900087 -0.028337654 -0.03379647
000370 da ea 73 bd ae c3 88 bd 74 92 3d 3d 66 40 73 3d
       -0.059550144 -0.06677948 0.046282247 0.059387587
000380 5f cf ae 3d d2 8a 14 3d 0a f9 8a bb 83 79 f1 3c
       0.08535647 0.036265202 -0.0042411136 0.029476887
000390 8e 6d 94 3d a0 20 b0 bb 22 67 10 3b 26 e5 7a 3c
       0.072474584 -0.005374983 0.0022034128 0.015313422
0003a0 97 ba af 3c 04 1f 78 3d a9 bf a7 bd 44 15 b0 3d
       0.021451278 0.060576454 -0.08190853 0.08597806
0003b0 fd a3 bd 3b 4b 06 97 bd f0 b9 03 3d 97 1b 8f 3d
       0.005787371 -0.07374247 0.032159746 0.06987684
0003c0 03 75 39 bd e8 7f 02 bd 32 49 f0 bc d2 98 02 bd
       -0.045277607 -0.031860262 -0.029331777 -0.031884022
0003d0 b3 e7 1a 3d 7a da c0 3d 24 50 80 bd cb f8 86 bc
       0.03781862 0.09416671 -0.062652856 -0.016476056
0003e0 a4 e7 0f 3d 92 07 3d 3d 51 4f c7 3c a0 50 ca bd
       0.03513302 0.046149798 0.024329813 -0.09878659
0003f0 5a ac b0 3b 02 3d 49 bd 0b a1 92 bd 7d 5a 16 bc
       0.0053916397 -0.049130447 -0.07159623 -0.0091768475

encoder.4.bias f4 [100]
000000 33 86 3c bd 17 40 d8 3c 04 a9 b9 3d e1 62 b9 bd
       -0.04602642 0.026397748 0.0906544 -0.09052063
000010 cc 37 90 3d 5b cd 0d bc 88 b7 89 bd ae ce c2 bd
       0.070418924 -0.008654918 -0.06724459 -0.09512077
000020 8e e9 14 3d 53 ef 2c bd 22 13 91 3b 49 ce ec 3a
       0.036355548 -0.042220425 0.0044273296 0.0018066849
000030 c2 c5 d4 bc e2 79 14 bd 60 30 aa 3d 76 90 12 3d
       -0.025973205 -0.03624905 0.08310008 0.0357823
000040 42 38 bc bd a2 bf f0 bb 34 52 51 bc 3e 60 9c 3d
       -0.09190418 -0.007347063 -0.012775946 0.07635544
000050 c1 4a 4d 3d 20 b8 03 bd 0f 2a a2 bd 8b de b9 bd
       0.05012012 -0.032158017 -0.07918178 -0.0907565
000060 d8 2c 59 bd ce 95 cc 3d 57 d5 86 bd 20 37 e6 3a
       -0.053021282 0.099895105 -0.0658366 0.0017564036
000070 5c 1d 26 3d cd 62 b3 3d 0e 03 a0 3d 85 ec cf bb
       0.040555343 0.08759079 0.07813083 -0.006345334
000080 1c cb a4 bd 8d 12 a2 3d 3d 8b e6 bc 86 73 a7 3d
       -0.080465525 0.079136945 -0.028142566 0.08176331
000090 10 90 0e bd 42 18 ab bd 2a 13 d7 bb 5d e9 6a 3d
       -0.034805357 -0.08354236 -0.006563564 0.05735146
0000a0 88 9d 18 3d 81 9e a5 bd 0f 0d ee bc 72 21 a6 bd
       0.03725961 -0.08086873 -0.029058961 -0.08111848
0000b0 14 01 be 3c 4e c3 86 bb 86 bc b1 3d 61 7b 8a 3d
       0.023193873 -0.0041126376 0.08678536 0.06761814
0000c0 8b db dc 3c 16 38 95 3d 14 08 1f bd dd 37 86 bd
       0.026960155 0.07286088 -0.038826063 -0.06553624
0000d0 1d fd ca 3c 30 b6 91 bd de d5 58 bc 1a ab 9f bd
       0.024778897 -0.07114828 -0.013234584 -0.07796307
0000e0 d3 ac 5d bd 8f a8 89 bd 53 82 c3 3d a3 ba 59 bd
       -0.054119896 -0.06721603 0.09546342 -0.053156506
0000f0 49 d6 cb 3d 7b a6 87 bd c7 40 b9 3d 4c 9f 59 bc
       0.09952981 -0.066235505 0.090455584 -0.013282608
000100 b2 fa 11 3d fa f9 f0 3c 02 7c a7 3d cb fd d3 bc
       0.035639472 0.029416073 0.081779495 -0.025877854
000110 0c f3 3e 3d 1e 55 41 bd 26 1b aa bd 0d 3c 44 bd
       0.046618506 -0.047200315 -0.083059594 -0.04790883
000120 27 d1 78 3d ce 74 9e bd 29 0c 83 3d fe 06 9b bd
       0.06074634 -0.077371225 0.06398804 -0.07569693
000130 b9 ee e5 3c 6f 33 ab 3d 3d 48 6e 3d 5d ee bc 3d
       0.028067933 0.083594196 0.05817436 0.09225152
000140 91 52 bc 3c 87 61 c9 bd 6b 5a 02 3d d6 9d 5e bd
       0.02298859 -0.09833055 0.03182451 -0.054349743
000150 11 02 ba bd 32 dc 75 bc 57 df b5 bd f7 b6 8e 3d
       -0.090824254 -0.015006112 -0.08880489 0.069684915
000160 5c 46 79 3d 78 6f c7 bc a9 c0 8e 3d 37 70 13 3c
       0.060858116 -0.024345145 0.06970341 0.008998922
000170 4b 6d 94 3d 74 29 61 bd 01 7a 14 bc e6 10 db 3c
       0.072474085 -0.054971173 -0.009062291 0.026741456
000180 78 62 3d bd cf 1d c1 bd 97 03 a5 bd fb 41 70 3c
       -0.046236485 -0.09429514 -0.08057325 0.0146641685

encoder.6.weight f4 [100]
000000 0b b3 7f 3f d3 15 80 3f 51 3f 80 3f ad ad 7f 3f
       0.9988257 1.000666 1.0019323 0.99874383
000010 34 4b 7f 3f 57 09 80 3f 95 21 80 3f 75 7d 7f 3f
       0.99724126 1.000285 1.0010248 0.9980081
000020 dd ea 7f 3f 19 40 80 3f 7f d8 7f 3f 15 c4 7f 3f
       0.9996775 1.0019561 0.9993972 0.9990857
000030 b2 d1 7f 3f 2e 0b 80 3f 7b ce 7f 3f d3 4c 7f 3f
       0.99929345 1.0003412 0.9992444 0.997266
000040 4e 03 80 3f 22 46 80 3f 21 c5 7f 3f 96 e8 7f 3f
       1.0001009 1.0021403 0.9991017 0.9996427
000050 8f 2d 80 3f 84 62 7f 3f 66 80 7f 3f 14 e1 7f 3f
       1.0013903 0.997597 0.99805295 0.99952817
000060 99 32 80 3f 3c 29 7f 3f 98 ed 7f 3f 9b f8 7f 3f
       1.0015441 0.99672294 0.99971914 0.99988717
000070 53 18 80 3f cc 0d 80 3f 73 13 80 3f 1e fd 7f 3f
       1.0007423 1.000421 1.0005935 0.999956
000080 96 3e 80 3f 06 2f 80 3f 71 4d 80 3f 68 2c 80 3f
       1.00191 1.001435 1.0023633 1.0013552
000090 fe 23 80 3f b9 db 7f 3f 81 b9 7f 3f e3 1b 80 3f
       1.0010984 0.99944645 0.9989243 1.000851
0000a0 fa 09 80 3f a1 06 7f 3f c4 b0 7f 3f 0e 5c 80 3f
       1.0003045 0.9961949 0.998791 1.0028093
0000b0 00 0f 80 3f a1 28 80 3f 35 22 80 3f 7b 0a 80 3f
       1.0004578 1.0012399 1.0010439 1.0003198
0000c0 c5 8f 7f 3f 85 20 80 3f b4 3b 80 3f 21 62 7f 3f
       0.9982875 1.0009924 1.001822 0.9975911
0000d0 f8 b8 7f 3f 9d 70 80 3f 38 6f 7f 3f d7 1d 80 3f
       0.99891615 1.0034367 0.9977908 1.0009106
0000e0 8e 86 7f 3f a7 19 7f 3f 12 90 7f 3f 03 d9 7f 3f
       0.9981469 0.9964852 0.9982921 0.9994051
0000f0 c9 02 80 3f 03 0b 80 3f 4c 5f 7f 3f 57 2e 80 3f
       1.000085 1.000336 0.99754786 1.0014142
000100 0c 50 7f 3f 56 06 80 3f f0 2f 80 3f f3 b0 7f 3f
       0.99731517 1.0001934 1.0014629 0.9987938
000110 f3 17 80 3f dd af 80 3f 7d 55 7f 3f 8a 21 80 3f
       1.0007309 1.0053669 0.9973982 1.0010235
000120 21 00 80 3f 21 2f 80 3f 3a f8 7f 3f 27 01 80 3f
       1.0000039 1.0014383 0.9998814 1.0000352
000130 6b d4 7f 3f a4 d3 7f 3f ee 59 7f 3f 34 1a 80 3f
       0.999335 0.9993231 0.99746597 1.0007997
000140 30 ca 7f 3f 2c c5 7f 3f 4d 13 80 3f 30 7f 7f 3f
       0.9991789 0.99910235 1.000589 0.9980345
000150 c8 28 80 3f 87 04 80 3f 9f 03 80 3f c6 10 80 3f
       1.0012445 1.0001382 1.0001105 1.0005119
000160 5b ec 7f 3f 4d 13 80 3f 0b 5e 80 3f 12 27 80 3f
       0.99970025 1.000589 1.00287 1.0011923
000170 86 5b 7f 3f 8c f3 7f 3f 35 38 80 3f cc 2d 80 3f
       0.9974903 0.99981 1.0017153 1.0013976
000180 44 de 7f 3f f6 35 80 3f 66 08 80 3f 09 30 80 3f
       0.99948525 1.0016468 1.0002563 1.0014659

encoder.6.bias f4 [100]
000000 c5 c6 8f 3a fc d6 fb ba 68 70 b6 3a 59 03 fc b9
       0.0010969272 -0.0019213851 0.0013918998 -0.0004806768
000010 d7 2d 02 3b aa 46 94 39 5e ae 50 bb 21 f9 50 3b
       0.0019863748 0.0002828141 -0.0031842212 0.0031886774
000020 66 91 de b9 ec 57 1f b9 25 34 0f 3b 92 7d 30 ba
       -0.0004245147 -0.00015196175 0.002185115 -0.00067325786
000030 a9 3f 6e 3a f1 bc 56 3a 60 21 03 bb 8c 0a 4a 3a
       0.00090884656 0.00081916066 -0.0020008907 0.000770726
000040 9a 92 bc 3a b6 cf 81 ba 0d 09 aa 3a 22 d2 bf 3a
       0.0014386952 -0.0009903822 0.0012972668 0.0014634768
000050 32 0f d2 b7 47 35 11 3b 4d 80 f2 39 6c e2 74 ba
       -2.5041027e-05 0.0022157 0.00046253428 -0.0009341601
000060 83 85 98 ba 25 9f 04 ba 46 3b c9 3a 38 1d 50 3a
       -0.0011636469 -0.0005059115 0.0015352748 0.0007938924
000070 46 af 1c bb 2a f2 e7 38 1c 32 2c bb 55 0a b9 3a
       -0.0023908182 0.00011060045 -0.0026274985 0.0014117459
000080 66 76 8f ba 13 60 f6 3a a2 47 02 3a de f7 71 ba
       -0.001094532 0.0018796943 0.00049697806 -0.00092303555
000090 36 2a ba ba 66 24 66 3a e9 fd 1e 3a 09 f1 ac 3a
       -0.0014203254 0.00087792275 0.0006065057 0.0013194393
0000a0 f9 b1 bf ba 49 90 d8 ba 05 56 9a ba 80 38 ce ba
       -0.0014625184 -0.0016522493 -0.0011774903 -0.0015733391
0000b0 42 37 af 3a e5 61 f6 ba 6b 08 2b 3b 4b 90 e2 b9
       0.0013367909 -0.0018797485 0.0026097547 -0.00043213586
0000c0 0d 7c 2b ba 6f 97 12 b9 4c 4c 03 bb 6e 45 a2 3a
       -0.00065416173 -0.00013980058 -0.002003449 0.0012380311
0000d0 da 6c 15 3a 07 c4 14 bb be 68 3c 39 84 38 ac ba
       0.0005700119 -0.002269985 0.00017968097 -0.0013139402
0000e0 f3 e2 23 b9 fb e3 3b 3a 33 67 da 3a 54 f9 0d 3b
       -0.00015629437 0.00071674556 0.0016662836 0.0021663504
0000f0 f5 4b cc 3a 6b 9b c8 39 c9 ca 5d ba 1d b4 8e ba
       0.0015586602 0.00038262768 -0.00084606983 -0.0010887418
000100 85 cf b2 3a 36 47 a0 ba 92 32 7a 3a 4a 2c a9 39
       0.0013642168 -0.0012228254 0.0009544279 0.0003226719
000110 fc 83 c1 ba 69 37 85 bb 9e 6c 52 3a 60 4c a2 ba
       -0.0014764066 -0.0040654433 0.00080270495 -0.0012382381
000120 b9 b8 09 3a 90 ab c8 39 df a2 32 3b c6 e5 ee ba
       0.0005253661 0.00038274797 0.0027257723 -0.0018226437
000130 2b b7 82 b9 83 98 9f ba cb 7c b0 3a 96 f9 2c 3b
       -0.00024932003 -0.0012176189 0.0013464926 0.0026393882
000140 d2 f4 ef b9 9d a9 46 ba f2 32 3a b9 3a d6 10 bb
       -0.00045768038 -0.0007578375 -0.00017757321 -0.0022100345
000150 a9 7b b3 ba bd 7e 10 bb 7d 23 09 bb f5 b8 00 bb
       -0.001369347 -0.0022048198 -0.0020925694 -0.0019641493
000160 5d 7d f7 3a 00 68 70 ba 93 6c b9 ba aa cd e5 b9
       0.0018881966 -0.00091707706 -0.0014146738 -0.00043831515
000170 6b b9 0f 39 93 19 fd ba 76 e5 3a ba cd 3f 23 bb
       0.00013706616 -0.001930999 -0.0007129529 -0.0024909854
000180 a3 72 92 39 69 07 1a 3b 8c fa c5 3a 3c 3f 45 bb
       0.000279327 0.0023502952 0.0015104576 -0.0030097505

encoder.6.running_mean f4 [100]
000000 a9 bd 30 3e f8 53 80 3e 1d 1a 75 3e f5 62 45 3e
       0.1725985 0.25064063 0.23935743 0.1927603
000010 a2 87 8f 3e c5 2c 88 3e dc 79 50 3e 33 06 1f 3e
       0.28033167 0.26596656 0.20358986 0.15529709
000020 f4 a1 8f 3e 25 d2 56 3e 5f 66 81 3e e0 de 60 3e
       0.28053248 0.20978601 0.25273415 0.2196002
000030 83 95 78 3e 36 69 81 3e 66 4c 48 3e ad 79 3c 3e
       0.24275784 0.25275582 0.19560394 0.1840579
000040 8a 01 33 3e 7f 97 4e 3e 8c 0a 41 3e 6b 22 7b 3e
       0.17481056 0.20174979 0.1885168 0.24524848
000050 e4 da 75 3e 7c d1 24 3e 20 e3 30 3e ac 97 43 3e
       0.24009281 0.16095537 0.17274141 0.19100827
000060 70 d8 36 3e e9 24 72 3e 1f 67 5c 3e 99 c6 6b 3e
       0.17856002 0.23646893 0.21523713 0.23024978
000070 93 ac 82 3e e9 cf 79 3e 46 54 8a 3e 58 ec 3b 3e
       0.2552229 0.24395718 0.2701742 0.18351877
000080 02 9d 5f 3e 78 07 8b 3e 8a f6 62 3e 16 d6 72 3e
       0.21837237 0.27154136 0.2216436 0.2371448
000090 1f df 69 3e c7 19 2f 3e 0f ef 1b 3e ff 62 50 3e
       0.2283902 0.17099677 0.15227912 0.20350264
0000a0 ee a7 99 3e f9 1a 3a 3e 06 f2 3a 3e 6b a2 34 3e
       0.30010933 0.18174352 0.18256387 0.17640083
0000b0 2f d2 8d 3e da d8 78 3e 2f cb 8b 3e 7b e3 85 3e
       0.2769942 0.24301472 0.27303454 0.26150116
0000c0 60 7a 42 3e 6c 00 69 3e 05 cc 19 3e 5e 28 1d 3e
       0.18991995 0.22754067 0.15019234 0.1534743
0000d0 fa fd 5d 3e 81 e9 3e 3e 0d 5b 7b 3e 6a a9 22 3e
       0.21678916 0.18643762 0.24546452 0.15884939
0000e0 85 d2 4f 3e ca 72 4c 3e b4 1c 85 3e c5 e0 18 3e
       0.2029515 0.19965664 0.2599846 0.14929493
0000f0 94 0d a3 3e ff 99 6d 3e ff 82 79 3e 15 db 58 3e
       0.31846297 0.23203276 0.24366377 0.21177323
000100 5b c3 6c 3e 60 c5 7d 3e fe e5 67 3e 8c 5b 49 3e
       0.23121397 0.24782324 0.22646329 0.19663829
000110 d3 0f 68 3e e2 f1 4d 3e 98 a2 55 3e 29 19 56 3e
       0.22662286 0.20111802 0.20862806 0.20908035
000120 ce 01 8f 3e f3 92 38 3e e6 5a 6a 3e d0 d1 48 3e
       0.27931064 0.18024807 0.22886238 0.19611287
000130 4e ca 8d 3e cf 8a 76 3e 2f 50 82 3e f0 c3 69 3e
       0.2769341 0.24076389 0.254518 0.2282865
000140 1e 51 6f 3e 94 46 10 3e d8 bd 53 3e 19 70 3b 3e
       0.23370788 0.14089423 0.20677888 0.1830448
000150 7c 36 1f 3e 3b d5 5e 3e 86 ac 2e 3e 4d c5 81 3e
       0.15548128 0.21761028 0.17058 0.2534584
000160 fe aa 85 3e 29 05 59 3e 2d 72 6f 3e 83 ef 4b 3e
       0.2610702 0.21193375 0.23383398 0.19915585
000170 a7 87 84 3e af a8 3f 3e 46 e1 69 3e c6 20 84 3e
       0.25884745 0.18716691 0.22839841 0.25806254
000180 a0 86 80 3e 9d 7c 46 3e 69 c9 1b 3e ee e3 4f 3e
       0.2510271 0.19383474 0.1521355 0.20301792

encoder.6.running_var f4 [100]
000000 80 57 b0 3d 73 36 05 3e ac 45 eb 3d 47 bd c2 3d
       0.08610439 0.13009052 0.11487898 0.09508758
000010 75 9d 07 3e 56 89 06 3e f3 0a 07 3e 35 09 a0 3d
       0.13243659 0.13138327 0.1318777 0.07814256
000020 f7 d6 72 3e c7 53 e3 3d dd ee 3a 3e 94 61 e7 3d
       0.23714815 0.11099964 0.18255182 0.112979084
000030 8b 50 02 3e 20 d0 06 3e c9 ae 8d 3d 25 df 87 3d
       0.12726037 0.13165331 0.06918103 0.06634358
000040 c3 fa db 3d 22 17 10 3e 8c 64 df 3d 4b af c8 3d
       0.107411884 0.14071324 0.1090785 0.097990595
000050 24 27 02 3e 59 2f 8d 3d 0a 12 c9 3d c0 9d ac 3d
       0.12710243 0.068937965 0.09817894 0.08428526
000060 bd f0 d0 3d 52 8b 0b 3e 5d ba 02 3e b6 5b e8 3d
       0.10202167 0.13627365 0.12766404 0.113456175
000070 1b c3 3f 3e 3f e9 cf 3d e3 9f 29 3e 36 10 e3 3d
       0.1872677 0.1015191 0.16564898 0.11087076
000080 21 e4 ec 3d bb 29 0d 3e ef 73 6f 3e d1 13 f5 3d
       0.1156695 0.1378545 0.23384069 0.1196667
000090 66 48 1f 3e f1 b8 db 3d 70 d5 51 3d d9 27 d3 3d
       0.15554962 0.10728634 0.05122894 0.10310335
0000a0 be a7 63 3e 54 aa cc 3d 3c 2b d4 3d 5f 0d dd 3d
       0.22231957 0.09993425 0.10359809 0.10793566
0000b0 d7 2e 13 3e 97 1e 27 3e 4d c7 08 3e 81 64 0a 3e
       0.14373337 0.16320263 0.13357277 0.13514902
0000c0 08 26 a7 3d 14 44 b8 3d 77 51 9f 3d 4b 7c 8e 3d
       0.08161551 0.0899736 0.0777921 0.06957301
0000d0 06 56 fe 3d f6 ca b2 3d 7d 23 ed 3d 31 4d b1 3d
       0.124187514 0.08730118 0.115790345 0.08657301
0000e0 29 62 1e 3e f0 95 cc 3d 10 39 de 3d cf 8b 8e 3d
       0.15467133 0.09989536 0.108507276 0.0696026
0000f0 bd 53 1d 3e 4c 9b 72 3e 5e 3d f3 3d 88 04 f2 3d
       0.15363975 0.23692054 0.11876939 0.118172705
000100 8b eb fc 3d 57 d5 2e 3e 93 c4 d1 3d 9d 6a e3 3d
       0.12349614 0.1707357 0.10242572 0.11104319
000110 80 e2 b6 3d 6f 51 15 3e f3 81 24 3e d4 ad d7 3d
       0.0892992 0.14581846 0.16065197 0.10531202
000120 87 06 35 3e 44 c2 f4 3d 0f 7f ea 3d 00 25 e6 3d
       0.17678271 0.11951116 0.11450016 0.11237526
000130 06 dc 86 3e d2 b9 c6 3d 48 03 35 3e cc 88 d7 3d
       0.2633974 0.09703411 0.17677033 0.10524139
000140 44 13 fb 3d c4 5e 94 3d 79 98 c6 3d dc 03 e6 3d
       0.12259534 0.072446376 0.096970506 0.11231205
000150 9f ee b9 3d 43 83 3c 3e 53 29 da 3d 8d 19 04 3e
       0.090787165 0.18409447 0.10652413 0.12900372
000160 cd d9 27 3e 38 37 06 3e a8 09 f2 3d e1 f7 94 3d
       0.16391678 0.13107002 0.11818248 0.07273842
000170 3d 94 1c 3e 7b 85 ac 3d 05 d0 d3 3d d6 ce 10 3e
       0.15290923 0.08423897 0.10342411 0.14141402
000180 86 00 1d 3e b3 6b f1 3d 3e 21 aa 3d 70 90 da 3d
       0.15332231 0.1178812 0.08307122 0.106720805

encoder.8.weight f4 [18, 100]
000000 1b b4 0c 3d 67 32 7f 3b 41 25 10 bd e3 bc e4 3c
       0.03435145 0.0038939954 -0.035191778 0.0279221
000010 4a 97 8a 3d be 75 4d bd 01 75 87 bd 31 fe 2a 3c
       0.06767137 -0.050161116 -0.066141136 0.0104365805
000020 0f eb bd 3d 1b fb 38 3c e8 62 1d bb c9 ab 17 3c
       0.092733495 0.011290337 -0.0024015252 0.009257265
000030 78 cc 87 3d 9a 96 04 bc 56 f8 a0 bc 4b ce df 3c
       0.06630796 -0.008092547 -0.019649666 0.027320048
000040 63 d9 43 3d 46 dc ac 3d 67 d5 94 bd 3f 25 23 3d
       0.047814738 0.08440451 -0.07267266 0.039830443
000050 a7 9e ad 3c 01 a4 a8 bd 73 b8 3b 3c b2 f6 bd bd
       0.021193815 -0.08234406 0.01145755 -0.09275569
000060 60 60 83 3d 1c 1c ff 3c b9 6a c2 3c 1e cf 57 bd
       0.064148664 0.031141333 0.02373253 -0.052687757
000070 e0 5b 48 3d 28 6f 63 bc 93 fa 8d bb 5a f8 53 3b
       0.048915744 -0.013881482 -0.0043328493 0.0032344074
000080 4b 47 cf bd 57 8f 8d 3d 38 36 ac 3d 7c c0 99 3d
       -0.1012102 0.069121055 0.08408779 0.075074166
000090 b9 bd 9b 3d e3 ca bd 3c 11 a2 70 3c 0f f7 88 3c
       0.07604546 0.023168033 0.014687077 0.01671937
0000a0 65 86 9e bd 8e 8f 7a bd 7f 3c e8 3c 56 2e 86 bd
       -0.077404775 -0.06117206 0.02834916 -0.06551807
0000b0 d7 78 88 3d 2f 0a 8c bd 8e 7f 2b 3d c4 e1 ce bd
       0.06663673 -0.0683788 0.041869693 -0.10101655
0000c0 c4 e6 be 3d d8 6b 17 3b 4d ba 91 3c 9a e8 89 3c
       0.09321359 0.0023105051 0.01778903 0.016834546
0000d0 24 ab 12 3d 46 fb 62 3d 3d 98 a3 3c 76 fa 79 bd
       0.035807744 0.055415414 0.019970054 -0.061029874
0000e0 35 da 97 bd 71 3c b2 3d c7 0f af bd 16 47 ea 3c
       -0.074146666 0.087029345 -0.08547931 0.02859835
0000f0 2f e1 e7 3c 20 42 73 3d 9d fa 0c 3c ba be 5c bd
       0.028305618 0.059389234 0.008604673 -0.05389283
000100 49 79 93 3d c3 b7 fa bc 16 dd 9b bd 0b 43 8b bd
       0.07200868 -0.030605203 -0.07610528 -0.06799897
000110 75 d7 96 3d 96 89 03 3d fc 25 8e bd 5b 1e 85 3d
       0.07365314 0.032113634 -0.06940839 0.064999305
000120 ee 85 8f 3d 69 60 8d 3c c4 ef 67 bc be c3 f3 bc
       0.07007967 0.017257886 -0.014156286 -0.029756423
000130 de eb a1 3d bb 1f cb 3c cc 8a c4 3d 07 c8 a7 bd
       0.07906316 0.024795404 0.09596786 -0.08192449
000140 55 9d 9b bc 09 be 90 bd 00 f3 41 3c f5 55 52 3b
       -0.01899592 -0.07067496 0.011837721 0.0032094691
000150 c8 d8 ac 3d 23 a3 3d bd 5b f0 4d bd 30 ce a3 bd
       0.08439785 -0.046298157 -0.05027805 -0.079983115
000160 25 4d 53 bd f0 51 76 bd 1d 21 d0 3d 96 ce b3 bc
       -0.051587243 -0.060136735 0.10162566 -0.021949094
000170 e5 41 ca 3d 73 6f 9e 3d 2a 54 9f bd 4a a8 07 3c
       0.0987585 0.07736101 -0.07779725 0.008279869
000180 db c1 9c 3d a7 ef fb 3c 62 c4 bb 3c 32 42 2c bd
       0.076541625 0.030753924 0.022920791 -0.042055316
000190 e4 6d 8b 3d 1f e7 d1 3c 6c 17 be bc c1 bc 7d 3d
       0.06808069 0.025622902 -0.023204528 0.061947588
0001a0 59 d7 60 bd 49 58 fd 3c e4 7b 99 3d 92 4f 9b 3c
       -0.05489287 0.030925887 0.074943334 0.01895884
0001b0 e1 94 c3 3d f1 c5 11 3d ce 71 95 bd 7a 60 79 bd
       0.09549881 0.035589162 -0.07297097 -0.060883023
0001c0 e0 4b c2 3d a0 8c 29 bd 52 89 0d bc d9 a6 8c bd
       0.09487128 -0.041393876 -0.008638697 -0.06867761
0001d0 33 ec b3 bd 18 47 82 3d d7 25 cb bd 80 2d c9 bd
       -0.08785286 0.06361216 -0.09919327 -0.098231316
0001e0 47 0b b7 bd 05 56 70 bd 05 4f 2d 3d 20 7e 4e 3c
       -0.08937698 -0.058675785 0.042311687 0.012603313
0001f0 02 da 8b bd eb 4c c6 3d 01 40 63 3d 94 9b ee 3c
       -0.06828691 0.0968264 0.05548096 0.02912692
000200 d8 ff 06 bd 52 0b b0 3d 02 1e ae bd 59 12 bc bd
       -0.032958835 0.08595909 -0.08501817 -0.09183187
000210 25 ed 59 bd ef 24 77 3d b7 be 26 3c c4 38 c6 bc
       -0.053204674 0.060337957 0.010177306 -0.02419699
000220 3d 0d 8a bd a6 ec 5c bd 22 2b 05 3d 98 e2 7e bd
       -0.06740806 -0.053936623 0.032511838 -0.062227815
000230 51 f7 93 bd b5 79 a3 3c 74 cd 18 3b 86 32 85 bd
       -0.07224906 0.019955495 0.002331582 -0.06503777
000240 fd fc 66 bc 78 ea 93 bd 2a 8a ad 3c 0d 55 aa bd
       -0.014098403 -0.07222456 0.021184046 -0.083170034
000250 3f 88 16 bd f6 7c a8 3d 72 19 05 bd 3c a8 a6 bc
       -0.03675103 0.082269594 -0.03249497 -0.020343892
000260 a3 1a 59 bc 12 db b6 3d f2 a8 cd 3c 77 89 ba 3d
       -0.01325098 0.08928503 0.025104973 0.091082506
000270 c5 a6 00 3d d1 19 b5 bc 16 79 aa bc 27 f8 b9 bd
       0.031409044 -0.022107037 -0.020809691 -0.090805344
000280 10 aa 41 bd 99 f0 bb bb 54 0e 2e bd c2 9b f1 bc
       -0.047281325 -0.0057354686 -0.042494133 -0.029493216
000290 aa 35 c7 bd 48 78 74 bc aa 21 9b bd d3 89 00 bd
       -0.097270325 -0.014921255 -0.0757478 -0.03138144
0002a0 54 56 30 bd d6 c5 87 3c cd aa 4b 3d 3c 5f ea 3c
       -0.04305108 0.016573828 0.049723435 0.028609864
0002b0 f0 35 1b bc c4 dd b0 3d db 64 64 bd cb 63 ad bd
       -0.009473309 0.086360484 -0.055760246 -0.084662996
0002c0 d7 c9 88 3d aa 26 97 bd f4 31 c1 3d 0b 05 7d bd
       0.06679123 -0.073804215 0.09433356 -0.061772387
0002d0 ef 1b d7 3c b2 5c b2 3d 48 94 11 3d 5d f9 f7 3b
       0.026258437 0.087090865 0.035541803 0.007567568
0002e0 d0 ba 18 bd 6e 5b 14 3d 62 a1 5b 3d bd 0b aa 3d
       -0.037287533 0.036220007 0.053620704 0.0830302
0002f0 16 3c 88 3d b8 a6 34 bc c3 0a a8 3d 5c bf 04 3d
       0.066520855 -0.011026077 0.08205178 0.032409057
000300 96 31 46 bb 48 43 c6 3c 98 6c 20 3d 26 6a 60 3d
       -0.0030241958 0.024202004 0.039166063 0.05478873
000310 cc 20 9b bd 95 19 c4 3d c9 59 bb bd 5a d0 6a 3d
       -0.07574615 0.09575192 -0.091479845 0.057327606
000320 81 dd 3e 3b 9a 0d bf 3d 58 b4 a1 bb 57 78 a5 bd
       0.0029123726 0.09328766 -0.0049348287 -0.08079594
000330 96 74 c2 3d 2a b2 67 bd e9 ff 36 3d 30 47 52 3d
       0.09494893 -0.056566395 0.04467765 0.05133742
000340 8b 32 9e 3a 92 2d c5 3d dd 3c a3 bd 68 37 91 bc
       0.0012069506 0.096278325 -0.07970593 -0.017726615
000350 9a 95 75 3d 1d 67 95 3b da a0 e6 3c 5d 6d b8 3d
       0.059957124 0.004559411 0.028152872 0.090052344
000360 ba c1 ab bd 04 b6 cb 3d a0 f2 8d bd 8f f9 5c 3d
       -0.0838656 0.09946826 -0.06931043 0.053948935
000370 fc 81 90 39 66 04 b5 bd 5e b5 46 bd dd a3 3a 3c
       0.00027562666 -0.088387296 -0.04851281 0.011391607
000380 75 87 8e bd f6 70 57 bc 00 d8 15 bd 5a b8 93 3d
       -0.0695943 -0.013149491 -0.036582947 0.07212897
000390 c3 c0 ab bc 8b cc 3f 3d 87 5e bd bc a3 0f 1b bd
       -0.02096594 0.046825927 -0.023116363 -0.03785671
0003a0 25 c4 86 bd db 30 3d 3b 86 51 9f 3d 03 75 f5 bc
       -0.0658038 0.0028868231 0.07779221 -0.029963022
0003b0 4a 2b b0 3d cf dd a7 3d 02 3d 8e bd a6 56 98 bd
       0.08602007 0.081966035 -0.0694523 -0.07438402
0003c0 8c 8d 6a 3c b0 3a 4f bc 56 7a 53 3d 0e 7e 90 bd
       0.014315974 -0.0126482695 0.05163034 -0.07055293
0003d0 f3 b8 60 bc a8 37 9a 3d 76 4b 80 3d 1b 71 ab bd
       -0.01371597 0.07530147 0.06264393 -0.083711825
0003e0 7a a3 fb bc 62 85 49 3a e9 a2 1d bd c8 07 90 bd
       -0.0307176 0.0007687417 -0.03848544 -0.07032734
0003f0 d3 bc a2 bb 1b 94 b9 3d 25 53 80 bd 9e 78 8d 3c
       -0.0049663573 0.09061452 -0.062658586 0.017269429

encoder.8.bias f4 [18]
000000 10 4a 3e 3d 18 9e 1e 3d 36 70 b3 bd df 0d 43 3d
       0.04645735 0.03872499 -0.08761637 0.04762065
000010 36 43 ab 3d 2b 28 f0 3c 68 96 8f bd 08 50 3c bd
       0.08362429 0.029316029 -0.070111096 -0.04597476
000020 ed c9 c5 3d 9a e4 a9 3a 77 f6 8e bd 62 6a d9 3a
       0.09657655 0.0012961805 -0.06980603 0.0016587491
000030 fe af 32 bc 09 fc cf bb 78 81 78 bd 0d f4 75 bc
       -0.010906218 -0.0063471836 -0.060670346 -0.0150117995
000040 c0 08 81 bd 00 bf 10 bd
       -0.06300497 -0.0353384

encoder.10.weight f4 [18]
000000 ce 20 82 3f d7 1c 80 3f ac 6c 80 3f e6 61 7f 3f
       1.0166261 1.0008801 1.0033164 0.99758756
000010 ea 3d 80 3f 10 6b 80 3f 4a e1 7f 3f 51 c1 80 3f
       1.0018895 1.0032673 0.9995314 1.0058995
000020 e2 89 7f 3f 4f a8 7e 3f d1 d2 7d 3f 34 91 7f 3f
       0.9981977 0.9947557 0.99149805 0.9983094
000030 03 d5 7f 3f bc fd 7e 3f 9b d3 80 3f 46 d1 80 3f
       0.99934405 0.9960592 1.0064577 1.0063865
000040 39 2a 80 3f 46 6e 80 3f
       1.0012885 1.0033653

encoder.10.bias f4 [18]
000000 f8 7a da 39 11 d5 27 3c 22 59 1a b8 52 df 4c 3c
       0.0004167182 0.01024367 -3.6799473e-05 0.012504416
000010 a6 58 03 bc 54 94 12 bc f9 3b 31 3b 77 20 58 3b
       -0.008016741 -0.008946497 0.0027043803 0.0032978335
000020 e1 f6 ff bb 88 ed 40 3a f3 40 e6 bb 46 08 ef 3b
       -0.0078114127 0.00073596137 -0.0070267855 0.0072946874
000030 a6 66 67 bb 13 b0 f2 3b 9a ca 20 ba c6 09 35 bc
       -0.0035308986 0.0074062436 -0.00061337056 -0.011049693
000040 94 ff 97 3b 3c 3e 0d ba
       0.0046386216 -0.0005387997
